…
W0107 09:35:52.965152 23133 _caffe.cpp:142] Net('/home/sunny/data/TreeClassification/Models/resnet50_inference.prototxt', 1, weights='/home/sunny/data/TreeClassification/Inference/Models/64/resnet50_0.00001_iter_190000.caffemodel')
I0107 09:35:52.968417 23133 net.cpp:51] Initializing net from parameters: 
name: "Deep learning for building density estimation"
state {
  phase: TEST
  level: 0
}
layer {
  name: "data"
  type: "Python"
  top: "data_RGB"
  top: "data_Label"
  python_param {
    module: "MyDataLayer"
    layer: "MyDataLayer"
    param_str: "\'source_dir\': \'/home/sunny/data/TreeClassification/Data/samples_64\',\'target_size_w\': 64,\'target_size_h\': 64,\'batch_size\': 1,\'stage\': \'test\'"
  }
}
layer {
  name: "conv1"
  type: "Convolution"
  bottom: "data_RGB"
  top: "conv1"
  convolution_param {
    num_output: 64
    pad: 3
    kernel_size: 7
    stride: 2
  }
}
layer {
  name: "bn_conv1"
  type: "BatchNorm"
  bottom: "conv1"
  top: "conv1"
  batch_norm_param {
    use_global_stats: true
  }
}
layer {
  name: "scale_conv1"
  type: "Scale"
  bottom: "conv1"
  top: "conv1"
  scale_param {
    bias_term: true
  }
}
layer {
  name: "conv1_relu"
  type: "ReLU"
  bottom: "conv1"
  top: "conv1"
}
layer {
  name: "pool1"
  type: "Pooling"
  bottom: "conv1"
  top: "pool1"
  pooling_param {
    pool: MAX
    kernel_size: 3
    stride: 2
  }
}
layer {
  name: "res2a_branch1"
  type: "Convolution"
  bottom: "pool1"
  top: "res2a_branch1"
  convolution_param {
    num_output: 256
    bias_term: false
    pad: 0
    kernel_size: 1
    stride: 1
  }
}
layer {
  name: "bn2a_branch1"
  type: "BatchNorm"
  bottom: "res2a_branch1"
  top: "res2a_branch1"
  batch_norm_param {
    use_global_stats: true
  }
}
layer {
  name: "scale2a_branch1"
  type: "Scale"
  bottom: "res2a_branch1"
  top: "res2a_branch1"
  scale_param {
    bias_term: true
  }
}
layer {
  name: "res2a_branch2a"
  type: "Convolution"
  bottom: "pool1"
  top: "res2a_branch2a"
  convolution_param {
    num_output: 64
    bias_term: false
    pad: 0
    kernel_size: 1
    stride: 1
  }
}
layer {
  name: "bn2a_branch2a"
  type: "BatchNorm"
  bottom: "res2a_branch2a"
  top: "res2a_branch2a"
  batch_norm_param {
    use_global_stats: true
  }
}
layer {
  name: "scale2a_branch2a"
  type: "Scale"
  bottom: "res2a_branch2a"
  top: "res2a_branch2a"
  scale_param {
    bias_term: true
  }
}
layer {
  name: "res2a_branch2a_relu"
  type: "ReLU"
  bottom: "res2a_branch2a"
  top: "res2a_branch2a"
}
layer {
  name: "res2a_branch2b"
  type: "Convolution"
  bottom: "res2a_branch2a"
  top: "res2a_branch2b"
  convolution_param {
    num_output: 64
    bias_term: false
    pad: 1
    kernel_size: 3
    stride: 1
  }
}
layer {
  name: "bn2a_branch2b"
  type: "BatchNorm"
  bottom: "res2a_branch2b"
  top: "res2a_branch2b"
  batch_norm_param {
    use_global_stats: true
  }
}
layer {
  name: "scale2a_branch2b"
  type: "Scale"
  bottom: "res2a_branch2b"
  top: "res2a_branch2b"
  scale_param {
    bias_term: true
  }
}
layer {
  name: "res2a_branch2b_relu"
  type: "ReLU"
  bottom: "res2a_branch2b"
  top: "res2a_branch2b"
}
layer {
  name: "res2a_branch2c"
  type: "Convolution"
  bottom: "res2a_branch2b"
  top: "res2a_branch2c"
  convolution_param {
    num_output: 256
    bias_term: false
    pad: 0
    kernel_size: 1
    stride: 1
  }
}
layer {
  name: "bn2a_branch2c"
  type: "BatchNorm"
  bottom: "res2a_branch2c"
  top: "res2a_branch2c"
  batch_norm_param {
    use_global_stats: true
  }
}
layer {
  name: "scale2a_branch2c"
  type: "Scale"
  bottom: "res2a_branch2c"
  top: "res2a_branch2c"
  scale_param {
    bias_term: true
  }
}
layer {
  name: "res2a"
  type: "Eltwise"
  bottom: "res2a_branch1"
  bottom: "res2a_branch2c"
  top: "res2a"
}
layer {
  name: "res2a_relu"
  type: "ReLU"
  bottom: "res2a"
  top: "res2a"
}
layer {
  name: "res2b_branch2a"
  type: "Convolution"
  bottom: "res2a"
  top: "res2b_branch2a"
  convolution_param {
    num_output: 64
    bias_term: false
    pad: 0
    kernel_size: 1
    stride: 1
  }
}
layer {
  name: "bn2b_branch2a"
  type: "BatchNorm"
  bottom: "res2b_branch2a"
  top: "res2b_branch2a"
  batch_norm_param {
    use_global_stats: true
  }
}
layer {
  name: "scale2b_branch2a"
  type: "Scale"
  bottom: "res2b_branch2a"
  top: "res2b_branch2a"
  scale_param {
    bias_term: true
  }
}
layer {
  name: "res2b_branch2a_relu"
  type: "ReLU"
  bottom: "res2b_branch2a"
  top: "res2b_branch2a"
}
layer {
  name: "res2b_branch2b"
  type: "Convolution"
  bottom: "res2b_branch2a"
  top: "res2b_branch2b"
  convolution_param {
    num_output: 64
    bias_term: false
    pad: 1
    kernel_size: 3
    stride: 1
  }
}
layer {
  name: "bn2b_branch2b"
  type: "BatchNorm"
  bottom: "res2b_branch2b"
  top: "res2b_branch2b"
  batch_norm_param {
    use_global_stats: true
  }
}
layer {
  name: "scale2b_branch2b"
  type: "Scale"
  bottom: "res2b_branch2b"
  top: "res2b_branch2b"
  scale_param {
    bias_term: true
  }
}
layer {
  name: "res2b_branch2b_relu"
  type: "ReLU"
  bottom: "res2b_branch2b"
  top: "res2b_branch2b"
}
layer {
  name: "res2b_branch2c"
  type: "Convolution"
  bottom: "res2b_branch2b"
  top: "res2b_branch2c"
  convolution_param {
    num_output: 256
    bias_term: false
    pad: 0
    kernel_size: 1
    stride: 1
  }
}
layer {
  name: "bn2b_branch2c"
  type: "BatchNorm"
  bottom: "res2b_branch2c"
  top: "res2b_branch2c"
  batch_norm_param {
    use_global_stats: true
  }
}
layer {
  name: "scale2b_branch2c"
  type: "Scale"
  bottom: "res2b_branch2c"
  top: "res2b_branch2c"
  scale_param {
    bias_term: true
  }
}
layer {
  name: "res2b"
  type: "Eltwise"
  bottom: "res2a"
  bottom: "res2b_branch2c"
  top: "res2b"
}
layer {
  name: "res2b_relu"
  type: "ReLU"
  bottom: "res2b"
  top: "res2b"
}
layer {
  name: "res2c_branch2a"
  type: "Convolution"
  bottom: "res2b"
  top: "res2c_branch2a"
  convolution_param {
    num_output: 64
    bias_term: false
    pad: 0
    kernel_size: 1
    stride: 1
  }
}
layer {
  name: "bn2c_branch2a"
  type: "BatchNorm"
  bottom: "res2c_branch2a"
  top: "res2c_branch2a"
  batch_norm_param {
    use_global_stats: true
  }
}
layer {
  name: "scale2c_branch2a"
  type: "Scale"
  bottom: "res2c_branch2a"
  top: "res2c_branch2a"
  scale_param {
    bias_term: true
  }
}
layer {
  name: "res2c_branch2a_relu"
  type: "ReLU"
  bottom: "res2c_branch2a"
  top: "res2c_branch2a"
}
layer {
  name: "res2c_branch2b"
  type: "Convolution"
  bottom: "res2c_branch2a"
  top: "res2c_branch2b"
  convolution_param {
    num_output: 64
    bias_term: false
    pad: 1
    kernel_size: 3
    stride: 1
  }
}
layer {
  name: "bn2c_branch2b"
  type: "BatchNorm"
  bottom: "res2c_branch2b"
  top: "res2c_branch2b"
  batch_norm_param {
    use_global_stats: true
  }
}
layer {
  name: "scale2c_branch2b"
  type: "Scale"
  bottom: "res2c_branch2b"
  top: "res2c_branch2b"
  scale_param {
    bias_term: true
  }
}
layer {
  name: "res2c_branch2b_relu"
  type: "ReLU"
  bottom: "res2c_branch2b"
  top: "res2c_branch2b"
}
layer {
  name: "res2c_branch2c"
  type: "Convolution"
  bottom: "res2c_branch2b"
  top: "res2c_branch2c"
  convolution_param {
    num_output: 256
    bias_term: false
    pad: 0
    kernel_size: 1
    stride: 1
  }
}
layer {
  name: "bn2c_branch2c"
  type: "BatchNorm"
  bottom: "res2c_branch2c"
  top: "res2c_branch2c"
  batch_norm_param {
    use_global_stats: true
  }
}
layer {
  name: "scale2c_branch2c"
  type: "Scale"
  bottom: "res2c_branch2c"
  top: "res2c_branch2c"
  scale_param {
    bias_term: true
  }
}
layer {
  name: "res2c"
  type: "Eltwise"
  bottom: "res2b"
  bottom: "res2c_branch2c"
  top: "res2c"
}
layer {
  name: "res2c_relu"
  type: "ReLU"
  bottom: "res2c"
  top: "res2c"
}
layer {
  name: "drop2"
  type: "Dropout"
  bottom: "res2c"
  top: "res2c"
  dropout_param {
    dropout_ratio: 0.5
  }
}
layer {
  name: "res3a_branch1"
  type: "Convolution"
  bottom: "res2c"
  top: "res3a_branch1"
  convolution_param {
    num_output: 512
    bias_term: false
    pad: 0
    kernel_size: 1
    stride: 2
  }
}
layer {
  name: "bn3a_branch1"
  type: "BatchNorm"
  bottom: "res3a_branch1"
  top: "res3a_branch1"
  batch_norm_param {
    use_global_stats: true
  }
}
layer {
  name: "scale3a_branch1"
  type: "Scale"
  bottom: "res3a_branch1"
  top: "res3a_branch1"
  scale_param {
    bias_term: true
  }
}
layer {
  name: "res3a_branch2a"
  type: "Convolution"
  bottom: "res2c"
  top: "res3a_branch2a"
  convolution_param {
    num_output: 128
    bias_term: false
    pad: 0
    kernel_size: 1
    stride: 2
  }
}
layer {
  name: "bn3a_branch2a"
  type: "BatchNorm"
  bottom: "res3a_branch2a"
  top: "res3a_branch2a"
  batch_norm_param {
    use_global_stats: true
  }
}
layer {
  name: "scale3a_branch2a"
  type: "Scale"
  bottom: "res3a_branch2a"
  top: "res3a_branch2a"
  scale_param {
    bias_term: true
  }
}
layer {
  name: "res3a_branch2a_relu"
  type: "ReLU"
  bottom: "res3a_branch2a"
  top: "res3a_branch2a"
}
layer {
  name: "res3a_branch2b"
  type: "Convolution"
  bottom: "res3a_branch2a"
  top: "res3a_branch2b"
  convolution_param {
    num_output: 128
    bias_term: false
    pad: 1
    kernel_size: 3
    stride: 1
  }
}
layer {
  name: "bn3a_branch2b"
  type: "BatchNorm"
  bottom: "res3a_branch2b"
  top: "res3a_branch2b"
  batch_norm_param {
    use_global_stats: true
  }
}
layer {
  name: "scale3a_branch2b"
  type: "Scale"
  bottom: "res3a_branch2b"
  top: "res3a_branch2b"
  scale_param {
    bias_term: true
  }
}
layer {
  name: "res3a_branch2b_relu"
  type: "ReLU"
  bottom: "res3a_branch2b"
  top: "res3a_branch2b"
}
layer {
  name: "res3a_branch2c"
  type: "Convolution"
  bottom: "res3a_branch2b"
  top: "res3a_branch2c"
  convolution_param {
    num_output: 512
    bias_term: false
    pad: 0
    kernel_size: 1
    stride: 1
  }
}
layer {
  name: "bn3a_branch2c"
  type: "BatchNorm"
  bottom: "res3a_branch2c"
  top: "res3a_branch2c"
  batch_norm_param {
    use_global_stats: true
  }
}
layer {
  name: "scale3a_branch2c"
  type: "Scale"
  bottom: "res3a_branch2c"
  top: "res3a_branch2c"
  scale_param {
    bias_term: true
  }
}
layer {
  name: "res3a"
  type: "Eltwise"
  bottom: "res3a_branch1"
  bottom: "res3a_branch2c"
  top: "res3a"
}
layer {
  name: "res3a_relu"
  type: "ReLU"
  bottom: "res3a"
  top: "res3a"
}
layer {
  name: "res3b_branch2a"
  type: "Convolution"
  bottom: "res3a"
  top: "res3b_branch2a"
  convolution_param {
    num_output: 128
    bias_term: false
    pad: 0
    kernel_size: 1
    stride: 1
  }
}
layer {
  name: "bn3b_branch2a"
  type: "BatchNorm"
  bottom: "res3b_branch2a"
  top: "res3b_branch2a"
  batch_norm_param {
    use_global_stats: true
  }
}
layer {
  name: "scale3b_branch2a"
  type: "Scale"
  bottom: "res3b_branch2a"
  top: "res3b_branch2a"
  scale_param {
    bias_term: true
  }
}
layer {
  name: "res3b_branch2a_relu"
  type: "ReLU"
  bottom: "res3b_branch2a"
  top: "res3b_branch2a"
}
layer {
  name: "res3b_branch2b"
  type: "Convolution"
  bottom: "res3b_branch2a"
  top: "res3b_branch2b"
  convolution_param {
    num_output: 128
    bias_term: false
    pad: 1
    kernel_size: 3
    stride: 1
  }
}
layer {
  name: "bn3b_branch2b"
  type: "BatchNorm"
  bottom: "res3b_branch2b"
  top: "res3b_branch2b"
  batch_norm_param {
    use_global_stats: true
  }
}
layer {
  name: "scale3b_branch2b"
  type: "Scale"
  bottom: "res3b_branch2b"
  top: "res3b_branch2b"
  scale_param {
    bias_term: true
  }
}
layer {
  name: "res3b_branch2b_relu"
  type: "ReLU"
  bottom: "res3b_branch2b"
  top: "res3b_branch2b"
}
layer {
  name: "res3b_branch2c"
  type: "Convolution"
  bottom: "res3b_branch2b"
  top: "res3b_branch2c"
  convolution_param {
    num_output: 512
    bias_term: false
    pad: 0
    kernel_size: 1
    stride: 1
  }
}
layer {
  name: "bn3b_branch2c"
  type: "BatchNorm"
  bottom: "res3b_branch2c"
  top: "res3b_branch2c"
  batch_norm_param {
    use_global_stats: true
  }
}
layer {
  name: "scale3b_branch2c"
  type: "Scale"
  bottom: "res3b_branch2c"
  top: "res3b_branch2c"
  scale_param {
    bias_term: true
  }
}
layer {
  name: "res3b"
  type: "Eltwise"
  bottom: "res3a"
  bottom: "res3b_branch2c"
  top: "res3b"
}
layer {
  name: "res3b_relu"
  type: "ReLU"
  bottom: "res3b"
  top: "res3b"
}
layer {
  name: "res3c_branch2a"
  type: "Convolution"
  bottom: "res3b"
  top: "res3c_branch2a"
  convolution_param {
    num_output: 128
    bias_term: false
    pad: 0
    kernel_size: 1
    stride: 1
  }
}
layer {
  name: "bn3c_branch2a"
  type: "BatchNorm"
  bottom: "res3c_branch2a"
  top: "res3c_branch2a"
  batch_norm_param {
    use_global_stats: true
  }
}
layer {
  name: "scale3c_branch2a"
  type: "Scale"
  bottom: "res3c_branch2a"
  top: "res3c_branch2a"
  scale_param {
    bias_term: true
  }
}
layer {
  name: "res3c_branch2a_relu"
  type: "ReLU"
  bottom: "res3c_branch2a"
  top: "res3c_branch2a"
}
layer {
  name: "res3c_branch2b"
  type: "Convolution"
  bottom: "res3c_branch2a"
  top: "res3c_branch2b"
  convolution_param {
    num_output: 128
    bias_term: false
    pad: 1
    kernel_size: 3
    stride: 1
  }
}
layer {
  name: "bn3c_branch2b"
  type: "BatchNorm"
  bottom: "res3c_branch2b"
  top: "res3c_branch2b"
  batch_norm_param {
    use_global_stats: true
  }
}
layer {
  name: "scale3c_branch2b"
  type: "Scale"
  bottom: "res3c_branch2b"
  top: "res3c_branch2b"
  scale_param {
    bias_term: true
  }
}
layer {
  name: "res3c_branch2b_relu"
  type: "ReLU"
  bottom: "res3c_branch2b"
  top: "res3c_branch2b"
}
layer {
  name: "res3c_branch2c"
  type: "Convolution"
  bottom: "res3c_branch2b"
  top: "res3c_branch2c"
  convolution_param {
    num_output: 512
    bias_term: false
    pad: 0
    kernel_size: 1
    stride: 1
  }
}
layer {
  name: "bn3c_branch2c"
  type: "BatchNorm"
  bottom: "res3c_branch2c"
  top: "res3c_branch2c"
  batch_norm_param {
    use_global_stats: true
  }
}
layer {
  name: "scale3c_branch2c"
  type: "Scale"
  bottom: "res3c_branch2c"
  top: "res3c_branch2c"
  scale_param {
    bias_term: true
  }
}
layer {
  name: "res3c"
  type: "Eltwise"
  bottom: "res3b"
  bottom: "res3c_branch2c"
  top: "res3c"
}
layer {
  name: "res3c_relu"
  type: "ReLU"
  bottom: "res3c"
  top: "res3c"
}
layer {
  name: "res3d_branch2a"
  type: "Convolution"
  bottom: "res3c"
  top: "res3d_branch2a"
  convolution_param {
    num_output: 128
    bias_term: false
    pad: 0
    kernel_size: 1
    stride: 1
  }
}
layer {
  name: "bn3d_branch2a"
  type: "BatchNorm"
  bottom: "res3d_branch2a"
  top: "res3d_branch2a"
  batch_norm_param {
    use_global_stats: true
  }
}
layer {
  name: "scale3d_branch2a"
  type: "Scale"
  bottom: "res3d_branch2a"
  top: "res3d_branch2a"
  scale_param {
    bias_term: true
  }
}
layer {
  name: "res3d_branch2a_relu"
  type: "ReLU"
  bottom: "res3d_branch2a"
  top: "res3d_branch2a"
}
layer {
  name: "res3d_branch2b"
  type: "Convolution"
  bottom: "res3d_branch2a"
  top: "res3d_branch2b"
  convolution_param {
    num_output: 128
    bias_term: false
    pad: 1
    kernel_size: 3
    stride: 1
  }
}
layer {
  name: "bn3d_branch2b"
  type: "BatchNorm"
  bottom: "res3d_branch2b"
  top: "res3d_branch2b"
  batch_norm_param {
    use_global_stats: true
  }
}
layer {
  name: "scale3d_branch2b"
  type: "Scale"
  bottom: "res3d_branch2b"
  top: "res3d_branch2b"
  scale_param {
    bias_term: true
  }
}
layer {
  name: "res3d_branch2b_relu"
  type: "ReLU"
  bottom: "res3d_branch2b"
  top: "res3d_branch2b"
}
layer {
  name: "res3d_branch2c"
  type: "Convolution"
  bottom: "res3d_branch2b"
  top: "res3d_branch2c"
  convolution_param {
    num_output: 512
    bias_term: false
    pad: 0
    kernel_size: 1
    stride: 1
  }
}
layer {
  name: "bn3d_branch2c"
  type: "BatchNorm"
  bottom: "res3d_branch2c"
  top: "res3d_branch2c"
  batch_norm_param {
    use_global_stats: true
  }
}
layer {
  name: "scale3d_branch2c"
  type: "Scale"
  bottom: "res3d_branch2c"
  top: "res3d_branch2c"
  scale_param {
    bias_term: true
  }
}
layer {
  name: "res3d"
  type: "Eltwise"
  bottom: "res3c"
  bottom: "res3d_branch2c"
  top: "res3d"
}
layer {
  name: "res3d_relu"
  type: "ReLU"
  bottom: "res3d"
  top: "res3d"
}
layer {
  name: "drop3"
  type: "Dropout"
  bottom: "res3d"
  top: "res3d"
  dropout_param {
    dropout_ratio: 0.5
  }
}
layer {
  name: "res4a_branch1"
  type: "Convolution"
  bottom: "res3d"
  top: "res4a_branch1"
  convolution_param {
    num_output: 1024
    bias_term: false
    pad: 0
    kernel_size: 1
    stride: 2
  }
}
layer {
  name: "bn4a_branch1"
  type: "BatchNorm"
  bottom: "res4a_branch1"
  top: "res4a_branch1"
  batch_norm_param {
    use_global_stats: true
  }
}
layer {
  name: "scale4a_branch1"
  type: "Scale"
  bottom: "res4a_branch1"
  top: "res4a_branch1"
  scale_param {
    bias_term: true
  }
}
layer {
  name: "res4a_branch2a"
  type: "Convolution"
  bottom: "res3d"
  top: "res4a_branch2a"
  convolution_param {
    num_output: 256
    bias_term: false
    pad: 0
    kernel_size: 1
    stride: 2
  }
}
layer {
  name: "bn4a_branch2a"
  type: "BatchNorm"
  bottom: "res4a_branch2a"
  top: "res4a_branch2a"
  batch_norm_param {
    use_global_stats: true
  }
}
layer {
  name: "scale4a_branch2a"
  type: "Scale"
  bottom: "res4a_branch2a"
  top: "res4a_branch2a"
  scale_param {
    bias_term: true
  }
}
layer {
  name: "res4a_branch2a_relu"
  type: "ReLU"
  bottom: "res4a_branch2a"
  top: "res4a_branch2a"
}
layer {
  name: "res4a_branch2b"
  type: "Convolution"
  bottom: "res4a_branch2a"
  top: "res4a_branch2b"
  convolution_param {
    num_output: 256
    bias_term: false
    pad: 1
    kernel_size: 3
    stride: 1
  }
}
layer {
  name: "bn4a_branch2b"
  type: "BatchNorm"
  bottom: "res4a_branch2b"
  top: "res4a_branch2b"
  batch_norm_param {
    use_global_stats: true
  }
}
layer {
  name: "scale4a_branch2b"
  type: "Scale"
  bottom: "res4a_branch2b"
  top: "res4a_branch2b"
  scale_param {
    bias_term: true
  }
}
layer {
  name: "res4a_branch2b_relu"
  type: "ReLU"
  bottom: "res4a_branch2b"
  top: "res4a_branch2b"
}
layer {
  name: "res4a_branch2c"
  type: "Convolution"
  bottom: "res4a_branch2b"
  top: "res4a_branch2c"
  convolution_param {
    num_output: 1024
    bias_term: false
    pad: 0
    kernel_size: 1
    stride: 1
  }
}
layer {
  name: "bn4a_branch2c"
  type: "BatchNorm"
  bottom: "res4a_branch2c"
  top: "res4a_branch2c"
  batch_norm_param {
    use_global_stats: true
  }
}
layer {
  name: "scale4a_branch2c"
  type: "Scale"
  bottom: "res4a_branch2c"
  top: "res4a_branch2c"
  scale_param {
    bias_term: true
  }
}
layer {
  name: "res4a"
  type: "Eltwise"
  bottom: "res4a_branch1"
  bottom: "res4a_branch2c"
  top: "res4a"
}
layer {
  name: "res4a_relu"
  type: "ReLU"
  bottom: "res4a"
  top: "res4a"
}
layer {
  name: "res4b_branch2a"
  type: "Convolution"
  bottom: "res4a"
  top: "res4b_branch2a"
  convolution_param {
    num_output: 256
    bias_term: false
    pad: 0
    kernel_size: 1
    stride: 1
  }
}
layer {
  name: "bn4b_branch2a"
  type: "BatchNorm"
  bottom: "res4b_branch2a"
  top: "res4b_branch2a"
  batch_norm_param {
    use_global_stats: true
  }
}
layer {
  name: "scale4b_branch2a"
  type: "Scale"
  bottom: "res4b_branch2a"
  top: "res4b_branch2a"
  scale_param {
    bias_term: true
  }
}
layer {
  name: "res4b_branch2a_relu"
  type: "ReLU"
  bottom: "res4b_branch2a"
  top: "res4b_branch2a"
}
layer {
  name: "res4b_branch2b"
  type: "Convolution"
  bottom: "res4b_branch2a"
  top: "res4b_branch2b"
  convolution_param {
    num_output: 256
    bias_term: false
    pad: 1
    kernel_size: 3
    stride: 1
  }
}
layer {
  name: "bn4b_branch2b"
  type: "BatchNorm"
  bottom: "res4b_branch2b"
  top: "res4b_branch2b"
  batch_norm_param {
    use_global_stats: true
  }
}
layer {
  name: "scale4b_branch2b"
  type: "Scale"
  bottom: "res4b_branch2b"
  top: "res4b_branch2b"
  scale_param {
    bias_term: true
  }
}
layer {
  name: "res4b_branch2b_relu"
  type: "ReLU"
  bottom: "res4b_branch2b"
  top: "res4b_branch2b"
}
layer {
  name: "res4b_branch2c"
  type: "Convolution"
  bottom: "res4b_branch2b"
  top: "res4b_branch2c"
  convolution_param {
    num_output: 1024
    bias_term: false
    pad: 0
    kernel_size: 1
    stride: 1
  }
}
layer {
  name: "bn4b_branch2c"
  type: "BatchNorm"
  bottom: "res4b_branch2c"
  top: "res4b_branch2c"
  batch_norm_param {
    use_global_stats: true
  }
}
layer {
  name: "scale4b_branch2c"
  type: "Scale"
  bottom: "res4b_branch2c"
  top: "res4b_branch2c"
  scale_param {
    bias_term: true
  }
}
layer {
  name: "res4b"
  type: "Eltwise"
  bottom: "res4a"
  bottom: "res4b_branch2c"
  top: "res4b"
}
layer {
  name: "res4b_relu"
  type: "ReLU"
  bottom: "res4b"
  top: "res4b"
}
layer {
  name: "res4c_branch2a"
  type: "Convolution"
  bottom: "res4b"
  top: "res4c_branch2a"
  convolution_param {
    num_output: 256
    bias_term: false
    pad: 0
    kernel_size: 1
    stride: 1
  }
}
layer {
  name: "bn4c_branch2a"
  type: "BatchNorm"
  bottom: "res4c_branch2a"
  top: "res4c_branch2a"
  batch_norm_param {
    use_global_stats: true
  }
}
layer {
  name: "scale4c_branch2a"
  type: "Scale"
  bottom: "res4c_branch2a"
  top: "res4c_branch2a"
  scale_param {
    bias_term: true
  }
}
layer {
  name: "res4c_branch2a_relu"
  type: "ReLU"
  bottom: "res4c_branch2a"
  top: "res4c_branch2a"
}
layer {
  name: "res4c_branch2b"
  type: "Convolution"
  bottom: "res4c_branch2a"
  top: "res4c_branch2b"
  convolution_param {
    num_output: 256
    bias_term: false
    pad: 1
    kernel_size: 3
    stride: 1
  }
}
layer {
  name: "bn4c_branch2b"
  type: "BatchNorm"
  bottom: "res4c_branch2b"
  top: "res4c_branch2b"
  batch_norm_param {
    use_global_stats: true
  }
}
layer {
  name: "scale4c_branch2b"
  type: "Scale"
  bottom: "res4c_branch2b"
  top: "res4c_branch2b"
  scale_param {
    bias_term: true
  }
}
layer {
  name: "res4c_branch2b_relu"
  type: "ReLU"
  bottom: "res4c_branch2b"
  top: "res4c_branch2b"
}
layer {
  name: "res4c_branch2c"
  type: "Convolution"
  bottom: "res4c_branch2b"
  top: "res4c_branch2c"
  convolution_param {
    num_output: 1024
    bias_term: false
    pad: 0
    kernel_size: 1
    stride: 1
  }
}
layer {
  name: "bn4c_branch2c"
  type: "BatchNorm"
  bottom: "res4c_branch2c"
  top: "res4c_branch2c"
  batch_norm_param {
    use_global_stats: true
  }
}
layer {
  name: "scale4c_branch2c"
  type: "Scale"
  bottom: "res4c_branch2c"
  top: "res4c_branch2c"
  scale_param {
    bias_term: true
  }
}
layer {
  name: "res4c"
  type: "Eltwise"
  bottom: "res4b"
  bottom: "res4c_branch2c"
  top: "res4c"
}
layer {
  name: "res4c_relu"
  type: "ReLU"
  bottom: "res4c"
  top: "res4c"
}
layer {
  name: "res4d_branch2a"
  type: "Convolution"
  bottom: "res4c"
  top: "res4d_branch2a"
  convolution_param {
    num_output: 256
    bias_term: false
    pad: 0
    kernel_size: 1
    stride: 1
  }
}
layer {
  name: "bn4d_branch2a"
  type: "BatchNorm"
  bottom: "res4d_branch2a"
  top: "res4d_branch2a"
  batch_norm_param {
    use_global_stats: true
  }
}
layer {
  name: "scale4d_branch2a"
  type: "Scale"
  bottom: "res4d_branch2a"
  top: "res4d_branch2a"
  scale_param {
    bias_term: true
  }
}
layer {
  name: "res4d_branch2a_relu"
  type: "ReLU"
  bottom: "res4d_branch2a"
  top: "res4d_branch2a"
}
layer {
  name: "res4d_branch2b"
  type: "Convolution"
  bottom: "res4d_branch2a"
  top: "res4d_branch2b"
  convolution_param {
    num_output: 256
    bias_term: false
    pad: 1
    kernel_size: 3
    stride: 1
  }
}
layer {
  name: "bn4d_branch2b"
  type: "BatchNorm"
  bottom: "res4d_branch2b"
  top: "res4d_branch2b"
  batch_norm_param {
    use_global_stats: true
  }
}
layer {
  name: "scale4d_branch2b"
  type: "Scale"
  bottom: "res4d_branch2b"
  top: "res4d_branch2b"
  scale_param {
    bias_term: true
  }
}
layer {
  name: "res4d_branch2b_relu"
  type: "ReLU"
  bottom: "res4d_branch2b"
  top: "res4d_branch2b"
}
layer {
  name: "res4d_branch2c"
  type: "Convolution"
  bottom: "res4d_branch2b"
  top: "res4d_branch2c"
  convolution_param {
    num_output: 1024
    bias_term: false
    pad: 0
    kernel_size: 1
    stride: 1
  }
}
layer {
  name: "bn4d_branch2c"
  type: "BatchNorm"
  bottom: "res4d_branch2c"
  top: "res4d_branch2c"
  batch_norm_param {
    use_global_stats: true
  }
}
layer {
  name: "scale4d_branch2c"
  type: "Scale"
  bottom: "res4d_branch2c"
  top: "res4d_branch2c"
  scale_param {
    bias_term: true
  }
}
layer {
  name: "res4d"
  type: "Eltwise"
  bottom: "res4c"
  bottom: "res4d_branch2c"
  top: "res4d"
}
layer {
  name: "res4d_relu"
  type: "ReLU"
  bottom: "res4d"
  top: "res4d"
}
layer {
  name: "res4e_branch2a"
  type: "Convolution"
  bottom: "res4d"
  top: "res4e_branch2a"
  convolution_param {
    num_output: 256
    bias_term: false
    pad: 0
    kernel_size: 1
    stride: 1
  }
}
layer {
  name: "bn4e_branch2a"
  type: "BatchNorm"
  bottom: "res4e_branch2a"
  top: "res4e_branch2a"
  batch_norm_param {
    use_global_stats: true
  }
}
layer {
  name: "scale4e_branch2a"
  type: "Scale"
  bottom: "res4e_branch2a"
  top: "res4e_branch2a"
  scale_param {
    bias_term: true
  }
}
layer {
  name: "res4e_branch2a_relu"
  type: "ReLU"
  bottom: "res4e_branch2a"
  top: "res4e_branch2a"
}
layer {
  name: "res4e_branch2b"
  type: "Convolution"
  bottom: "res4e_branch2a"
  top: "res4e_branch2b"
  convolution_param {
    num_output: 256
    bias_term: false
    pad: 1
    kernel_size: 3
    stride: 1
  }
}
layer {
  name: "bn4e_branch2b"
  type: "BatchNorm"
  bottom: "res4e_branch2b"
  top: "res4e_branch2b"
  batch_norm_param {
    use_global_stats: true
  }
}
layer {
  name: "scale4e_branch2b"
  type: "Scale"
  bottom: "res4e_branch2b"
  top: "res4e_branch2b"
  scale_param {
    bias_term: true
  }
}
layer {
  name: "res4e_branch2b_relu"
  type: "ReLU"
  bottom: "res4e_branch2b"
  top: "res4e_branch2b"
}
layer {
  name: "res4e_branch2c"
  type: "Convolution"
  bottom: "res4e_branch2b"
  top: "res4e_branch2c"
  convolution_param {
    num_output: 1024
    bias_term: false
    pad: 0
    kernel_size: 1
    stride: 1
  }
}
layer {
  name: "bn4e_branch2c"
  type: "BatchNorm"
  bottom: "res4e_branch2c"
  top: "res4e_branch2c"
  batch_norm_param {
    use_global_stats: true
  }
}
layer {
  name: "scale4e_branch2c"
  type: "Scale"
  bottom: "res4e_branch2c"
  top: "res4e_branch2c"
  scale_param {
    bias_term: true
  }
}
layer {
  name: "res4e"
  type: "Eltwise"
  bottom: "res4d"
  bottom: "res4e_branch2c"
  top: "res4e"
}
layer {
  name: "res4e_relu"
  type: "ReLU"
  bottom: "res4e"
  top: "res4e"
}
layer {
  name: "res4f_branch2a"
  type: "Convolution"
  bottom: "res4e"
  top: "res4f_branch2a"
  convolution_param {
    num_output: 256
    bias_term: false
    pad: 0
    kernel_size: 1
    stride: 1
  }
}
layer {
  name: "bn4f_branch2a"
  type: "BatchNorm"
  bottom: "res4f_branch2a"
  top: "res4f_branch2a"
  batch_norm_param {
    use_global_stats: true
  }
}
layer {
  name: "scale4f_branch2a"
  type: "Scale"
  bottom: "res4f_branch2a"
  top: "res4f_branch2a"
  scale_param {
    bias_term: true
  }
}
layer {
  name: "res4f_branch2a_relu"
  type: "ReLU"
  bottom: "res4f_branch2a"
  top: "res4f_branch2a"
}
layer {
  name: "res4f_branch2b"
  type: "Convolution"
  bottom: "res4f_branch2a"
  top: "res4f_branch2b"
  convolution_param {
    num_output: 256
    bias_term: false
    pad: 1
    kernel_size: 3
    stride: 1
  }
}
layer {
  name: "bn4f_branch2b"
  type: "BatchNorm"
  bottom: "res4f_branch2b"
  top: "res4f_branch2b"
  batch_norm_param {
    use_global_stats: true
  }
}
layer {
  name: "scale4f_branch2b"
  type: "Scale"
  bottom: "res4f_branch2b"
  top: "res4f_branch2b"
  scale_param {
    bias_term: true
  }
}
layer {
  name: "res4f_branch2b_relu"
  type: "ReLU"
  bottom: "res4f_branch2b"
  top: "res4f_branch2b"
}
layer {
  name: "res4f_branch2c"
  type: "Convolution"
  bottom: "res4f_branch2b"
  top: "res4f_branch2c"
  convolution_param {
    num_output: 1024
    bias_term: false
    pad: 0
    kernel_size: 1
    stride: 1
  }
}
layer {
  name: "bn4f_branch2c"
  type: "BatchNorm"
  bottom: "res4f_branch2c"
  top: "res4f_branch2c"
  batch_norm_param {
    use_global_stats: true
  }
}
layer {
  name: "scale4f_branch2c"
  type: "Scale"
  bottom: "res4f_branch2c"
  top: "res4f_branch2c"
  scale_param {
    bias_term: true
  }
}
layer {
  name: "res4f"
  type: "Eltwise"
  bottom: "res4e"
  bottom: "res4f_branch2c"
  top: "res4f"
}
layer {
  name: "res4f_relu"
  type: "ReLU"
  bottom: "res4f"
  top: "res4f"
}
layer {
  name: "drop4"
  type: "Dropout"
  bottom: "res4f"
  top: "res4f"
  dropout_param {
    dropout_ratio: 0.5
  }
}
layer {
  name: "res5a_branch1"
  type: "Convolution"
  bottom: "res4f"
  top: "res5a_branch1"
  convolution_param {
    num_output: 2048
    bias_term: false
    pad: 0
    kernel_size: 1
    stride: 2
  }
}
layer {
  name: "bn5a_branch1"
  type: "BatchNorm"
  bottom: "res5a_branch1"
  top: "res5a_branch1"
  batch_norm_param {
    use_global_stats: true
  }
}
layer {
  name: "scale5a_branch1"
  type: "Scale"
  bottom: "res5a_branch1"
  top: "res5a_branch1"
  scale_param {
    bias_term: true
  }
}
layer {
  name: "res5a_branch2a"
  type: "Convolution"
  bottom: "res4f"
  top: "res5a_branch2a"
  convolution_param {
    num_output: 512
    bias_term: false
    pad: 0
    kernel_size: 1
    stride: 2
  }
}
layer {
  name: "bn5a_branch2a"
  type: "BatchNorm"
  bottom: "res5a_branch2a"
  top: "res5a_branch2a"
  batch_norm_param {
    use_global_stats: true
  }
}
layer {
  name: "scale5a_branch2a"
  type: "Scale"
  bottom: "res5a_branch2a"
  top: "res5a_branch2a"
  scale_param {
    bias_term: true
  }
}
layer {
  name: "res5a_branch2a_relu"
  type: "ReLU"
  bottom: "res5a_branch2a"
  top: "res5a_branch2a"
}
layer {
  name: "res5a_branch2b"
  type: "Convolution"
  bottom: "res5a_branch2a"
  top: "res5a_branch2b"
  convolution_param {
    num_output: 512
    bias_term: false
    pad: 1
    kernel_size: 3
    stride: 1
  }
}
layer {
  name: "bn5a_branch2b"
  type: "BatchNorm"
  bottom: "res5a_branch2b"
  top: "res5a_branch2b"
  batch_norm_param {
    use_global_stats: true
  }
}
layer {
  name: "scale5a_branch2b"
  type: "Scale"
  bottom: "res5a_branch2b"
  top: "res5a_branch2b"
  scale_param {
    bias_term: true
  }
}
layer {
  name: "re
I0107 09:35:52.969209 23133 layer_factory.hpp:77] Creating layer data
I0107 09:35:52.970288 23133 net.cpp:84] Creating Layer data
I0107 09:35:52.970304 23133 net.cpp:380] data -> data_RGB
I0107 09:35:52.970316 23133 net.cpp:380] data -> data_Label
I0107 09:35:52.983391 23133 net.cpp:122] Setting up data
I0107 09:35:52.983422 23133 net.cpp:129] Top shape: 1 3 64 64 (12288)
I0107 09:35:52.983428 23133 net.cpp:129] Top shape: 1 1 1 1 (1)
I0107 09:35:52.983433 23133 net.cpp:137] Memory required for data: 49156
I0107 09:35:52.983438 23133 layer_factory.hpp:77] Creating layer conv1
I0107 09:35:52.983461 23133 net.cpp:84] Creating Layer conv1
I0107 09:35:52.983467 23133 net.cpp:406] conv1 <- data_RGB
I0107 09:35:52.983476 23133 net.cpp:380] conv1 -> conv1
I0107 09:35:52.985818 23133 net.cpp:122] Setting up conv1
I0107 09:35:52.985848 23133 net.cpp:129] Top shape: 1 64 32 32 (65536)
I0107 09:35:52.985852 23133 net.cpp:137] Memory required for data: 311300
I0107 09:35:52.985867 23133 layer_factory.hpp:77] Creating layer bn_conv1
I0107 09:35:52.985879 23133 net.cpp:84] Creating Layer bn_conv1
I0107 09:35:52.985884 23133 net.cpp:406] bn_conv1 <- conv1
I0107 09:35:52.985891 23133 net.cpp:367] bn_conv1 -> conv1 (in-place)
I0107 09:35:52.986069 23133 net.cpp:122] Setting up bn_conv1
I0107 09:35:52.986083 23133 net.cpp:129] Top shape: 1 64 32 32 (65536)
I0107 09:35:52.986088 23133 net.cpp:137] Memory required for data: 573444
I0107 09:35:52.986099 23133 layer_factory.hpp:77] Creating layer scale_conv1
I0107 09:35:52.986109 23133 net.cpp:84] Creating Layer scale_conv1
I0107 09:35:52.986112 23133 net.cpp:406] scale_conv1 <- conv1
I0107 09:35:52.986117 23133 net.cpp:367] scale_conv1 -> conv1 (in-place)
I0107 09:35:52.986157 23133 layer_factory.hpp:77] Creating layer scale_conv1
I0107 09:35:52.986263 23133 net.cpp:122] Setting up scale_conv1
I0107 09:35:52.986274 23133 net.cpp:129] Top shape: 1 64 32 32 (65536)
I0107 09:35:52.986279 23133 net.cpp:137] Memory required for data: 835588
I0107 09:35:52.986285 23133 layer_factory.hpp:77] Creating layer conv1_relu
I0107 09:35:52.986294 23133 net.cpp:84] Creating Layer conv1_relu
I0107 09:35:52.986297 23133 net.cpp:406] conv1_relu <- conv1
I0107 09:35:52.986305 23133 net.cpp:367] conv1_relu -> conv1 (in-place)
I0107 09:35:52.986311 23133 net.cpp:122] Setting up conv1_relu
I0107 09:35:52.986317 23133 net.cpp:129] Top shape: 1 64 32 32 (65536)
I0107 09:35:52.986320 23133 net.cpp:137] Memory required for data: 1097732
I0107 09:35:52.986325 23133 layer_factory.hpp:77] Creating layer pool1
I0107 09:35:52.986330 23133 net.cpp:84] Creating Layer pool1
I0107 09:35:52.986333 23133 net.cpp:406] pool1 <- conv1
I0107 09:35:52.986338 23133 net.cpp:380] pool1 -> pool1
I0107 09:35:52.986377 23133 net.cpp:122] Setting up pool1
I0107 09:35:52.986385 23133 net.cpp:129] Top shape: 1 64 16 16 (16384)
I0107 09:35:52.986389 23133 net.cpp:137] Memory required for data: 1163268
I0107 09:35:52.986393 23133 layer_factory.hpp:77] Creating layer pool1_pool1_0_split
I0107 09:35:52.986399 23133 net.cpp:84] Creating Layer pool1_pool1_0_split
I0107 09:35:52.986403 23133 net.cpp:406] pool1_pool1_0_split <- pool1
I0107 09:35:52.986410 23133 net.cpp:380] pool1_pool1_0_split -> pool1_pool1_0_split_0
I0107 09:35:52.986419 23133 net.cpp:380] pool1_pool1_0_split -> pool1_pool1_0_split_1
I0107 09:35:52.986451 23133 net.cpp:122] Setting up pool1_pool1_0_split
I0107 09:35:52.986459 23133 net.cpp:129] Top shape: 1 64 16 16 (16384)
I0107 09:35:52.986465 23133 net.cpp:129] Top shape: 1 64 16 16 (16384)
I0107 09:35:52.986469 23133 net.cpp:137] Memory required for data: 1294340
I0107 09:35:52.986472 23133 layer_factory.hpp:77] Creating layer res2a_branch1
I0107 09:35:52.986480 23133 net.cpp:84] Creating Layer res2a_branch1
I0107 09:35:52.986485 23133 net.cpp:406] res2a_branch1 <- pool1_pool1_0_split_0
I0107 09:35:52.986490 23133 net.cpp:380] res2a_branch1 -> res2a_branch1
I0107 09:35:52.986665 23133 net.cpp:122] Setting up res2a_branch1
I0107 09:35:52.986676 23133 net.cpp:129] Top shape: 1 256 16 16 (65536)
I0107 09:35:52.986680 23133 net.cpp:137] Memory required for data: 1556484
I0107 09:35:52.986686 23133 layer_factory.hpp:77] Creating layer bn2a_branch1
I0107 09:35:52.986696 23133 net.cpp:84] Creating Layer bn2a_branch1
I0107 09:35:52.986701 23133 net.cpp:406] bn2a_branch1 <- res2a_branch1
I0107 09:35:52.986706 23133 net.cpp:367] bn2a_branch1 -> res2a_branch1 (in-place)
I0107 09:35:52.986860 23133 net.cpp:122] Setting up bn2a_branch1
I0107 09:35:52.986869 23133 net.cpp:129] Top shape: 1 256 16 16 (65536)
I0107 09:35:52.986873 23133 net.cpp:137] Memory required for data: 1818628
I0107 09:35:52.986883 23133 layer_factory.hpp:77] Creating layer scale2a_branch1
I0107 09:35:52.986891 23133 net.cpp:84] Creating Layer scale2a_branch1
I0107 09:35:52.986896 23133 net.cpp:406] scale2a_branch1 <- res2a_branch1
I0107 09:35:52.986901 23133 net.cpp:367] scale2a_branch1 -> res2a_branch1 (in-place)
I0107 09:35:52.986937 23133 layer_factory.hpp:77] Creating layer scale2a_branch1
I0107 09:35:52.987027 23133 net.cpp:122] Setting up scale2a_branch1
I0107 09:35:52.987037 23133 net.cpp:129] Top shape: 1 256 16 16 (65536)
I0107 09:35:52.987040 23133 net.cpp:137] Memory required for data: 2080772
I0107 09:35:52.987047 23133 layer_factory.hpp:77] Creating layer res2a_branch2a
I0107 09:35:52.987054 23133 net.cpp:84] Creating Layer res2a_branch2a
I0107 09:35:52.987058 23133 net.cpp:406] res2a_branch2a <- pool1_pool1_0_split_1
I0107 09:35:52.987066 23133 net.cpp:380] res2a_branch2a -> res2a_branch2a
I0107 09:35:52.988318 23133 net.cpp:122] Setting up res2a_branch2a
I0107 09:35:52.988335 23133 net.cpp:129] Top shape: 1 64 16 16 (16384)
I0107 09:35:52.988339 23133 net.cpp:137] Memory required for data: 2146308
I0107 09:35:52.988345 23133 layer_factory.hpp:77] Creating layer bn2a_branch2a
I0107 09:35:52.988353 23133 net.cpp:84] Creating Layer bn2a_branch2a
I0107 09:35:52.988356 23133 net.cpp:406] bn2a_branch2a <- res2a_branch2a
I0107 09:35:52.988364 23133 net.cpp:367] bn2a_branch2a -> res2a_branch2a (in-place)
I0107 09:35:52.988518 23133 net.cpp:122] Setting up bn2a_branch2a
I0107 09:35:52.988528 23133 net.cpp:129] Top shape: 1 64 16 16 (16384)
I0107 09:35:52.988531 23133 net.cpp:137] Memory required for data: 2211844
I0107 09:35:52.988543 23133 layer_factory.hpp:77] Creating layer scale2a_branch2a
I0107 09:35:52.988550 23133 net.cpp:84] Creating Layer scale2a_branch2a
I0107 09:35:52.988554 23133 net.cpp:406] scale2a_branch2a <- res2a_branch2a
I0107 09:35:52.988559 23133 net.cpp:367] scale2a_branch2a -> res2a_branch2a (in-place)
I0107 09:35:52.988592 23133 layer_factory.hpp:77] Creating layer scale2a_branch2a
I0107 09:35:52.988687 23133 net.cpp:122] Setting up scale2a_branch2a
I0107 09:35:52.988696 23133 net.cpp:129] Top shape: 1 64 16 16 (16384)
I0107 09:35:52.988700 23133 net.cpp:137] Memory required for data: 2277380
I0107 09:35:52.988706 23133 layer_factory.hpp:77] Creating layer res2a_branch2a_relu
I0107 09:35:52.988713 23133 net.cpp:84] Creating Layer res2a_branch2a_relu
I0107 09:35:52.988718 23133 net.cpp:406] res2a_branch2a_relu <- res2a_branch2a
I0107 09:35:52.988723 23133 net.cpp:367] res2a_branch2a_relu -> res2a_branch2a (in-place)
I0107 09:35:52.988728 23133 net.cpp:122] Setting up res2a_branch2a_relu
I0107 09:35:52.988732 23133 net.cpp:129] Top shape: 1 64 16 16 (16384)
I0107 09:35:52.988736 23133 net.cpp:137] Memory required for data: 2342916
I0107 09:35:52.988739 23133 layer_factory.hpp:77] Creating layer res2a_branch2b
I0107 09:35:52.988750 23133 net.cpp:84] Creating Layer res2a_branch2b
I0107 09:35:52.988759 23133 net.cpp:406] res2a_branch2b <- res2a_branch2a
I0107 09:35:52.988764 23133 net.cpp:380] res2a_branch2b -> res2a_branch2b
I0107 09:35:52.989938 23133 net.cpp:122] Setting up res2a_branch2b
I0107 09:35:52.989953 23133 net.cpp:129] Top shape: 1 64 16 16 (16384)
I0107 09:35:52.989969 23133 net.cpp:137] Memory required for data: 2408452
I0107 09:35:52.989974 23133 layer_factory.hpp:77] Creating layer bn2a_branch2b
I0107 09:35:52.989981 23133 net.cpp:84] Creating Layer bn2a_branch2b
I0107 09:35:52.989984 23133 net.cpp:406] bn2a_branch2b <- res2a_branch2b
I0107 09:35:52.989990 23133 net.cpp:367] bn2a_branch2b -> res2a_branch2b (in-place)
I0107 09:35:52.990156 23133 net.cpp:122] Setting up bn2a_branch2b
I0107 09:35:52.990166 23133 net.cpp:129] Top shape: 1 64 16 16 (16384)
I0107 09:35:52.990170 23133 net.cpp:137] Memory required for data: 2473988
I0107 09:35:52.990177 23133 layer_factory.hpp:77] Creating layer scale2a_branch2b
I0107 09:35:52.990185 23133 net.cpp:84] Creating Layer scale2a_branch2b
I0107 09:35:52.990188 23133 net.cpp:406] scale2a_branch2b <- res2a_branch2b
I0107 09:35:52.990195 23133 net.cpp:367] scale2a_branch2b -> res2a_branch2b (in-place)
I0107 09:35:52.990229 23133 layer_factory.hpp:77] Creating layer scale2a_branch2b
I0107 09:35:52.990334 23133 net.cpp:122] Setting up scale2a_branch2b
I0107 09:35:52.990346 23133 net.cpp:129] Top shape: 1 64 16 16 (16384)
I0107 09:35:52.990350 23133 net.cpp:137] Memory required for data: 2539524
I0107 09:35:52.990355 23133 layer_factory.hpp:77] Creating layer res2a_branch2b_relu
I0107 09:35:52.990361 23133 net.cpp:84] Creating Layer res2a_branch2b_relu
I0107 09:35:52.990365 23133 net.cpp:406] res2a_branch2b_relu <- res2a_branch2b
I0107 09:35:52.990370 23133 net.cpp:367] res2a_branch2b_relu -> res2a_branch2b (in-place)
I0107 09:35:52.990375 23133 net.cpp:122] Setting up res2a_branch2b_relu
I0107 09:35:52.990380 23133 net.cpp:129] Top shape: 1 64 16 16 (16384)
I0107 09:35:52.990382 23133 net.cpp:137] Memory required for data: 2605060
I0107 09:35:52.990386 23133 layer_factory.hpp:77] Creating layer res2a_branch2c
I0107 09:35:52.990406 23133 net.cpp:84] Creating Layer res2a_branch2c
I0107 09:35:52.990412 23133 net.cpp:406] res2a_branch2c <- res2a_branch2b
I0107 09:35:52.990420 23133 net.cpp:380] res2a_branch2c -> res2a_branch2c
I0107 09:35:52.990579 23133 net.cpp:122] Setting up res2a_branch2c
I0107 09:35:52.990589 23133 net.cpp:129] Top shape: 1 256 16 16 (65536)
I0107 09:35:52.990592 23133 net.cpp:137] Memory required for data: 2867204
I0107 09:35:52.990597 23133 layer_factory.hpp:77] Creating layer bn2a_branch2c
I0107 09:35:52.990604 23133 net.cpp:84] Creating Layer bn2a_branch2c
I0107 09:35:52.990607 23133 net.cpp:406] bn2a_branch2c <- res2a_branch2c
I0107 09:35:52.990612 23133 net.cpp:367] bn2a_branch2c -> res2a_branch2c (in-place)
I0107 09:35:52.990756 23133 net.cpp:122] Setting up bn2a_branch2c
I0107 09:35:52.990763 23133 net.cpp:129] Top shape: 1 256 16 16 (65536)
I0107 09:35:52.990767 23133 net.cpp:137] Memory required for data: 3129348
I0107 09:35:52.990774 23133 layer_factory.hpp:77] Creating layer scale2a_branch2c
I0107 09:35:52.990782 23133 net.cpp:84] Creating Layer scale2a_branch2c
I0107 09:35:52.990785 23133 net.cpp:406] scale2a_branch2c <- res2a_branch2c
I0107 09:35:52.990789 23133 net.cpp:367] scale2a_branch2c -> res2a_branch2c (in-place)
I0107 09:35:52.990820 23133 layer_factory.hpp:77] Creating layer scale2a_branch2c
I0107 09:35:52.990907 23133 net.cpp:122] Setting up scale2a_branch2c
I0107 09:35:52.990916 23133 net.cpp:129] Top shape: 1 256 16 16 (65536)
I0107 09:35:52.990921 23133 net.cpp:137] Memory required for data: 3391492
I0107 09:35:52.990926 23133 layer_factory.hpp:77] Creating layer res2a
I0107 09:35:52.990932 23133 net.cpp:84] Creating Layer res2a
I0107 09:35:52.990937 23133 net.cpp:406] res2a <- res2a_branch1
I0107 09:35:52.990942 23133 net.cpp:406] res2a <- res2a_branch2c
I0107 09:35:52.990948 23133 net.cpp:380] res2a -> res2a
I0107 09:35:52.990965 23133 net.cpp:122] Setting up res2a
I0107 09:35:52.990973 23133 net.cpp:129] Top shape: 1 256 16 16 (65536)
I0107 09:35:52.990978 23133 net.cpp:137] Memory required for data: 3653636
I0107 09:35:52.990980 23133 layer_factory.hpp:77] Creating layer res2a_relu
I0107 09:35:52.990988 23133 net.cpp:84] Creating Layer res2a_relu
I0107 09:35:52.990991 23133 net.cpp:406] res2a_relu <- res2a
I0107 09:35:52.990995 23133 net.cpp:367] res2a_relu -> res2a (in-place)
I0107 09:35:52.991000 23133 net.cpp:122] Setting up res2a_relu
I0107 09:35:52.991005 23133 net.cpp:129] Top shape: 1 256 16 16 (65536)
I0107 09:35:52.991008 23133 net.cpp:137] Memory required for data: 3915780
I0107 09:35:52.991012 23133 layer_factory.hpp:77] Creating layer res2a_res2a_relu_0_split
I0107 09:35:52.991017 23133 net.cpp:84] Creating Layer res2a_res2a_relu_0_split
I0107 09:35:52.991020 23133 net.cpp:406] res2a_res2a_relu_0_split <- res2a
I0107 09:35:52.991026 23133 net.cpp:380] res2a_res2a_relu_0_split -> res2a_res2a_relu_0_split_0
I0107 09:35:52.991032 23133 net.cpp:380] res2a_res2a_relu_0_split -> res2a_res2a_relu_0_split_1
I0107 09:35:52.991075 23133 net.cpp:122] Setting up res2a_res2a_relu_0_split
I0107 09:35:52.991082 23133 net.cpp:129] Top shape: 1 256 16 16 (65536)
I0107 09:35:52.991087 23133 net.cpp:129] Top shape: 1 256 16 16 (65536)
I0107 09:35:52.991091 23133 net.cpp:137] Memory required for data: 4440068
I0107 09:35:52.991094 23133 layer_factory.hpp:77] Creating layer res2b_branch2a
I0107 09:35:52.991101 23133 net.cpp:84] Creating Layer res2b_branch2a
I0107 09:35:52.991106 23133 net.cpp:406] res2b_branch2a <- res2a_res2a_relu_0_split_0
I0107 09:35:52.991111 23133 net.cpp:380] res2b_branch2a -> res2b_branch2a
I0107 09:35:52.991268 23133 net.cpp:122] Setting up res2b_branch2a
I0107 09:35:52.991278 23133 net.cpp:129] Top shape: 1 64 16 16 (16384)
I0107 09:35:52.991282 23133 net.cpp:137] Memory required for data: 4505604
I0107 09:35:52.991287 23133 layer_factory.hpp:77] Creating layer bn2b_branch2a
I0107 09:35:52.991294 23133 net.cpp:84] Creating Layer bn2b_branch2a
I0107 09:35:52.991298 23133 net.cpp:406] bn2b_branch2a <- res2b_branch2a
I0107 09:35:52.991305 23133 net.cpp:367] bn2b_branch2a -> res2b_branch2a (in-place)
I0107 09:35:52.991502 23133 net.cpp:122] Setting up bn2b_branch2a
I0107 09:35:52.991513 23133 net.cpp:129] Top shape: 1 64 16 16 (16384)
I0107 09:35:52.991516 23133 net.cpp:137] Memory required for data: 4571140
I0107 09:35:52.991530 23133 layer_factory.hpp:77] Creating layer scale2b_branch2a
I0107 09:35:52.991538 23133 net.cpp:84] Creating Layer scale2b_branch2a
I0107 09:35:52.991541 23133 net.cpp:406] scale2b_branch2a <- res2b_branch2a
I0107 09:35:52.991547 23133 net.cpp:367] scale2b_branch2a -> res2b_branch2a (in-place)
I0107 09:35:52.991585 23133 layer_factory.hpp:77] Creating layer scale2b_branch2a
I0107 09:35:52.991683 23133 net.cpp:122] Setting up scale2b_branch2a
I0107 09:35:52.991693 23133 net.cpp:129] Top shape: 1 64 16 16 (16384)
I0107 09:35:52.991696 23133 net.cpp:137] Memory required for data: 4636676
I0107 09:35:52.991703 23133 layer_factory.hpp:77] Creating layer res2b_branch2a_relu
I0107 09:35:52.991710 23133 net.cpp:84] Creating Layer res2b_branch2a_relu
I0107 09:35:52.991714 23133 net.cpp:406] res2b_branch2a_relu <- res2b_branch2a
I0107 09:35:52.991719 23133 net.cpp:367] res2b_branch2a_relu -> res2b_branch2a (in-place)
I0107 09:35:52.991725 23133 net.cpp:122] Setting up res2b_branch2a_relu
I0107 09:35:52.991730 23133 net.cpp:129] Top shape: 1 64 16 16 (16384)
I0107 09:35:52.991734 23133 net.cpp:137] Memory required for data: 4702212
I0107 09:35:52.991737 23133 layer_factory.hpp:77] Creating layer res2b_branch2b
I0107 09:35:52.991746 23133 net.cpp:84] Creating Layer res2b_branch2b
I0107 09:35:52.991750 23133 net.cpp:406] res2b_branch2b <- res2b_branch2a
I0107 09:35:52.991755 23133 net.cpp:380] res2b_branch2b -> res2b_branch2b
I0107 09:35:52.991950 23133 net.cpp:122] Setting up res2b_branch2b
I0107 09:35:52.991961 23133 net.cpp:129] Top shape: 1 64 16 16 (16384)
I0107 09:35:52.991964 23133 net.cpp:137] Memory required for data: 4767748
I0107 09:35:52.991969 23133 layer_factory.hpp:77] Creating layer bn2b_branch2b
I0107 09:35:52.991976 23133 net.cpp:84] Creating Layer bn2b_branch2b
I0107 09:35:52.991981 23133 net.cpp:406] bn2b_branch2b <- res2b_branch2b
I0107 09:35:52.991986 23133 net.cpp:367] bn2b_branch2b -> res2b_branch2b (in-place)
I0107 09:35:52.992136 23133 net.cpp:122] Setting up bn2b_branch2b
I0107 09:35:52.992146 23133 net.cpp:129] Top shape: 1 64 16 16 (16384)
I0107 09:35:52.992151 23133 net.cpp:137] Memory required for data: 4833284
I0107 09:35:52.992157 23133 layer_factory.hpp:77] Creating layer scale2b_branch2b
I0107 09:35:52.992162 23133 net.cpp:84] Creating Layer scale2b_branch2b
I0107 09:35:52.992166 23133 net.cpp:406] scale2b_branch2b <- res2b_branch2b
I0107 09:35:52.992171 23133 net.cpp:367] scale2b_branch2b -> res2b_branch2b (in-place)
I0107 09:35:52.992203 23133 layer_factory.hpp:77] Creating layer scale2b_branch2b
I0107 09:35:52.992300 23133 net.cpp:122] Setting up scale2b_branch2b
I0107 09:35:52.992308 23133 net.cpp:129] Top shape: 1 64 16 16 (16384)
I0107 09:35:52.992312 23133 net.cpp:137] Memory required for data: 4898820
I0107 09:35:52.992318 23133 layer_factory.hpp:77] Creating layer res2b_branch2b_relu
I0107 09:35:52.992328 23133 net.cpp:84] Creating Layer res2b_branch2b_relu
I0107 09:35:52.992331 23133 net.cpp:406] res2b_branch2b_relu <- res2b_branch2b
I0107 09:35:52.992338 23133 net.cpp:367] res2b_branch2b_relu -> res2b_branch2b (in-place)
I0107 09:35:52.992343 23133 net.cpp:122] Setting up res2b_branch2b_relu
I0107 09:35:52.992348 23133 net.cpp:129] Top shape: 1 64 16 16 (16384)
I0107 09:35:52.992352 23133 net.cpp:137] Memory required for data: 4964356
I0107 09:35:52.992354 23133 layer_factory.hpp:77] Creating layer res2b_branch2c
I0107 09:35:52.992365 23133 net.cpp:84] Creating Layer res2b_branch2c
I0107 09:35:52.992369 23133 net.cpp:406] res2b_branch2c <- res2b_branch2b
I0107 09:35:52.992374 23133 net.cpp:380] res2b_branch2c -> res2b_branch2c
I0107 09:35:52.992532 23133 net.cpp:122] Setting up res2b_branch2c
I0107 09:35:52.992542 23133 net.cpp:129] Top shape: 1 256 16 16 (65536)
I0107 09:35:52.992545 23133 net.cpp:137] Memory required for data: 5226500
I0107 09:35:52.992550 23133 layer_factory.hpp:77] Creating layer bn2b_branch2c
I0107 09:35:52.992557 23133 net.cpp:84] Creating Layer bn2b_branch2c
I0107 09:35:52.992560 23133 net.cpp:406] bn2b_branch2c <- res2b_branch2c
I0107 09:35:52.992564 23133 net.cpp:367] bn2b_branch2c -> res2b_branch2c (in-place)
I0107 09:35:52.992712 23133 net.cpp:122] Setting up bn2b_branch2c
I0107 09:35:52.992720 23133 net.cpp:129] Top shape: 1 256 16 16 (65536)
I0107 09:35:52.992724 23133 net.cpp:137] Memory required for data: 5488644
I0107 09:35:52.992732 23133 layer_factory.hpp:77] Creating layer scale2b_branch2c
I0107 09:35:52.992738 23133 net.cpp:84] Creating Layer scale2b_branch2c
I0107 09:35:52.992743 23133 net.cpp:406] scale2b_branch2c <- res2b_branch2c
I0107 09:35:52.992746 23133 net.cpp:367] scale2b_branch2c -> res2b_branch2c (in-place)
I0107 09:35:52.992779 23133 layer_factory.hpp:77] Creating layer scale2b_branch2c
I0107 09:35:52.992866 23133 net.cpp:122] Setting up scale2b_branch2c
I0107 09:35:52.992875 23133 net.cpp:129] Top shape: 1 256 16 16 (65536)
I0107 09:35:52.992878 23133 net.cpp:137] Memory required for data: 5750788
I0107 09:35:52.992884 23133 layer_factory.hpp:77] Creating layer res2b
I0107 09:35:52.992890 23133 net.cpp:84] Creating Layer res2b
I0107 09:35:52.992893 23133 net.cpp:406] res2b <- res2a_res2a_relu_0_split_1
I0107 09:35:52.992898 23133 net.cpp:406] res2b <- res2b_branch2c
I0107 09:35:52.992905 23133 net.cpp:380] res2b -> res2b
I0107 09:35:52.992923 23133 net.cpp:122] Setting up res2b
I0107 09:35:52.992934 23133 net.cpp:129] Top shape: 1 256 16 16 (65536)
I0107 09:35:52.992938 23133 net.cpp:137] Memory required for data: 6012932
I0107 09:35:52.992941 23133 layer_factory.hpp:77] Creating layer res2b_relu
I0107 09:35:52.992946 23133 net.cpp:84] Creating Layer res2b_relu
I0107 09:35:52.992949 23133 net.cpp:406] res2b_relu <- res2b
I0107 09:35:52.992954 23133 net.cpp:367] res2b_relu -> res2b (in-place)
I0107 09:35:52.992959 23133 net.cpp:122] Setting up res2b_relu
I0107 09:35:52.992964 23133 net.cpp:129] Top shape: 1 256 16 16 (65536)
I0107 09:35:52.992967 23133 net.cpp:137] Memory required for data: 6275076
I0107 09:35:52.992970 23133 layer_factory.hpp:77] Creating layer res2b_res2b_relu_0_split
I0107 09:35:52.992975 23133 net.cpp:84] Creating Layer res2b_res2b_relu_0_split
I0107 09:35:52.992978 23133 net.cpp:406] res2b_res2b_relu_0_split <- res2b
I0107 09:35:52.992985 23133 net.cpp:380] res2b_res2b_relu_0_split -> res2b_res2b_relu_0_split_0
I0107 09:35:52.992991 23133 net.cpp:380] res2b_res2b_relu_0_split -> res2b_res2b_relu_0_split_1
I0107 09:35:52.993021 23133 net.cpp:122] Setting up res2b_res2b_relu_0_split
I0107 09:35:52.993029 23133 net.cpp:129] Top shape: 1 256 16 16 (65536)
I0107 09:35:52.993033 23133 net.cpp:129] Top shape: 1 256 16 16 (65536)
I0107 09:35:52.993037 23133 net.cpp:137] Memory required for data: 6799364
I0107 09:35:52.993041 23133 layer_factory.hpp:77] Creating layer res2c_branch2a
I0107 09:35:52.993046 23133 net.cpp:84] Creating Layer res2c_branch2a
I0107 09:35:52.993050 23133 net.cpp:406] res2c_branch2a <- res2b_res2b_relu_0_split_0
I0107 09:35:52.993055 23133 net.cpp:380] res2c_branch2a -> res2c_branch2a
I0107 09:35:52.993213 23133 net.cpp:122] Setting up res2c_branch2a
I0107 09:35:52.993223 23133 net.cpp:129] Top shape: 1 64 16 16 (16384)
I0107 09:35:52.993227 23133 net.cpp:137] Memory required for data: 6864900
I0107 09:35:52.993232 23133 layer_factory.hpp:77] Creating layer bn2c_branch2a
I0107 09:35:52.993239 23133 net.cpp:84] Creating Layer bn2c_branch2a
I0107 09:35:52.993243 23133 net.cpp:406] bn2c_branch2a <- res2c_branch2a
I0107 09:35:52.993247 23133 net.cpp:367] bn2c_branch2a -> res2c_branch2a (in-place)
I0107 09:35:52.993409 23133 net.cpp:122] Setting up bn2c_branch2a
I0107 09:35:52.993418 23133 net.cpp:129] Top shape: 1 64 16 16 (16384)
I0107 09:35:52.993422 23133 net.cpp:137] Memory required for data: 6930436
I0107 09:35:52.993428 23133 layer_factory.hpp:77] Creating layer scale2c_branch2a
I0107 09:35:52.993436 23133 net.cpp:84] Creating Layer scale2c_branch2a
I0107 09:35:52.993439 23133 net.cpp:406] scale2c_branch2a <- res2c_branch2a
I0107 09:35:52.993444 23133 net.cpp:367] scale2c_branch2a -> res2c_branch2a (in-place)
I0107 09:35:52.993479 23133 layer_factory.hpp:77] Creating layer scale2c_branch2a
I0107 09:35:52.993574 23133 net.cpp:122] Setting up scale2c_branch2a
I0107 09:35:52.993583 23133 net.cpp:129] Top shape: 1 64 16 16 (16384)
I0107 09:35:52.993587 23133 net.cpp:137] Memory required for data: 6995972
I0107 09:35:52.993593 23133 layer_factory.hpp:77] Creating layer res2c_branch2a_relu
I0107 09:35:52.993598 23133 net.cpp:84] Creating Layer res2c_branch2a_relu
I0107 09:35:52.993602 23133 net.cpp:406] res2c_branch2a_relu <- res2c_branch2a
I0107 09:35:52.993608 23133 net.cpp:367] res2c_branch2a_relu -> res2c_branch2a (in-place)
I0107 09:35:52.993614 23133 net.cpp:122] Setting up res2c_branch2a_relu
I0107 09:35:52.993618 23133 net.cpp:129] Top shape: 1 64 16 16 (16384)
I0107 09:35:52.993623 23133 net.cpp:137] Memory required for data: 7061508
I0107 09:35:52.993625 23133 layer_factory.hpp:77] Creating layer res2c_branch2b
I0107 09:35:52.993633 23133 net.cpp:84] Creating Layer res2c_branch2b
I0107 09:35:52.993636 23133 net.cpp:406] res2c_branch2b <- res2c_branch2a
I0107 09:35:52.993641 23133 net.cpp:380] res2c_branch2b -> res2c_branch2b
I0107 09:35:52.993824 23133 net.cpp:122] Setting up res2c_branch2b
I0107 09:35:52.993834 23133 net.cpp:129] Top shape: 1 64 16 16 (16384)
I0107 09:35:52.993837 23133 net.cpp:137] Memory required for data: 7127044
I0107 09:35:52.993842 23133 layer_factory.hpp:77] Creating layer bn2c_branch2b
I0107 09:35:52.993849 23133 net.cpp:84] Creating Layer bn2c_branch2b
I0107 09:35:52.993852 23133 net.cpp:406] bn2c_branch2b <- res2c_branch2b
I0107 09:35:52.993860 23133 net.cpp:367] bn2c_branch2b -> res2c_branch2b (in-place)
I0107 09:35:52.994020 23133 net.cpp:122] Setting up bn2c_branch2b
I0107 09:35:52.994030 23133 net.cpp:129] Top shape: 1 64 16 16 (16384)
I0107 09:35:52.994033 23133 net.cpp:137] Memory required for data: 7192580
I0107 09:35:52.994040 23133 layer_factory.hpp:77] Creating layer scale2c_branch2b
I0107 09:35:52.994045 23133 net.cpp:84] Creating Layer scale2c_branch2b
I0107 09:35:52.994050 23133 net.cpp:406] scale2c_branch2b <- res2c_branch2b
I0107 09:35:52.994056 23133 net.cpp:367] scale2c_branch2b -> res2c_branch2b (in-place)
I0107 09:35:52.994088 23133 layer_factory.hpp:77] Creating layer scale2c_branch2b
I0107 09:35:52.994187 23133 net.cpp:122] Setting up scale2c_branch2b
I0107 09:35:52.994195 23133 net.cpp:129] Top shape: 1 64 16 16 (16384)
I0107 09:35:52.994199 23133 net.cpp:137] Memory required for data: 7258116
I0107 09:35:52.994205 23133 layer_factory.hpp:77] Creating layer res2c_branch2b_relu
I0107 09:35:52.994210 23133 net.cpp:84] Creating Layer res2c_branch2b_relu
I0107 09:35:52.994213 23133 net.cpp:406] res2c_branch2b_relu <- res2c_branch2b
I0107 09:35:52.994218 23133 net.cpp:367] res2c_branch2b_relu -> res2c_branch2b (in-place)
I0107 09:35:52.994223 23133 net.cpp:122] Setting up res2c_branch2b_relu
I0107 09:35:52.994228 23133 net.cpp:129] Top shape: 1 64 16 16 (16384)
I0107 09:35:52.994232 23133 net.cpp:137] Memory required for data: 7323652
I0107 09:35:52.994235 23133 layer_factory.hpp:77] Creating layer res2c_branch2c
I0107 09:35:52.994242 23133 net.cpp:84] Creating Layer res2c_branch2c
I0107 09:35:52.994246 23133 net.cpp:406] res2c_branch2c <- res2c_branch2b
I0107 09:35:52.994252 23133 net.cpp:380] res2c_branch2c -> res2c_branch2c
I0107 09:35:52.994416 23133 net.cpp:122] Setting up res2c_branch2c
I0107 09:35:52.994426 23133 net.cpp:129] Top shape: 1 256 16 16 (65536)
I0107 09:35:52.994429 23133 net.cpp:137] Memory required for data: 7585796
I0107 09:35:52.994434 23133 layer_factory.hpp:77] Creating layer bn2c_branch2c
I0107 09:35:52.994441 23133 net.cpp:84] Creating Layer bn2c_branch2c
I0107 09:35:52.994444 23133 net.cpp:406] bn2c_branch2c <- res2c_branch2c
I0107 09:35:52.994448 23133 net.cpp:367] bn2c_branch2c -> res2c_branch2c (in-place)
I0107 09:35:52.994596 23133 net.cpp:122] Setting up bn2c_branch2c
I0107 09:35:52.994603 23133 net.cpp:129] Top shape: 1 256 16 16 (65536)
I0107 09:35:52.994607 23133 net.cpp:137] Memory required for data: 7847940
I0107 09:35:52.994622 23133 layer_factory.hpp:77] Creating layer scale2c_branch2c
I0107 09:35:52.994630 23133 net.cpp:84] Creating Layer scale2c_branch2c
I0107 09:35:52.994634 23133 net.cpp:406] scale2c_branch2c <- res2c_branch2c
I0107 09:35:52.994639 23133 net.cpp:367] scale2c_branch2c -> res2c_branch2c (in-place)
I0107 09:35:52.994674 23133 layer_factory.hpp:77] Creating layer scale2c_branch2c
I0107 09:35:52.994761 23133 net.cpp:122] Setting up scale2c_branch2c
I0107 09:35:52.994771 23133 net.cpp:129] Top shape: 1 256 16 16 (65536)
I0107 09:35:52.994773 23133 net.cpp:137] Memory required for data: 8110084
I0107 09:35:52.994779 23133 layer_factory.hpp:77] Creating layer res2c
I0107 09:35:52.994786 23133 net.cpp:84] Creating Layer res2c
I0107 09:35:52.994791 23133 net.cpp:406] res2c <- res2b_res2b_relu_0_split_1
I0107 09:35:52.994796 23133 net.cpp:406] res2c <- res2c_branch2c
I0107 09:35:52.994799 23133 net.cpp:380] res2c -> res2c
I0107 09:35:52.994815 23133 net.cpp:122] Setting up res2c
I0107 09:35:52.994824 23133 net.cpp:129] Top shape: 1 256 16 16 (65536)
I0107 09:35:52.994828 23133 net.cpp:137] Memory required for data: 8372228
I0107 09:35:52.994832 23133 layer_factory.hpp:77] Creating layer res2c_relu
I0107 09:35:52.994837 23133 net.cpp:84] Creating Layer res2c_relu
I0107 09:35:52.994840 23133 net.cpp:406] res2c_relu <- res2c
I0107 09:35:52.994849 23133 net.cpp:367] res2c_relu -> res2c (in-place)
I0107 09:35:52.994855 23133 net.cpp:122] Setting up res2c_relu
I0107 09:35:52.994860 23133 net.cpp:129] Top shape: 1 256 16 16 (65536)
I0107 09:35:52.994863 23133 net.cpp:137] Memory required for data: 8634372
I0107 09:35:52.994866 23133 layer_factory.hpp:77] Creating layer drop2
I0107 09:35:52.994873 23133 net.cpp:84] Creating Layer drop2
I0107 09:35:52.994875 23133 net.cpp:406] drop2 <- res2c
I0107 09:35:52.994880 23133 net.cpp:367] drop2 -> res2c (in-place)
I0107 09:35:52.994902 23133 net.cpp:122] Setting up drop2
I0107 09:35:52.994910 23133 net.cpp:129] Top shape: 1 256 16 16 (65536)
I0107 09:35:52.994913 23133 net.cpp:137] Memory required for data: 8896516
I0107 09:35:52.994917 23133 layer_factory.hpp:77] Creating layer res2c_drop2_0_split
I0107 09:35:52.994922 23133 net.cpp:84] Creating Layer res2c_drop2_0_split
I0107 09:35:52.994925 23133 net.cpp:406] res2c_drop2_0_split <- res2c
I0107 09:35:52.994932 23133 net.cpp:380] res2c_drop2_0_split -> res2c_drop2_0_split_0
I0107 09:35:52.994938 23133 net.cpp:380] res2c_drop2_0_split -> res2c_drop2_0_split_1
I0107 09:35:52.994968 23133 net.cpp:122] Setting up res2c_drop2_0_split
I0107 09:35:52.994976 23133 net.cpp:129] Top shape: 1 256 16 16 (65536)
I0107 09:35:52.994980 23133 net.cpp:129] Top shape: 1 256 16 16 (65536)
I0107 09:35:52.994984 23133 net.cpp:137] Memory required for data: 9420804
I0107 09:35:52.994987 23133 layer_factory.hpp:77] Creating layer res3a_branch1
I0107 09:35:52.994994 23133 net.cpp:84] Creating Layer res3a_branch1
I0107 09:35:52.994997 23133 net.cpp:406] res3a_branch1 <- res2c_drop2_0_split_0
I0107 09:35:52.995002 23133 net.cpp:380] res3a_branch1 -> res3a_branch1
I0107 09:35:52.996343 23133 net.cpp:122] Setting up res3a_branch1
I0107 09:35:52.996361 23133 net.cpp:129] Top shape: 1 512 8 8 (32768)
I0107 09:35:52.996366 23133 net.cpp:137] Memory required for data: 9551876
I0107 09:35:52.996371 23133 layer_factory.hpp:77] Creating layer bn3a_branch1
I0107 09:35:52.996378 23133 net.cpp:84] Creating Layer bn3a_branch1
I0107 09:35:52.996382 23133 net.cpp:406] bn3a_branch1 <- res3a_branch1
I0107 09:35:52.996388 23133 net.cpp:367] bn3a_branch1 -> res3a_branch1 (in-place)
I0107 09:35:52.996559 23133 net.cpp:122] Setting up bn3a_branch1
I0107 09:35:52.996569 23133 net.cpp:129] Top shape: 1 512 8 8 (32768)
I0107 09:35:52.996573 23133 net.cpp:137] Memory required for data: 9682948
I0107 09:35:52.996580 23133 layer_factory.hpp:77] Creating layer scale3a_branch1
I0107 09:35:52.996587 23133 net.cpp:84] Creating Layer scale3a_branch1
I0107 09:35:52.996590 23133 net.cpp:406] scale3a_branch1 <- res3a_branch1
I0107 09:35:52.996594 23133 net.cpp:367] scale3a_branch1 -> res3a_branch1 (in-place)
I0107 09:35:52.996628 23133 layer_factory.hpp:77] Creating layer scale3a_branch1
I0107 09:35:52.996729 23133 net.cpp:122] Setting up scale3a_branch1
I0107 09:35:52.996739 23133 net.cpp:129] Top shape: 1 512 8 8 (32768)
I0107 09:35:52.996742 23133 net.cpp:137] Memory required for data: 9814020
I0107 09:35:52.996749 23133 layer_factory.hpp:77] Creating layer res3a_branch2a
I0107 09:35:52.996758 23133 net.cpp:84] Creating Layer res3a_branch2a
I0107 09:35:52.996764 23133 net.cpp:406] res3a_branch2a <- res2c_drop2_0_split_1
I0107 09:35:52.996770 23133 net.cpp:380] res3a_branch2a -> res3a_branch2a
I0107 09:35:52.996949 23133 net.cpp:122] Setting up res3a_branch2a
I0107 09:35:52.996960 23133 net.cpp:129] Top shape: 1 128 8 8 (8192)
I0107 09:35:52.996963 23133 net.cpp:137] Memory required for data: 9846788
I0107 09:35:52.996968 23133 layer_factory.hpp:77] Creating layer bn3a_branch2a
I0107 09:35:52.996974 23133 net.cpp:84] Creating Layer bn3a_branch2a
I0107 09:35:52.996978 23133 net.cpp:406] bn3a_branch2a <- res3a_branch2a
I0107 09:35:52.996985 23133 net.cpp:367] bn3a_branch2a -> res3a_branch2a (in-place)
I0107 09:35:52.997148 23133 net.cpp:122] Setting up bn3a_branch2a
I0107 09:35:52.997156 23133 net.cpp:129] Top shape: 1 128 8 8 (8192)
I0107 09:35:52.997160 23133 net.cpp:137] Memory required for data: 9879556
I0107 09:35:52.997167 23133 layer_factory.hpp:77] Creating layer scale3a_branch2a
I0107 09:35:52.997174 23133 net.cpp:84] Creating Layer scale3a_branch2a
I0107 09:35:52.997177 23133 net.cpp:406] scale3a_branch2a <- res3a_branch2a
I0107 09:35:52.997181 23133 net.cpp:367] scale3a_branch2a -> res3a_branch2a (in-place)
I0107 09:35:52.997215 23133 layer_factory.hpp:77] Creating layer scale3a_branch2a
I0107 09:35:52.997310 23133 net.cpp:122] Setting up scale3a_branch2a
I0107 09:35:52.997319 23133 net.cpp:129] Top shape: 1 128 8 8 (8192)
I0107 09:35:52.997323 23133 net.cpp:137] Memory required for data: 9912324
I0107 09:35:52.997329 23133 layer_factory.hpp:77] Creating layer res3a_branch2a_relu
I0107 09:35:52.997336 23133 net.cpp:84] Creating Layer res3a_branch2a_relu
I0107 09:35:52.997340 23133 net.cpp:406] res3a_branch2a_relu <- res3a_branch2a
I0107 09:35:52.997345 23133 net.cpp:367] res3a_branch2a_relu -> res3a_branch2a (in-place)
I0107 09:35:52.997350 23133 net.cpp:122] Setting up res3a_branch2a_relu
I0107 09:35:52.997355 23133 net.cpp:129] Top shape: 1 128 8 8 (8192)
I0107 09:35:52.997359 23133 net.cpp:137] Memory required for data: 9945092
I0107 09:35:52.997362 23133 layer_factory.hpp:77] Creating layer res3a_branch2b
I0107 09:35:52.997371 23133 net.cpp:84] Creating Layer res3a_branch2b
I0107 09:35:52.997375 23133 net.cpp:406] res3a_branch2b <- res3a_branch2a
I0107 09:35:52.997380 23133 net.cpp:380] res3a_branch2b -> res3a_branch2b
I0107 09:35:52.997632 23133 net.cpp:122] Setting up res3a_branch2b
I0107 09:35:52.997643 23133 net.cpp:129] Top shape: 1 128 8 8 (8192)
I0107 09:35:52.997648 23133 net.cpp:137] Memory required for data: 9977860
I0107 09:35:52.997653 23133 layer_factory.hpp:77] Creating layer bn3a_branch2b
I0107 09:35:52.997658 23133 net.cpp:84] Creating Layer bn3a_branch2b
I0107 09:35:52.997663 23133 net.cpp:406] bn3a_branch2b <- res3a_branch2b
I0107 09:35:52.997668 23133 net.cpp:367] bn3a_branch2b -> res3a_branch2b (in-place)
I0107 09:35:52.997822 23133 net.cpp:122] Setting up bn3a_branch2b
I0107 09:35:52.997833 23133 net.cpp:129] Top shape: 1 128 8 8 (8192)
I0107 09:35:52.997835 23133 net.cpp:137] Memory required for data: 10010628
I0107 09:35:52.997843 23133 layer_factory.hpp:77] Creating layer scale3a_branch2b
I0107 09:35:52.997848 23133 net.cpp:84] Creating Layer scale3a_branch2b
I0107 09:35:52.997851 23133 net.cpp:406] scale3a_branch2b <- res3a_branch2b
I0107 09:35:52.997856 23133 net.cpp:367] scale3a_branch2b -> res3a_branch2b (in-place)
I0107 09:35:52.997889 23133 layer_factory.hpp:77] Creating layer scale3a_branch2b
I0107 09:35:52.997984 23133 net.cpp:122] Setting up scale3a_branch2b
I0107 09:35:52.997993 23133 net.cpp:129] Top shape: 1 128 8 8 (8192)
I0107 09:35:52.997997 23133 net.cpp:137] Memory required for data: 10043396
I0107 09:35:52.998003 23133 layer_factory.hpp:77] Creating layer res3a_branch2b_relu
I0107 09:35:52.998010 23133 net.cpp:84] Creating Layer res3a_branch2b_relu
I0107 09:35:52.998014 23133 net.cpp:406] res3a_branch2b_relu <- res3a_branch2b
I0107 09:35:52.998018 23133 net.cpp:367] res3a_branch2b_relu -> res3a_branch2b (in-place)
I0107 09:35:52.998023 23133 net.cpp:122] Setting up res3a_branch2b_relu
I0107 09:35:52.998028 23133 net.cpp:129] Top shape: 1 128 8 8 (8192)
I0107 09:35:52.998033 23133 net.cpp:137] Memory required for data: 10076164
I0107 09:35:52.998035 23133 layer_factory.hpp:77] Creating layer res3a_branch2c
I0107 09:35:52.998052 23133 net.cpp:84] Creating Layer res3a_branch2c
I0107 09:35:52.998059 23133 net.cpp:406] res3a_branch2c <- res3a_branch2b
I0107 09:35:52.998064 23133 net.cpp:380] res3a_branch2c -> res3a_branch2c
I0107 09:35:52.998265 23133 net.cpp:122] Setting up res3a_branch2c
I0107 09:35:52.998275 23133 net.cpp:129] Top shape: 1 512 8 8 (32768)
I0107 09:35:52.998280 23133 net.cpp:137] Memory required for data: 10207236
I0107 09:35:52.998284 23133 layer_factory.hpp:77] Creating layer bn3a_branch2c
I0107 09:35:52.998291 23133 net.cpp:84] Creating Layer bn3a_branch2c
I0107 09:35:52.998294 23133 net.cpp:406] bn3a_branch2c <- res3a_branch2c
I0107 09:35:52.998301 23133 net.cpp:367] bn3a_branch2c -> res3a_branch2c (in-place)
I0107 09:35:52.998468 23133 net.cpp:122] Setting up bn3a_branch2c
I0107 09:35:52.998477 23133 net.cpp:129] Top shape: 1 512 8 8 (32768)
I0107 09:35:52.998481 23133 net.cpp:137] Memory required for data: 10338308
I0107 09:35:52.998488 23133 layer_factory.hpp:77] Creating layer scale3a_branch2c
I0107 09:35:52.998493 23133 net.cpp:84] Creating Layer scale3a_branch2c
I0107 09:35:52.998497 23133 net.cpp:406] scale3a_branch2c <- res3a_branch2c
I0107 09:35:52.998502 23133 net.cpp:367] scale3a_branch2c -> res3a_branch2c (in-place)
I0107 09:35:52.998535 23133 layer_factory.hpp:77] Creating layer scale3a_branch2c
I0107 09:35:52.998637 23133 net.cpp:122] Setting up scale3a_branch2c
I0107 09:35:52.998646 23133 net.cpp:129] Top shape: 1 512 8 8 (32768)
I0107 09:35:52.998649 23133 net.cpp:137] Memory required for data: 10469380
I0107 09:35:52.998656 23133 layer_factory.hpp:77] Creating layer res3a
I0107 09:35:52.998661 23133 net.cpp:84] Creating Layer res3a
I0107 09:35:52.998669 23133 net.cpp:406] res3a <- res3a_branch1
I0107 09:35:52.998674 23133 net.cpp:406] res3a <- res3a_branch2c
I0107 09:35:52.998679 23133 net.cpp:380] res3a -> res3a
I0107 09:35:52.998700 23133 net.cpp:122] Setting up res3a
I0107 09:35:52.998708 23133 net.cpp:129] Top shape: 1 512 8 8 (32768)
I0107 09:35:52.998711 23133 net.cpp:137] Memory required for data: 10600452
I0107 09:35:52.998714 23133 layer_factory.hpp:77] Creating layer res3a_relu
I0107 09:35:52.998721 23133 net.cpp:84] Creating Layer res3a_relu
I0107 09:35:52.998725 23133 net.cpp:406] res3a_relu <- res3a
I0107 09:35:52.998733 23133 net.cpp:367] res3a_relu -> res3a (in-place)
I0107 09:35:52.998737 23133 net.cpp:122] Setting up res3a_relu
I0107 09:35:52.998742 23133 net.cpp:129] Top shape: 1 512 8 8 (32768)
I0107 09:35:52.998745 23133 net.cpp:137] Memory required for data: 10731524
I0107 09:35:52.998749 23133 layer_factory.hpp:77] Creating layer res3a_res3a_relu_0_split
I0107 09:35:52.998754 23133 net.cpp:84] Creating Layer res3a_res3a_relu_0_split
I0107 09:35:52.998757 23133 net.cpp:406] res3a_res3a_relu_0_split <- res3a
I0107 09:35:52.998762 23133 net.cpp:380] res3a_res3a_relu_0_split -> res3a_res3a_relu_0_split_0
I0107 09:35:52.998769 23133 net.cpp:380] res3a_res3a_relu_0_split -> res3a_res3a_relu_0_split_1
I0107 09:35:52.998798 23133 net.cpp:122] Setting up res3a_res3a_relu_0_split
I0107 09:35:52.998806 23133 net.cpp:129] Top shape: 1 512 8 8 (32768)
I0107 09:35:52.998811 23133 net.cpp:129] Top shape: 1 512 8 8 (32768)
I0107 09:35:52.998814 23133 net.cpp:137] Memory required for data: 10993668
I0107 09:35:52.998818 23133 layer_factory.hpp:77] Creating layer res3b_branch2a
I0107 09:35:52.998826 23133 net.cpp:84] Creating Layer res3b_branch2a
I0107 09:35:52.998831 23133 net.cpp:406] res3b_branch2a <- res3a_res3a_relu_0_split_0
I0107 09:35:52.998836 23133 net.cpp:380] res3b_branch2a -> res3b_branch2a
I0107 09:35:52.999037 23133 net.cpp:122] Setting up res3b_branch2a
I0107 09:35:52.999048 23133 net.cpp:129] Top shape: 1 128 8 8 (8192)
I0107 09:35:52.999053 23133 net.cpp:137] Memory required for data: 11026436
I0107 09:35:52.999058 23133 layer_factory.hpp:77] Creating layer bn3b_branch2a
I0107 09:35:52.999065 23133 net.cpp:84] Creating Layer bn3b_branch2a
I0107 09:35:52.999069 23133 net.cpp:406] bn3b_branch2a <- res3b_branch2a
I0107 09:35:52.999074 23133 net.cpp:367] bn3b_branch2a -> res3b_branch2a (in-place)
I0107 09:35:52.999233 23133 net.cpp:122] Setting up bn3b_branch2a
I0107 09:35:52.999241 23133 net.cpp:129] Top shape: 1 128 8 8 (8192)
I0107 09:35:52.999245 23133 net.cpp:137] Memory required for data: 11059204
I0107 09:35:52.999253 23133 layer_factory.hpp:77] Creating layer scale3b_branch2a
I0107 09:35:52.999258 23133 net.cpp:84] Creating Layer scale3b_branch2a
I0107 09:35:52.999261 23133 net.cpp:406] scale3b_branch2a <- res3b_branch2a
I0107 09:35:52.999269 23133 net.cpp:367] scale3b_branch2a -> res3b_branch2a (in-place)
I0107 09:35:52.999300 23133 layer_factory.hpp:77] Creating layer scale3b_branch2a
I0107 09:35:52.999392 23133 net.cpp:122] Setting up scale3b_branch2a
I0107 09:35:52.999403 23133 net.cpp:129] Top shape: 1 128 8 8 (8192)
I0107 09:35:52.999408 23133 net.cpp:137] Memory required for data: 11091972
I0107 09:35:52.999413 23133 layer_factory.hpp:77] Creating layer res3b_branch2a_relu
I0107 09:35:52.999418 23133 net.cpp:84] Creating Layer res3b_branch2a_relu
I0107 09:35:52.999421 23133 net.cpp:406] res3b_branch2a_relu <- res3b_branch2a
I0107 09:35:52.999426 23133 net.cpp:367] res3b_branch2a_relu -> res3b_branch2a (in-place)
I0107 09:35:52.999433 23133 net.cpp:122] Setting up res3b_branch2a_relu
I0107 09:35:52.999438 23133 net.cpp:129] Top shape: 1 128 8 8 (8192)
I0107 09:35:52.999440 23133 net.cpp:137] Memory required for data: 11124740
I0107 09:35:52.999464 23133 layer_factory.hpp:77] Creating layer res3b_branch2b
I0107 09:35:52.999474 23133 net.cpp:84] Creating Layer res3b_branch2b
I0107 09:35:52.999477 23133 net.cpp:406] res3b_branch2b <- res3b_branch2a
I0107 09:35:52.999485 23133 net.cpp:380] res3b_branch2b -> res3b_branch2b
I0107 09:35:52.999758 23133 net.cpp:122] Setting up res3b_branch2b
I0107 09:35:52.999770 23133 net.cpp:129] Top shape: 1 128 8 8 (8192)
I0107 09:35:52.999774 23133 net.cpp:137] Memory required for data: 11157508
I0107 09:35:52.999780 23133 layer_factory.hpp:77] Creating layer bn3b_branch2b
I0107 09:35:52.999786 23133 net.cpp:84] Creating Layer bn3b_branch2b
I0107 09:35:52.999790 23133 net.cpp:406] bn3b_branch2b <- res3b_branch2b
I0107 09:35:52.999796 23133 net.cpp:367] bn3b_branch2b -> res3b_branch2b (in-place)
I0107 09:35:52.999974 23133 net.cpp:122] Setting up bn3b_branch2b
I0107 09:35:52.999984 23133 net.cpp:129] Top shape: 1 128 8 8 (8192)
I0107 09:35:52.999986 23133 net.cpp:137] Memory required for data: 11190276
I0107 09:35:52.999994 23133 layer_factory.hpp:77] Creating layer scale3b_branch2b
I0107 09:35:52.999999 23133 net.cpp:84] Creating Layer scale3b_branch2b
I0107 09:35:53.000002 23133 net.cpp:406] scale3b_branch2b <- res3b_branch2b
I0107 09:35:53.000007 23133 net.cpp:367] scale3b_branch2b -> res3b_branch2b (in-place)
I0107 09:35:53.000042 23133 layer_factory.hpp:77] Creating layer scale3b_branch2b
I0107 09:35:53.000138 23133 net.cpp:122] Setting up scale3b_branch2b
I0107 09:35:53.000147 23133 net.cpp:129] Top shape: 1 128 8 8 (8192)
I0107 09:35:53.000150 23133 net.cpp:137] Memory required for data: 11223044
I0107 09:35:53.000156 23133 layer_factory.hpp:77] Creating layer res3b_branch2b_relu
I0107 09:35:53.000161 23133 net.cpp:84] Creating Layer res3b_branch2b_relu
I0107 09:35:53.000165 23133 net.cpp:406] res3b_branch2b_relu <- res3b_branch2b
I0107 09:35:53.000171 23133 net.cpp:367] res3b_branch2b_relu -> res3b_branch2b (in-place)
I0107 09:35:53.000177 23133 net.cpp:122] Setting up res3b_branch2b_relu
I0107 09:35:53.000182 23133 net.cpp:129] Top shape: 1 128 8 8 (8192)
I0107 09:35:53.000185 23133 net.cpp:137] Memory required for data: 11255812
I0107 09:35:53.000188 23133 layer_factory.hpp:77] Creating layer res3b_branch2c
I0107 09:35:53.000195 23133 net.cpp:84] Creating Layer res3b_branch2c
I0107 09:35:53.000198 23133 net.cpp:406] res3b_branch2c <- res3b_branch2b
I0107 09:35:53.000205 23133 net.cpp:380] res3b_branch2c -> res3b_branch2c
I0107 09:35:53.000402 23133 net.cpp:122] Setting up res3b_branch2c
I0107 09:35:53.000413 23133 net.cpp:129] Top shape: 1 512 8 8 (32768)
I0107 09:35:53.000416 23133 net.cpp:137] Memory required for data: 11386884
I0107 09:35:53.000422 23133 layer_factory.hpp:77] Creating layer bn3b_branch2c
I0107 09:35:53.000430 23133 net.cpp:84] Creating Layer bn3b_branch2c
I0107 09:35:53.000434 23133 net.cpp:406] bn3b_branch2c <- res3b_branch2c
I0107 09:35:53.000439 23133 net.cpp:367] bn3b_branch2c -> res3b_branch2c (in-place)
I0107 09:35:53.000600 23133 net.cpp:122] Setting up bn3b_branch2c
I0107 09:35:53.000609 23133 net.cpp:129] Top shape: 1 512 8 8 (32768)
I0107 09:35:53.000612 23133 net.cpp:137] Memory required for data: 11517956
I0107 09:35:53.000619 23133 layer_factory.hpp:77] Creating layer scale3b_branch2c
I0107 09:35:53.000627 23133 net.cpp:84] Creating Layer scale3b_branch2c
I0107 09:35:53.000630 23133 net.cpp:406] scale3b_branch2c <- res3b_branch2c
I0107 09:35:53.000635 23133 net.cpp:367] scale3b_branch2c -> res3b_branch2c (in-place)
I0107 09:35:53.000665 23133 layer_factory.hpp:77] Creating layer scale3b_branch2c
I0107 09:35:53.000767 23133 net.cpp:122] Setting up scale3b_branch2c
I0107 09:35:53.000777 23133 net.cpp:129] Top shape: 1 512 8 8 (32768)
I0107 09:35:53.000779 23133 net.cpp:137] Memory required for data: 11649028
I0107 09:35:53.000785 23133 layer_factory.hpp:77] Creating layer res3b
I0107 09:35:53.000792 23133 net.cpp:84] Creating Layer res3b
I0107 09:35:53.000795 23133 net.cpp:406] res3b <- res3a_res3a_relu_0_split_1
I0107 09:35:53.000799 23133 net.cpp:406] res3b <- res3b_branch2c
I0107 09:35:53.000807 23133 net.cpp:380] res3b -> res3b
I0107 09:35:53.000828 23133 net.cpp:122] Setting up res3b
I0107 09:35:53.000836 23133 net.cpp:129] Top shape: 1 512 8 8 (32768)
I0107 09:35:53.000840 23133 net.cpp:137] Memory required for data: 11780100
I0107 09:35:53.000844 23133 layer_factory.hpp:77] Creating layer res3b_relu
I0107 09:35:53.000849 23133 net.cpp:84] Creating Layer res3b_relu
I0107 09:35:53.000852 23133 net.cpp:406] res3b_relu <- res3b
I0107 09:35:53.000857 23133 net.cpp:367] res3b_relu -> res3b (in-place)
I0107 09:35:53.000862 23133 net.cpp:122] Setting up res3b_relu
I0107 09:35:53.000867 23133 net.cpp:129] Top shape: 1 512 8 8 (32768)
I0107 09:35:53.000870 23133 net.cpp:137] Memory required for data: 11911172
I0107 09:35:53.000874 23133 layer_factory.hpp:77] Creating layer res3b_res3b_relu_0_split
I0107 09:35:53.000881 23133 net.cpp:84] Creating Layer res3b_res3b_relu_0_split
I0107 09:35:53.000885 23133 net.cpp:406] res3b_res3b_relu_0_split <- res3b
I0107 09:35:53.000890 23133 net.cpp:380] res3b_res3b_relu_0_split -> res3b_res3b_relu_0_split_0
I0107 09:35:53.000895 23133 net.cpp:380] res3b_res3b_relu_0_split -> res3b_res3b_relu_0_split_1
I0107 09:35:53.000929 23133 net.cpp:122] Setting up res3b_res3b_relu_0_split
I0107 09:35:53.000938 23133 net.cpp:129] Top shape: 1 512 8 8 (32768)
I0107 09:35:53.000943 23133 net.cpp:129] Top shape: 1 512 8 8 (32768)
I0107 09:35:53.000946 23133 net.cpp:137] Memory required for data: 12173316
I0107 09:35:53.000950 23133 layer_factory.hpp:77] Creating layer res3c_branch2a
I0107 09:35:53.000957 23133 net.cpp:84] Creating Layer res3c_branch2a
I0107 09:35:53.000960 23133 net.cpp:406] res3c_branch2a <- res3b_res3b_relu_0_split_0
I0107 09:35:53.000965 23133 net.cpp:380] res3c_branch2a -> res3c_branch2a
I0107 09:35:53.001180 23133 net.cpp:122] Setting up res3c_branch2a
I0107 09:35:53.001191 23133 net.cpp:129] Top shape: 1 128 8 8 (8192)
I0107 09:35:53.001195 23133 net.cpp:137] Memory required for data: 12206084
I0107 09:35:53.001200 23133 layer_factory.hpp:77] Creating layer bn3c_branch2a
I0107 09:35:53.001209 23133 net.cpp:84] Creating Layer bn3c_branch2a
I0107 09:35:53.001212 23133 net.cpp:406] bn3c_branch2a <- res3c_branch2a
I0107 09:35:53.001217 23133 net.cpp:367] bn3c_branch2a -> res3c_branch2a (in-place)
I0107 09:35:53.001384 23133 net.cpp:122] Setting up bn3c_branch2a
I0107 09:35:53.001392 23133 net.cpp:129] Top shape: 1 128 8 8 (8192)
I0107 09:35:53.001396 23133 net.cpp:137] Memory required for data: 12238852
I0107 09:35:53.001404 23133 layer_factory.hpp:77] Creating layer scale3c_branch2a
I0107 09:35:53.001410 23133 net.cpp:84] Creating Layer scale3c_branch2a
I0107 09:35:53.001412 23133 net.cpp:406] scale3c_branch2a <- res3c_branch2a
I0107 09:35:53.001420 23133 net.cpp:367] scale3c_branch2a -> res3c_branch2a (in-place)
I0107 09:35:53.001451 23133 layer_factory.hpp:77] Creating layer scale3c_branch2a
I0107 09:35:53.001562 23133 net.cpp:122] Setting up scale3c_branch2a
I0107 09:35:53.001571 23133 net.cpp:129] Top shape: 1 128 8 8 (8192)
I0107 09:35:53.001574 23133 net.cpp:137] Memory required for data: 12271620
I0107 09:35:53.001580 23133 layer_factory.hpp:77] Creating layer res3c_branch2a_relu
I0107 09:35:53.001586 23133 net.cpp:84] Creating Layer res3c_branch2a_relu
I0107 09:35:53.001590 23133 net.cpp:406] res3c_branch2a_relu <- res3c_branch2a
I0107 09:35:53.001595 23133 net.cpp:367] res3c_branch2a_relu -> res3c_branch2a (in-place)
I0107 09:35:53.001600 23133 net.cpp:122] Setting up res3c_branch2a_relu
I0107 09:35:53.001605 23133 net.cpp:129] Top shape: 1 128 8 8 (8192)
I0107 09:35:53.001608 23133 net.cpp:137] Memory required for data: 12304388
I0107 09:35:53.001611 23133 layer_factory.hpp:77] Creating layer res3c_branch2b
I0107 09:35:53.001619 23133 net.cpp:84] Creating Layer res3c_branch2b
I0107 09:35:53.001622 23133 net.cpp:406] res3c_branch2b <- res3c_branch2a
I0107 09:35:53.001629 23133 net.cpp:380] res3c_branch2b -> res3c_branch2b
I0107 09:35:53.002918 23133 net.cpp:122] Setting up res3c_branch2b
I0107 09:35:53.002933 23133 net.cpp:129] Top shape: 1 128 8 8 (8192)
I0107 09:35:53.002938 23133 net.cpp:137] Memory required for data: 12337156
I0107 09:35:53.002944 23133 layer_factory.hpp:77] Creating layer bn3c_branch2b
I0107 09:35:53.002954 23133 net.cpp:84] Creating Layer bn3c_branch2b
I0107 09:35:53.002959 23133 net.cpp:406] bn3c_branch2b <- res3c_branch2b
I0107 09:35:53.002964 23133 net.cpp:367] bn3c_branch2b -> res3c_branch2b (in-place)
I0107 09:35:53.003129 23133 net.cpp:122] Setting up bn3c_branch2b
I0107 09:35:53.003137 23133 net.cpp:129] Top shape: 1 128 8 8 (8192)
I0107 09:35:53.003141 23133 net.cpp:137] Memory required for data: 12369924
I0107 09:35:53.003149 23133 layer_factory.hpp:77] Creating layer scale3c_branch2b
I0107 09:35:53.003160 23133 net.cpp:84] Creating Layer scale3c_branch2b
I0107 09:35:53.003165 23133 net.cpp:406] scale3c_branch2b <- res3c_branch2b
I0107 09:35:53.003170 23133 net.cpp:367] scale3c_branch2b -> res3c_branch2b (in-place)
I0107 09:35:53.003206 23133 layer_factory.hpp:77] Creating layer scale3c_branch2b
I0107 09:35:53.003302 23133 net.cpp:122] Setting up scale3c_branch2b
I0107 09:35:53.003312 23133 net.cpp:129] Top shape: 1 128 8 8 (8192)
I0107 09:35:53.003315 23133 net.cpp:137] Memory required for data: 12402692
I0107 09:35:53.003321 23133 layer_factory.hpp:77] Creating layer res3c_branch2b_relu
I0107 09:35:53.003327 23133 net.cpp:84] Creating Layer res3c_branch2b_relu
I0107 09:35:53.003331 23133 net.cpp:406] res3c_branch2b_relu <- res3c_branch2b
I0107 09:35:53.003338 23133 net.cpp:367] res3c_branch2b_relu -> res3c_branch2b (in-place)
I0107 09:35:53.003343 23133 net.cpp:122] Setting up res3c_branch2b_relu
I0107 09:35:53.003348 23133 net.cpp:129] Top shape: 1 128 8 8 (8192)
I0107 09:35:53.003351 23133 net.cpp:137] Memory required for data: 12435460
I0107 09:35:53.003355 23133 layer_factory.hpp:77] Creating layer res3c_branch2c
I0107 09:35:53.003363 23133 net.cpp:84] Creating Layer res3c_branch2c
I0107 09:35:53.003366 23133 net.cpp:406] res3c_branch2c <- res3c_branch2b
I0107 09:35:53.003372 23133 net.cpp:380] res3c_branch2c -> res3c_branch2c
I0107 09:35:53.003609 23133 net.cpp:122] Setting up res3c_branch2c
I0107 09:35:53.003623 23133 net.cpp:129] Top shape: 1 512 8 8 (32768)
I0107 09:35:53.003626 23133 net.cpp:137] Memory required for data: 12566532
I0107 09:35:53.003633 23133 layer_factory.hpp:77] Creating layer bn3c_branch2c
I0107 09:35:53.003639 23133 net.cpp:84] Creating Layer bn3c_branch2c
I0107 09:35:53.003643 23133 net.cpp:406] bn3c_branch2c <- res3c_branch2c
I0107 09:35:53.003650 23133 net.cpp:367] bn3c_branch2c -> res3c_branch2c (in-place)
I0107 09:35:53.003845 23133 net.cpp:122] Setting up bn3c_branch2c
I0107 09:35:53.003855 23133 net.cpp:129] Top shape: 1 512 8 8 (32768)
I0107 09:35:53.003859 23133 net.cpp:137] Memory required for data: 12697604
I0107 09:35:53.003866 23133 layer_factory.hpp:77] Creating layer scale3c_branch2c
I0107 09:35:53.003872 23133 net.cpp:84] Creating Layer scale3c_branch2c
I0107 09:35:53.003875 23133 net.cpp:406] scale3c_branch2c <- res3c_branch2c
I0107 09:35:53.003881 23133 net.cpp:367] scale3c_branch2c -> res3c_branch2c (in-place)
I0107 09:35:53.003914 23133 layer_factory.hpp:77] Creating layer scale3c_branch2c
I0107 09:35:53.004019 23133 net.cpp:122] Setting up scale3c_branch2c
I0107 09:35:53.004029 23133 net.cpp:129] Top shape: 1 512 8 8 (32768)
I0107 09:35:53.004032 23133 net.cpp:137] Memory required for data: 12828676
I0107 09:35:53.004039 23133 layer_factory.hpp:77] Creating layer res3c
I0107 09:35:53.004047 23133 net.cpp:84] Creating Layer res3c
I0107 09:35:53.004051 23133 net.cpp:406] res3c <- res3b_res3b_relu_0_split_1
I0107 09:35:53.004055 23133 net.cpp:406] res3c <- res3c_branch2c
I0107 09:35:53.004060 23133 net.cpp:380] res3c -> res3c
I0107 09:35:53.004084 23133 net.cpp:122] Setting up res3c
I0107 09:35:53.004092 23133 net.cpp:129] Top shape: 1 512 8 8 (32768)
I0107 09:35:53.004096 23133 net.cpp:137] Memory required for data: 12959748
I0107 09:35:53.004099 23133 layer_factory.hpp:77] Creating layer res3c_relu
I0107 09:35:53.004106 23133 net.cpp:84] Creating Layer res3c_relu
I0107 09:35:53.004108 23133 net.cpp:406] res3c_relu <- res3c
I0107 09:35:53.004114 23133 net.cpp:367] res3c_relu -> res3c (in-place)
I0107 09:35:53.004120 23133 net.cpp:122] Setting up res3c_relu
I0107 09:35:53.004125 23133 net.cpp:129] Top shape: 1 512 8 8 (32768)
I0107 09:35:53.004128 23133 net.cpp:137] Memory required for data: 13090820
I0107 09:35:53.004132 23133 layer_factory.hpp:77] Creating layer res3c_res3c_relu_0_split
I0107 09:35:53.004137 23133 net.cpp:84] Creating Layer res3c_res3c_relu_0_split
I0107 09:35:53.004140 23133 net.cpp:406] res3c_res3c_relu_0_split <- res3c
I0107 09:35:53.004144 23133 net.cpp:380] res3c_res3c_relu_0_split -> res3c_res3c_relu_0_split_0
I0107 09:35:53.004153 23133 net.cpp:380] res3c_res3c_relu_0_split -> res3c_res3c_relu_0_split_1
I0107 09:35:53.004181 23133 net.cpp:122] Setting up res3c_res3c_relu_0_split
I0107 09:35:53.004189 23133 net.cpp:129] Top shape: 1 512 8 8 (32768)
I0107 09:35:53.004194 23133 net.cpp:129] Top shape: 1 512 8 8 (32768)
I0107 09:35:53.004197 23133 net.cpp:137] Memory required for data: 13352964
I0107 09:35:53.004201 23133 layer_factory.hpp:77] Creating layer res3d_branch2a
I0107 09:35:53.004209 23133 net.cpp:84] Creating Layer res3d_branch2a
I0107 09:35:53.004214 23133 net.cpp:406] res3d_branch2a <- res3c_res3c_relu_0_split_0
I0107 09:35:53.004218 23133 net.cpp:380] res3d_branch2a -> res3d_branch2a
I0107 09:35:53.005455 23133 net.cpp:122] Setting up res3d_branch2a
I0107 09:35:53.005471 23133 net.cpp:129] Top shape: 1 128 8 8 (8192)
I0107 09:35:53.005475 23133 net.cpp:137] Memory required for data: 13385732
I0107 09:35:53.005482 23133 layer_factory.hpp:77] Creating layer bn3d_branch2a
I0107 09:35:53.005493 23133 net.cpp:84] Creating Layer bn3d_branch2a
I0107 09:35:53.005501 23133 net.cpp:406] bn3d_branch2a <- res3d_branch2a
I0107 09:35:53.005507 23133 net.cpp:367] bn3d_branch2a -> res3d_branch2a (in-place)
I0107 09:35:53.005687 23133 net.cpp:122] Setting up bn3d_branch2a
I0107 09:35:53.005697 23133 net.cpp:129] Top shape: 1 128 8 8 (8192)
I0107 09:35:53.005700 23133 net.cpp:137] Memory required for data: 13418500
I0107 09:35:53.005722 23133 layer_factory.hpp:77] Creating layer scale3d_branch2a
I0107 09:35:53.005733 23133 net.cpp:84] Creating Layer scale3d_branch2a
I0107 09:35:53.005736 23133 net.cpp:406] scale3d_branch2a <- res3d_branch2a
I0107 09:35:53.005741 23133 net.cpp:367] scale3d_branch2a -> res3d_branch2a (in-place)
I0107 09:35:53.005779 23133 layer_factory.hpp:77] Creating layer scale3d_branch2a
I0107 09:35:53.005878 23133 net.cpp:122] Setting up scale3d_branch2a
I0107 09:35:53.005888 23133 net.cpp:129] Top shape: 1 128 8 8 (8192)
I0107 09:35:53.005892 23133 net.cpp:137] Memory required for data: 13451268
I0107 09:35:53.005897 23133 layer_factory.hpp:77] Creating layer res3d_branch2a_relu
I0107 09:35:53.005905 23133 net.cpp:84] Creating Layer res3d_branch2a_relu
I0107 09:35:53.005908 23133 net.cpp:406] res3d_branch2a_relu <- res3d_branch2a
I0107 09:35:53.005913 23133 net.cpp:367] res3d_branch2a_relu -> res3d_branch2a (in-place)
I0107 09:35:53.005919 23133 net.cpp:122] Setting up res3d_branch2a_relu
I0107 09:35:53.005924 23133 net.cpp:129] Top shape: 1 128 8 8 (8192)
I0107 09:35:53.005928 23133 net.cpp:137] Memory required for data: 13484036
I0107 09:35:53.005931 23133 layer_factory.hpp:77] Creating layer res3d_branch2b
I0107 09:35:53.005939 23133 net.cpp:84] Creating Layer res3d_branch2b
I0107 09:35:53.005944 23133 net.cpp:406] res3d_branch2b <- res3d_branch2a
I0107 09:35:53.005949 23133 net.cpp:380] res3d_branch2b -> res3d_branch2b
I0107 09:35:53.006214 23133 net.cpp:122] Setting up res3d_branch2b
I0107 09:35:53.006225 23133 net.cpp:129] Top shape: 1 128 8 8 (8192)
I0107 09:35:53.006228 23133 net.cpp:137] Memory required for data: 13516804
I0107 09:35:53.006234 23133 layer_factory.hpp:77] Creating layer bn3d_branch2b
I0107 09:35:53.006239 23133 net.cpp:84] Creating Layer bn3d_branch2b
I0107 09:35:53.006243 23133 net.cpp:406] bn3d_branch2b <- res3d_branch2b
I0107 09:35:53.006248 23133 net.cpp:367] bn3d_branch2b -> res3d_branch2b (in-place)
I0107 09:35:53.006419 23133 net.cpp:122] Setting up bn3d_branch2b
I0107 09:35:53.006430 23133 net.cpp:129] Top shape: 1 128 8 8 (8192)
I0107 09:35:53.006433 23133 net.cpp:137] Memory required for data: 13549572
I0107 09:35:53.006441 23133 layer_factory.hpp:77] Creating layer scale3d_branch2b
I0107 09:35:53.006446 23133 net.cpp:84] Creating Layer scale3d_branch2b
I0107 09:35:53.006450 23133 net.cpp:406] scale3d_branch2b <- res3d_branch2b
I0107 09:35:53.006455 23133 net.cpp:367] scale3d_branch2b -> res3d_branch2b (in-place)
I0107 09:35:53.006489 23133 layer_factory.hpp:77] Creating layer scale3d_branch2b
I0107 09:35:53.006587 23133 net.cpp:122] Setting up scale3d_branch2b
I0107 09:35:53.006595 23133 net.cpp:129] Top shape: 1 128 8 8 (8192)
I0107 09:35:53.006599 23133 net.cpp:137] Memory required for data: 13582340
I0107 09:35:53.006605 23133 layer_factory.hpp:77] Creating layer res3d_branch2b_relu
I0107 09:35:53.006615 23133 net.cpp:84] Creating Layer res3d_branch2b_relu
I0107 09:35:53.006619 23133 net.cpp:406] res3d_branch2b_relu <- res3d_branch2b
I0107 09:35:53.006624 23133 net.cpp:367] res3d_branch2b_relu -> res3d_branch2b (in-place)
I0107 09:35:53.006630 23133 net.cpp:122] Setting up res3d_branch2b_relu
I0107 09:35:53.006635 23133 net.cpp:129] Top shape: 1 128 8 8 (8192)
I0107 09:35:53.006639 23133 net.cpp:137] Memory required for data: 13615108
I0107 09:35:53.006642 23133 layer_factory.hpp:77] Creating layer res3d_branch2c
I0107 09:35:53.006650 23133 net.cpp:84] Creating Layer res3d_branch2c
I0107 09:35:53.006654 23133 net.cpp:406] res3d_branch2c <- res3d_branch2b
I0107 09:35:53.006659 23133 net.cpp:380] res3d_branch2c -> res3d_branch2c
I0107 09:35:53.006862 23133 net.cpp:122] Setting up res3d_branch2c
I0107 09:35:53.006873 23133 net.cpp:129] Top shape: 1 512 8 8 (32768)
I0107 09:35:53.006876 23133 net.cpp:137] Memory required for data: 13746180
I0107 09:35:53.006881 23133 layer_factory.hpp:77] Creating layer bn3d_branch2c
I0107 09:35:53.006891 23133 net.cpp:84] Creating Layer bn3d_branch2c
I0107 09:35:53.006893 23133 net.cpp:406] bn3d_branch2c <- res3d_branch2c
I0107 09:35:53.006898 23133 net.cpp:367] bn3d_branch2c -> res3d_branch2c (in-place)
I0107 09:35:53.007068 23133 net.cpp:122] Setting up bn3d_branch2c
I0107 09:35:53.007077 23133 net.cpp:129] Top shape: 1 512 8 8 (32768)
I0107 09:35:53.007081 23133 net.cpp:137] Memory required for data: 13877252
I0107 09:35:53.007087 23133 layer_factory.hpp:77] Creating layer scale3d_branch2c
I0107 09:35:53.007093 23133 net.cpp:84] Creating Layer scale3d_branch2c
I0107 09:35:53.007097 23133 net.cpp:406] scale3d_branch2c <- res3d_branch2c
I0107 09:35:53.007103 23133 net.cpp:367] scale3d_branch2c -> res3d_branch2c (in-place)
I0107 09:35:53.007134 23133 layer_factory.hpp:77] Creating layer scale3d_branch2c
I0107 09:35:53.007236 23133 net.cpp:122] Setting up scale3d_branch2c
I0107 09:35:53.007247 23133 net.cpp:129] Top shape: 1 512 8 8 (32768)
I0107 09:35:53.007251 23133 net.cpp:137] Memory required for data: 14008324
I0107 09:35:53.007257 23133 layer_factory.hpp:77] Creating layer res3d
I0107 09:35:53.007262 23133 net.cpp:84] Creating Layer res3d
I0107 09:35:53.007267 23133 net.cpp:406] res3d <- res3c_res3c_relu_0_split_1
I0107 09:35:53.007272 23133 net.cpp:406] res3d <- res3d_branch2c
I0107 09:35:53.007277 23133 net.cpp:380] res3d -> res3d
I0107 09:35:53.007302 23133 net.cpp:122] Setting up res3d
I0107 09:35:53.007309 23133 net.cpp:129] Top shape: 1 512 8 8 (32768)
I0107 09:35:53.007313 23133 net.cpp:137] Memory required for data: 14139396
I0107 09:35:53.007316 23133 layer_factory.hpp:77] Creating layer res3d_relu
I0107 09:35:53.007323 23133 net.cpp:84] Creating Layer res3d_relu
I0107 09:35:53.007328 23133 net.cpp:406] res3d_relu <- res3d
I0107 09:35:53.007331 23133 net.cpp:367] res3d_relu -> res3d (in-place)
I0107 09:35:53.007336 23133 net.cpp:122] Setting up res3d_relu
I0107 09:35:53.007341 23133 net.cpp:129] Top shape: 1 512 8 8 (32768)
I0107 09:35:53.007345 23133 net.cpp:137] Memory required for data: 14270468
I0107 09:35:53.007349 23133 layer_factory.hpp:77] Creating layer drop3
I0107 09:35:53.007354 23133 net.cpp:84] Creating Layer drop3
I0107 09:35:53.007357 23133 net.cpp:406] drop3 <- res3d
I0107 09:35:53.007364 23133 net.cpp:367] drop3 -> res3d (in-place)
I0107 09:35:53.007382 23133 net.cpp:122] Setting up drop3
I0107 09:35:53.007390 23133 net.cpp:129] Top shape: 1 512 8 8 (32768)
I0107 09:35:53.007393 23133 net.cpp:137] Memory required for data: 14401540
I0107 09:35:53.007397 23133 layer_factory.hpp:77] Creating layer res3d_drop3_0_split
I0107 09:35:53.007402 23133 net.cpp:84] Creating Layer res3d_drop3_0_split
I0107 09:35:53.007405 23133 net.cpp:406] res3d_drop3_0_split <- res3d
I0107 09:35:53.007411 23133 net.cpp:380] res3d_drop3_0_split -> res3d_drop3_0_split_0
I0107 09:35:53.007419 23133 net.cpp:380] res3d_drop3_0_split -> res3d_drop3_0_split_1
I0107 09:35:53.007483 23133 net.cpp:122] Setting up res3d_drop3_0_split
I0107 09:35:53.007493 23133 net.cpp:129] Top shape: 1 512 8 8 (32768)
I0107 09:35:53.007498 23133 net.cpp:129] Top shape: 1 512 8 8 (32768)
I0107 09:35:53.007503 23133 net.cpp:137] Memory required for data: 14663684
I0107 09:35:53.007506 23133 layer_factory.hpp:77] Creating layer res4a_branch1
I0107 09:35:53.007516 23133 net.cpp:84] Creating Layer res4a_branch1
I0107 09:35:53.007521 23133 net.cpp:406] res4a_branch1 <- res3d_drop3_0_split_0
I0107 09:35:53.007529 23133 net.cpp:380] res4a_branch1 -> res4a_branch1
I0107 09:35:53.009029 23133 net.cpp:122] Setting up res4a_branch1
I0107 09:35:53.009057 23133 net.cpp:129] Top shape: 1 1024 4 4 (16384)
I0107 09:35:53.009059 23133 net.cpp:137] Memory required for data: 14729220
I0107 09:35:53.009066 23133 layer_factory.hpp:77] Creating layer bn4a_branch1
I0107 09:35:53.009075 23133 net.cpp:84] Creating Layer bn4a_branch1
I0107 09:35:53.009079 23133 net.cpp:406] bn4a_branch1 <- res4a_branch1
I0107 09:35:53.009084 23133 net.cpp:367] bn4a_branch1 -> res4a_branch1 (in-place)
I0107 09:35:53.009270 23133 net.cpp:122] Setting up bn4a_branch1
I0107 09:35:53.009281 23133 net.cpp:129] Top shape: 1 1024 4 4 (16384)
I0107 09:35:53.009284 23133 net.cpp:137] Memory required for data: 14794756
I0107 09:35:53.009292 23133 layer_factory.hpp:77] Creating layer scale4a_branch1
I0107 09:35:53.009300 23133 net.cpp:84] Creating Layer scale4a_branch1
I0107 09:35:53.009305 23133 net.cpp:406] scale4a_branch1 <- res4a_branch1
I0107 09:35:53.009310 23133 net.cpp:367] scale4a_branch1 -> res4a_branch1 (in-place)
I0107 09:35:53.009341 23133 layer_factory.hpp:77] Creating layer scale4a_branch1
I0107 09:35:53.009449 23133 net.cpp:122] Setting up scale4a_branch1
I0107 09:35:53.009457 23133 net.cpp:129] Top shape: 1 1024 4 4 (16384)
I0107 09:35:53.009461 23133 net.cpp:137] Memory required for data: 14860292
I0107 09:35:53.009467 23133 layer_factory.hpp:77] Creating layer res4a_branch2a
I0107 09:35:53.009476 23133 net.cpp:84] Creating Layer res4a_branch2a
I0107 09:35:53.009480 23133 net.cpp:406] res4a_branch2a <- res3d_drop3_0_split_1
I0107 09:35:53.009486 23133 net.cpp:380] res4a_branch2a -> res4a_branch2a
I0107 09:35:53.009737 23133 net.cpp:122] Setting up res4a_branch2a
I0107 09:35:53.009749 23133 net.cpp:129] Top shape: 1 256 4 4 (4096)
I0107 09:35:53.009753 23133 net.cpp:137] Memory required for data: 14876676
I0107 09:35:53.009758 23133 layer_factory.hpp:77] Creating layer bn4a_branch2a
I0107 09:35:53.009764 23133 net.cpp:84] Creating Layer bn4a_branch2a
I0107 09:35:53.009768 23133 net.cpp:406] bn4a_branch2a <- res4a_branch2a
I0107 09:35:53.009773 23133 net.cpp:367] bn4a_branch2a -> res4a_branch2a (in-place)
I0107 09:35:53.009939 23133 net.cpp:122] Setting up bn4a_branch2a
I0107 09:35:53.009949 23133 net.cpp:129] Top shape: 1 256 4 4 (4096)
I0107 09:35:53.009953 23133 net.cpp:137] Memory required for data: 14893060
I0107 09:35:53.009960 23133 layer_factory.hpp:77] Creating layer scale4a_branch2a
I0107 09:35:53.009966 23133 net.cpp:84] Creating Layer scale4a_branch2a
I0107 09:35:53.009970 23133 net.cpp:406] scale4a_branch2a <- res4a_branch2a
I0107 09:35:53.009975 23133 net.cpp:367] scale4a_branch2a -> res4a_branch2a (in-place)
I0107 09:35:53.010011 23133 layer_factory.hpp:77] Creating layer scale4a_branch2a
I0107 09:35:53.010113 23133 net.cpp:122] Setting up scale4a_branch2a
I0107 09:35:53.010123 23133 net.cpp:129] Top shape: 1 256 4 4 (4096)
I0107 09:35:53.010125 23133 net.cpp:137] Memory required for data: 14909444
I0107 09:35:53.010131 23133 layer_factory.hpp:77] Creating layer res4a_branch2a_relu
I0107 09:35:53.010140 23133 net.cpp:84] Creating Layer res4a_branch2a_relu
I0107 09:35:53.010144 23133 net.cpp:406] res4a_branch2a_relu <- res4a_branch2a
I0107 09:35:53.010149 23133 net.cpp:367] res4a_branch2a_relu -> res4a_branch2a (in-place)
I0107 09:35:53.010154 23133 net.cpp:122] Setting up res4a_branch2a_relu
I0107 09:35:53.010159 23133 net.cpp:129] Top shape: 1 256 4 4 (4096)
I0107 09:35:53.010162 23133 net.cpp:137] Memory required for data: 14925828
I0107 09:35:53.010166 23133 layer_factory.hpp:77] Creating layer res4a_branch2b
I0107 09:35:53.010174 23133 net.cpp:84] Creating Layer res4a_branch2b
I0107 09:35:53.010179 23133 net.cpp:406] res4a_branch2b <- res4a_branch2a
I0107 09:35:53.010183 23133 net.cpp:380] res4a_branch2b -> res4a_branch2b
I0107 09:35:53.011883 23133 net.cpp:122] Setting up res4a_branch2b
I0107 09:35:53.011910 23133 net.cpp:129] Top shape: 1 256 4 4 (4096)
I0107 09:35:53.011914 23133 net.cpp:137] Memory required for data: 14942212
I0107 09:35:53.011920 23133 layer_factory.hpp:77] Creating layer bn4a_branch2b
I0107 09:35:53.011927 23133 net.cpp:84] Creating Layer bn4a_branch2b
I0107 09:35:53.011931 23133 net.cpp:406] bn4a_branch2b <- res4a_branch2b
I0107 09:35:53.011936 23133 net.cpp:367] bn4a_branch2b -> res4a_branch2b (in-place)
I0107 09:35:53.012112 23133 net.cpp:122] Setting up bn4a_branch2b
I0107 09:35:53.012122 23133 net.cpp:129] Top shape: 1 256 4 4 (4096)
I0107 09:35:53.012126 23133 net.cpp:137] Memory required for data: 14958596
I0107 09:35:53.012133 23133 layer_factory.hpp:77] Creating layer scale4a_branch2b
I0107 09:35:53.012140 23133 net.cpp:84] Creating Layer scale4a_branch2b
I0107 09:35:53.012145 23133 net.cpp:406] scale4a_branch2b <- res4a_branch2b
I0107 09:35:53.012148 23133 net.cpp:367] scale4a_branch2b -> res4a_branch2b (in-place)
I0107 09:35:53.012187 23133 layer_factory.hpp:77] Creating layer scale4a_branch2b
I0107 09:35:53.012300 23133 net.cpp:122] Setting up scale4a_branch2b
I0107 09:35:53.012310 23133 net.cpp:129] Top shape: 1 256 4 4 (4096)
I0107 09:35:53.012312 23133 net.cpp:137] Memory required for data: 14974980
I0107 09:35:53.012318 23133 layer_factory.hpp:77] Creating layer res4a_branch2b_relu
I0107 09:35:53.012325 23133 net.cpp:84] Creating Layer res4a_branch2b_relu
I0107 09:35:53.012327 23133 net.cpp:406] res4a_branch2b_relu <- res4a_branch2b
I0107 09:35:53.012334 23133 net.cpp:367] res4a_branch2b_relu -> res4a_branch2b (in-place)
I0107 09:35:53.012341 23133 net.cpp:122] Setting up res4a_branch2b_relu
I0107 09:35:53.012346 23133 net.cpp:129] Top shape: 1 256 4 4 (4096)
I0107 09:35:53.012348 23133 net.cpp:137] Memory required for data: 14991364
I0107 09:35:53.012352 23133 layer_factory.hpp:77] Creating layer res4a_branch2c
I0107 09:35:53.012358 23133 net.cpp:84] Creating Layer res4a_branch2c
I0107 09:35:53.012362 23133 net.cpp:406] res4a_branch2c <- res4a_branch2b
I0107 09:35:53.012368 23133 net.cpp:380] res4a_branch2c -> res4a_branch2c
I0107 09:35:53.013701 23133 net.cpp:122] Setting up res4a_branch2c
I0107 09:35:53.013728 23133 net.cpp:129] Top shape: 1 1024 4 4 (16384)
I0107 09:35:53.013732 23133 net.cpp:137] Memory required for data: 15056900
I0107 09:35:53.013738 23133 layer_factory.hpp:77] Creating layer bn4a_branch2c
I0107 09:35:53.013746 23133 net.cpp:84] Creating Layer bn4a_branch2c
I0107 09:35:53.013749 23133 net.cpp:406] bn4a_branch2c <- res4a_branch2c
I0107 09:35:53.013754 23133 net.cpp:367] bn4a_branch2c -> res4a_branch2c (in-place)
I0107 09:35:53.013945 23133 net.cpp:122] Setting up bn4a_branch2c
I0107 09:35:53.013957 23133 net.cpp:129] Top shape: 1 1024 4 4 (16384)
I0107 09:35:53.013959 23133 net.cpp:137] Memory required for data: 15122436
I0107 09:35:53.013967 23133 layer_factory.hpp:77] Creating layer scale4a_branch2c
I0107 09:35:53.013973 23133 net.cpp:84] Creating Layer scale4a_branch2c
I0107 09:35:53.013978 23133 net.cpp:406] scale4a_branch2c <- res4a_branch2c
I0107 09:35:53.013983 23133 net.cpp:367] scale4a_branch2c -> res4a_branch2c (in-place)
I0107 09:35:53.014019 23133 layer_factory.hpp:77] Creating layer scale4a_branch2c
I0107 09:35:53.014127 23133 net.cpp:122] Setting up scale4a_branch2c
I0107 09:35:53.014135 23133 net.cpp:129] Top shape: 1 1024 4 4 (16384)
I0107 09:35:53.014139 23133 net.cpp:137] Memory required for data: 15187972
I0107 09:35:53.014145 23133 layer_factory.hpp:77] Creating layer res4a
I0107 09:35:53.014151 23133 net.cpp:84] Creating Layer res4a
I0107 09:35:53.014155 23133 net.cpp:406] res4a <- res4a_branch1
I0107 09:35:53.014160 23133 net.cpp:406] res4a <- res4a_branch2c
I0107 09:35:53.014168 23133 net.cpp:380] res4a -> res4a
I0107 09:35:53.014189 23133 net.cpp:122] Setting up res4a
I0107 09:35:53.014197 23133 net.cpp:129] Top shape: 1 1024 4 4 (16384)
I0107 09:35:53.014201 23133 net.cpp:137] Memory required for data: 15253508
I0107 09:35:53.014204 23133 layer_factory.hpp:77] Creating layer res4a_relu
I0107 09:35:53.014235 23133 net.cpp:84] Creating Layer res4a_relu
I0107 09:35:53.014241 23133 net.cpp:406] res4a_relu <- res4a
I0107 09:35:53.014246 23133 net.cpp:367] res4a_relu -> res4a (in-place)
I0107 09:35:53.014252 23133 net.cpp:122] Setting up res4a_relu
I0107 09:35:53.014258 23133 net.cpp:129] Top shape: 1 1024 4 4 (16384)
I0107 09:35:53.014261 23133 net.cpp:137] Memory required for data: 15319044
I0107 09:35:53.014266 23133 layer_factory.hpp:77] Creating layer res4a_res4a_relu_0_split
I0107 09:35:53.014271 23133 net.cpp:84] Creating Layer res4a_res4a_relu_0_split
I0107 09:35:53.014274 23133 net.cpp:406] res4a_res4a_relu_0_split <- res4a
I0107 09:35:53.014279 23133 net.cpp:380] res4a_res4a_relu_0_split -> res4a_res4a_relu_0_split_0
I0107 09:35:53.014286 23133 net.cpp:380] res4a_res4a_relu_0_split -> res4a_res4a_relu_0_split_1
I0107 09:35:53.014318 23133 net.cpp:122] Setting up res4a_res4a_relu_0_split
I0107 09:35:53.014326 23133 net.cpp:129] Top shape: 1 1024 4 4 (16384)
I0107 09:35:53.014331 23133 net.cpp:129] Top shape: 1 1024 4 4 (16384)
I0107 09:35:53.014335 23133 net.cpp:137] Memory required for data: 15450116
I0107 09:35:53.014338 23133 layer_factory.hpp:77] Creating layer res4b_branch2a
I0107 09:35:53.014350 23133 net.cpp:84] Creating Layer res4b_branch2a
I0107 09:35:53.014354 23133 net.cpp:406] res4b_branch2a <- res4a_res4a_relu_0_split_0
I0107 09:35:53.014360 23133 net.cpp:380] res4b_branch2a -> res4b_branch2a
I0107 09:35:53.014708 23133 net.cpp:122] Setting up res4b_branch2a
I0107 09:35:53.014719 23133 net.cpp:129] Top shape: 1 256 4 4 (4096)
I0107 09:35:53.014722 23133 net.cpp:137] Memory required for data: 15466500
I0107 09:35:53.014727 23133 layer_factory.hpp:77] Creating layer bn4b_branch2a
I0107 09:35:53.014734 23133 net.cpp:84] Creating Layer bn4b_branch2a
I0107 09:35:53.014739 23133 net.cpp:406] bn4b_branch2a <- res4b_branch2a
I0107 09:35:53.014745 23133 net.cpp:367] bn4b_branch2a -> res4b_branch2a (in-place)
I0107 09:35:53.014914 23133 net.cpp:122] Setting up bn4b_branch2a
I0107 09:35:53.014922 23133 net.cpp:129] Top shape: 1 256 4 4 (4096)
I0107 09:35:53.014925 23133 net.cpp:137] Memory required for data: 15482884
I0107 09:35:53.014932 23133 layer_factory.hpp:77] Creating layer scale4b_branch2a
I0107 09:35:53.014938 23133 net.cpp:84] Creating Layer scale4b_branch2a
I0107 09:35:53.014942 23133 net.cpp:406] scale4b_branch2a <- res4b_branch2a
I0107 09:35:53.014950 23133 net.cpp:367] scale4b_branch2a -> res4b_branch2a (in-place)
I0107 09:35:53.014983 23133 layer_factory.hpp:77] Creating layer scale4b_branch2a
I0107 09:35:53.015086 23133 net.cpp:122] Setting up scale4b_branch2a
I0107 09:35:53.015095 23133 net.cpp:129] Top shape: 1 256 4 4 (4096)
I0107 09:35:53.015099 23133 net.cpp:137] Memory required for data: 15499268
I0107 09:35:53.015105 23133 layer_factory.hpp:77] Creating layer res4b_branch2a_relu
I0107 09:35:53.015112 23133 net.cpp:84] Creating Layer res4b_branch2a_relu
I0107 09:35:53.015116 23133 net.cpp:406] res4b_branch2a_relu <- res4b_branch2a
I0107 09:35:53.015121 23133 net.cpp:367] res4b_branch2a_relu -> res4b_branch2a (in-place)
I0107 09:35:53.015126 23133 net.cpp:122] Setting up res4b_branch2a_relu
I0107 09:35:53.015131 23133 net.cpp:129] Top shape: 1 256 4 4 (4096)
I0107 09:35:53.015136 23133 net.cpp:137] Memory required for data: 15515652
I0107 09:35:53.015138 23133 layer_factory.hpp:77] Creating layer res4b_branch2b
I0107 09:35:53.015146 23133 net.cpp:84] Creating Layer res4b_branch2b
I0107 09:35:53.015151 23133 net.cpp:406] res4b_branch2b <- res4b_branch2a
I0107 09:35:53.015167 23133 net.cpp:380] res4b_branch2b -> res4b_branch2b
I0107 09:35:53.016844 23133 net.cpp:122] Setting up res4b_branch2b
I0107 09:35:53.016873 23133 net.cpp:129] Top shape: 1 256 4 4 (4096)
I0107 09:35:53.016877 23133 net.cpp:137] Memory required for data: 15532036
I0107 09:35:53.016883 23133 layer_factory.hpp:77] Creating layer bn4b_branch2b
I0107 09:35:53.016893 23133 net.cpp:84] Creating Layer bn4b_branch2b
I0107 09:35:53.016897 23133 net.cpp:406] bn4b_branch2b <- res4b_branch2b
I0107 09:35:53.016902 23133 net.cpp:367] bn4b_branch2b -> res4b_branch2b (in-place)
I0107 09:35:53.017097 23133 net.cpp:122] Setting up bn4b_branch2b
I0107 09:35:53.017108 23133 net.cpp:129] Top shape: 1 256 4 4 (4096)
I0107 09:35:53.017112 23133 net.cpp:137] Memory required for data: 15548420
I0107 09:35:53.017119 23133 layer_factory.hpp:77] Creating layer scale4b_branch2b
I0107 09:35:53.017127 23133 net.cpp:84] Creating Layer scale4b_branch2b
I0107 09:35:53.017130 23133 net.cpp:406] scale4b_branch2b <- res4b_branch2b
I0107 09:35:53.017138 23133 net.cpp:367] scale4b_branch2b -> res4b_branch2b (in-place)
I0107 09:35:53.017176 23133 layer_factory.hpp:77] Creating layer scale4b_branch2b
I0107 09:35:53.017282 23133 net.cpp:122] Setting up scale4b_branch2b
I0107 09:35:53.017292 23133 net.cpp:129] Top shape: 1 256 4 4 (4096)
I0107 09:35:53.017295 23133 net.cpp:137] Memory required for data: 15564804
I0107 09:35:53.017302 23133 layer_factory.hpp:77] Creating layer res4b_branch2b_relu
I0107 09:35:53.017307 23133 net.cpp:84] Creating Layer res4b_branch2b_relu
I0107 09:35:53.017311 23133 net.cpp:406] res4b_branch2b_relu <- res4b_branch2b
I0107 09:35:53.017318 23133 net.cpp:367] res4b_branch2b_relu -> res4b_branch2b (in-place)
I0107 09:35:53.017324 23133 net.cpp:122] Setting up res4b_branch2b_relu
I0107 09:35:53.017329 23133 net.cpp:129] Top shape: 1 256 4 4 (4096)
I0107 09:35:53.017333 23133 net.cpp:137] Memory required for data: 15581188
I0107 09:35:53.017336 23133 layer_factory.hpp:77] Creating layer res4b_branch2c
I0107 09:35:53.017343 23133 net.cpp:84] Creating Layer res4b_branch2c
I0107 09:35:53.017346 23133 net.cpp:406] res4b_branch2c <- res4b_branch2b
I0107 09:35:53.017354 23133 net.cpp:380] res4b_branch2c -> res4b_branch2c
I0107 09:35:53.018728 23133 net.cpp:122] Setting up res4b_branch2c
I0107 09:35:53.018755 23133 net.cpp:129] Top shape: 1 1024 4 4 (16384)
I0107 09:35:53.018759 23133 net.cpp:137] Memory required for data: 15646724
I0107 09:35:53.018766 23133 layer_factory.hpp:77] Creating layer bn4b_branch2c
I0107 09:35:53.018775 23133 net.cpp:84] Creating Layer bn4b_branch2c
I0107 09:35:53.018779 23133 net.cpp:406] bn4b_branch2c <- res4b_branch2c
I0107 09:35:53.018784 23133 net.cpp:367] bn4b_branch2c -> res4b_branch2c (in-place)
I0107 09:35:53.018985 23133 net.cpp:122] Setting up bn4b_branch2c
I0107 09:35:53.018996 23133 net.cpp:129] Top shape: 1 1024 4 4 (16384)
I0107 09:35:53.018998 23133 net.cpp:137] Memory required for data: 15712260
I0107 09:35:53.019006 23133 layer_factory.hpp:77] Creating layer scale4b_branch2c
I0107 09:35:53.019014 23133 net.cpp:84] Creating Layer scale4b_branch2c
I0107 09:35:53.019018 23133 net.cpp:406] scale4b_branch2c <- res4b_branch2c
I0107 09:35:53.019023 23133 net.cpp:367] scale4b_branch2c -> res4b_branch2c (in-place)
I0107 09:35:53.019062 23133 layer_factory.hpp:77] Creating layer scale4b_branch2c
I0107 09:35:53.019173 23133 net.cpp:122] Setting up scale4b_branch2c
I0107 09:35:53.019183 23133 net.cpp:129] Top shape: 1 1024 4 4 (16384)
I0107 09:35:53.019187 23133 net.cpp:137] Memory required for data: 15777796
I0107 09:35:53.019194 23133 layer_factory.hpp:77] Creating layer res4b
I0107 09:35:53.019202 23133 net.cpp:84] Creating Layer res4b
I0107 09:35:53.019207 23133 net.cpp:406] res4b <- res4a_res4a_relu_0_split_1
I0107 09:35:53.019212 23133 net.cpp:406] res4b <- res4b_branch2c
I0107 09:35:53.019217 23133 net.cpp:380] res4b -> res4b
I0107 09:35:53.019243 23133 net.cpp:122] Setting up res4b
I0107 09:35:53.019253 23133 net.cpp:129] Top shape: 1 1024 4 4 (16384)
I0107 09:35:53.019255 23133 net.cpp:137] Memory required for data: 15843332
I0107 09:35:53.019259 23133 layer_factory.hpp:77] Creating layer res4b_relu
I0107 09:35:53.019265 23133 net.cpp:84] Creating Layer res4b_relu
I0107 09:35:53.019269 23133 net.cpp:406] res4b_relu <- res4b
I0107 09:35:53.019276 23133 net.cpp:367] res4b_relu -> res4b (in-place)
I0107 09:35:53.019281 23133 net.cpp:122] Setting up res4b_relu
I0107 09:35:53.019287 23133 net.cpp:129] Top shape: 1 1024 4 4 (16384)
I0107 09:35:53.019290 23133 net.cpp:137] Memory required for data: 15908868
I0107 09:35:53.019294 23133 layer_factory.hpp:77] Creating layer res4b_res4b_relu_0_split
I0107 09:35:53.019310 23133 net.cpp:84] Creating Layer res4b_res4b_relu_0_split
I0107 09:35:53.019315 23133 net.cpp:406] res4b_res4b_relu_0_split <- res4b
I0107 09:35:53.019321 23133 net.cpp:380] res4b_res4b_relu_0_split -> res4b_res4b_relu_0_split_0
I0107 09:35:53.019327 23133 net.cpp:380] res4b_res4b_relu_0_split -> res4b_res4b_relu_0_split_1
I0107 09:35:53.019361 23133 net.cpp:122] Setting up res4b_res4b_relu_0_split
I0107 09:35:53.019371 23133 net.cpp:129] Top shape: 1 1024 4 4 (16384)
I0107 09:35:53.019374 23133 net.cpp:129] Top shape: 1 1024 4 4 (16384)
I0107 09:35:53.019378 23133 net.cpp:137] Memory required for data: 16039940
I0107 09:35:53.019381 23133 layer_factory.hpp:77] Creating layer res4c_branch2a
I0107 09:35:53.019389 23133 net.cpp:84] Creating Layer res4c_branch2a
I0107 09:35:53.019393 23133 net.cpp:406] res4c_branch2a <- res4b_res4b_relu_0_split_0
I0107 09:35:53.019407 23133 net.cpp:380] res4c_branch2a -> res4c_branch2a
I0107 09:35:53.019767 23133 net.cpp:122] Setting up res4c_branch2a
I0107 09:35:53.019779 23133 net.cpp:129] Top shape: 1 256 4 4 (4096)
I0107 09:35:53.019783 23133 net.cpp:137] Memory required for data: 16056324
I0107 09:35:53.019788 23133 layer_factory.hpp:77] Creating layer bn4c_branch2a
I0107 09:35:53.019798 23133 net.cpp:84] Creating Layer bn4c_branch2a
I0107 09:35:53.019803 23133 net.cpp:406] bn4c_branch2a <- res4c_branch2a
I0107 09:35:53.019807 23133 net.cpp:367] bn4c_branch2a -> res4c_branch2a (in-place)
I0107 09:35:53.019989 23133 net.cpp:122] Setting up bn4c_branch2a
I0107 09:35:53.019999 23133 net.cpp:129] Top shape: 1 256 4 4 (4096)
I0107 09:35:53.020002 23133 net.cpp:137] Memory required for data: 16072708
I0107 09:35:53.020009 23133 layer_factory.hpp:77] Creating layer scale4c_branch2a
I0107 09:35:53.020020 23133 net.cpp:84] Creating Layer scale4c_branch2a
I0107 09:35:53.020023 23133 net.cpp:406] scale4c_branch2a <- res4c_branch2a
I0107 09:35:53.020027 23133 net.cpp:367] scale4c_branch2a -> res4c_branch2a (in-place)
I0107 09:35:53.020063 23133 layer_factory.hpp:77] Creating layer scale4c_branch2a
I0107 09:35:53.020184 23133 net.cpp:122] Setting up scale4c_branch2a
I0107 09:35:53.020195 23133 net.cpp:129] Top shape: 1 256 4 4 (4096)
I0107 09:35:53.020198 23133 net.cpp:137] Memory required for data: 16089092
I0107 09:35:53.020205 23133 layer_factory.hpp:77] Creating layer res4c_branch2a_relu
I0107 09:35:53.020211 23133 net.cpp:84] Creating Layer res4c_branch2a_relu
I0107 09:35:53.020215 23133 net.cpp:406] res4c_branch2a_relu <- res4c_branch2a
I0107 09:35:53.020233 23133 net.cpp:367] res4c_branch2a_relu -> res4c_branch2a (in-place)
I0107 09:35:53.020241 23133 net.cpp:122] Setting up res4c_branch2a_relu
I0107 09:35:53.020247 23133 net.cpp:129] Top shape: 1 256 4 4 (4096)
I0107 09:35:53.020251 23133 net.cpp:137] Memory required for data: 16105476
I0107 09:35:53.020254 23133 layer_factory.hpp:77] Creating layer res4c_branch2b
I0107 09:35:53.020263 23133 net.cpp:84] Creating Layer res4c_branch2b
I0107 09:35:53.020267 23133 net.cpp:406] res4c_branch2b <- res4c_branch2a
I0107 09:35:53.020273 23133 net.cpp:380] res4c_branch2b -> res4c_branch2b
I0107 09:35:53.022172 23133 net.cpp:122] Setting up res4c_branch2b
I0107 09:35:53.022191 23133 net.cpp:129] Top shape: 1 256 4 4 (4096)
I0107 09:35:53.022194 23133 net.cpp:137] Memory required for data: 16121860
I0107 09:35:53.022202 23133 layer_factory.hpp:77] Creating layer bn4c_branch2b
I0107 09:35:53.022212 23133 net.cpp:84] Creating Layer bn4c_branch2b
I0107 09:35:53.022217 23133 net.cpp:406] bn4c_branch2b <- res4c_branch2b
I0107 09:35:53.022222 23133 net.cpp:367] bn4c_branch2b -> res4c_branch2b (in-place)
I0107 09:35:53.022433 23133 net.cpp:122] Setting up bn4c_branch2b
I0107 09:35:53.022444 23133 net.cpp:129] Top shape: 1 256 4 4 (4096)
I0107 09:35:53.022447 23133 net.cpp:137] Memory required for data: 16138244
I0107 09:35:53.022455 23133 layer_factory.hpp:77] Creating layer scale4c_branch2b
I0107 09:35:53.022461 23133 net.cpp:84] Creating Layer scale4c_branch2b
I0107 09:35:53.022464 23133 net.cpp:406] scale4c_branch2b <- res4c_branch2b
I0107 09:35:53.022471 23133 net.cpp:367] scale4c_branch2b -> res4c_branch2b (in-place)
I0107 09:35:53.022518 23133 layer_factory.hpp:77] Creating layer scale4c_branch2b
I0107 09:35:53.022626 23133 net.cpp:122] Setting up scale4c_branch2b
I0107 09:35:53.022637 23133 net.cpp:129] Top shape: 1 256 4 4 (4096)
I0107 09:35:53.022641 23133 net.cpp:137] Memory required for data: 16154628
I0107 09:35:53.022648 23133 layer_factory.hpp:77] Creating layer res4c_branch2b_relu
I0107 09:35:53.022655 23133 net.cpp:84] Creating Layer res4c_branch2b_relu
I0107 09:35:53.022657 23133 net.cpp:406] res4c_branch2b_relu <- res4c_branch2b
I0107 09:35:53.022662 23133 net.cpp:367] res4c_branch2b_relu -> res4c_branch2b (in-place)
I0107 09:35:53.022668 23133 net.cpp:122] Setting up res4c_branch2b_relu
I0107 09:35:53.022673 23133 net.cpp:129] Top shape: 1 256 4 4 (4096)
I0107 09:35:53.022677 23133 net.cpp:137] Memory required for data: 16171012
I0107 09:35:53.022680 23133 layer_factory.hpp:77] Creating layer res4c_branch2c
I0107 09:35:53.022689 23133 net.cpp:84] Creating Layer res4c_branch2c
I0107 09:35:53.022693 23133 net.cpp:406] res4c_branch2c <- res4c_branch2b
I0107 09:35:53.022701 23133 net.cpp:380] res4c_branch2c -> res4c_branch2c
I0107 09:35:53.024083 23133 net.cpp:122] Setting up res4c_branch2c
I0107 09:35:53.024111 23133 net.cpp:129] Top shape: 1 1024 4 4 (16384)
I0107 09:35:53.024114 23133 net.cpp:137] Memory required for data: 16236548
I0107 09:35:53.024121 23133 layer_factory.hpp:77] Creating layer bn4c_branch2c
I0107 09:35:53.024129 23133 net.cpp:84] Creating Layer bn4c_branch2c
I0107 09:35:53.024134 23133 net.cpp:406] bn4c_branch2c <- res4c_branch2c
I0107 09:35:53.024139 23133 net.cpp:367] bn4c_branch2c -> res4c_branch2c (in-place)
I0107 09:35:53.024340 23133 net.cpp:122] Setting up bn4c_branch2c
I0107 09:35:53.024350 23133 net.cpp:129] Top shape: 1 1024 4 4 (16384)
I0107 09:35:53.024354 23133 net.cpp:137] Memory required for data: 16302084
I0107 09:35:53.024363 23133 layer_factory.hpp:77] Creating layer scale4c_branch2c
I0107 09:35:53.024370 23133 net.cpp:84] Creating Layer scale4c_branch2c
I0107 09:35:53.024374 23133 net.cpp:406] scale4c_branch2c <- res4c_branch2c
I0107 09:35:53.024379 23133 net.cpp:367] scale4c_branch2c -> res4c_branch2c (in-place)
I0107 09:35:53.024425 23133 layer_factory.hpp:77] Creating layer scale4c_branch2c
I0107 09:35:53.024541 23133 net.cpp:122] Setting up scale4c_branch2c
I0107 09:35:53.024551 23133 net.cpp:129] Top shape: 1 1024 4 4 (16384)
I0107 09:35:53.024554 23133 net.cpp:137] Memory required for data: 16367620
I0107 09:35:53.024561 23133 layer_factory.hpp:77] Creating layer res4c
I0107 09:35:53.024567 23133 net.cpp:84] Creating Layer res4c
I0107 09:35:53.024572 23133 net.cpp:406] res4c <- res4b_res4b_relu_0_split_1
I0107 09:35:53.024576 23133 net.cpp:406] res4c <- res4c_branch2c
I0107 09:35:53.024585 23133 net.cpp:380] res4c -> res4c
I0107 09:35:53.024610 23133 net.cpp:122] Setting up res4c
I0107 09:35:53.024618 23133 net.cpp:129] Top shape: 1 1024 4 4 (16384)
I0107 09:35:53.024622 23133 net.cpp:137] Memory required for data: 16433156
I0107 09:35:53.024626 23133 layer_factory.hpp:77] Creating layer res4c_relu
I0107 09:35:53.024631 23133 net.cpp:84] Creating Layer res4c_relu
I0107 09:35:53.024636 23133 net.cpp:406] res4c_relu <- res4c
I0107 09:35:53.024641 23133 net.cpp:367] res4c_relu -> res4c (in-place)
I0107 09:35:53.024646 23133 net.cpp:122] Setting up res4c_relu
I0107 09:35:53.024650 23133 net.cpp:129] Top shape: 1 1024 4 4 (16384)
I0107 09:35:53.024654 23133 net.cpp:137] Memory required for data: 16498692
I0107 09:35:53.024657 23133 layer_factory.hpp:77] Creating layer res4c_res4c_relu_0_split
I0107 09:35:53.024665 23133 net.cpp:84] Creating Layer res4c_res4c_relu_0_split
I0107 09:35:53.024680 23133 net.cpp:406] res4c_res4c_relu_0_split <- res4c
I0107 09:35:53.024686 23133 net.cpp:380] res4c_res4c_relu_0_split -> res4c_res4c_relu_0_split_0
I0107 09:35:53.024693 23133 net.cpp:380] res4c_res4c_relu_0_split -> res4c_res4c_relu_0_split_1
I0107 09:35:53.024729 23133 net.cpp:122] Setting up res4c_res4c_relu_0_split
I0107 09:35:53.024739 23133 net.cpp:129] Top shape: 1 1024 4 4 (16384)
I0107 09:35:53.024744 23133 net.cpp:129] Top shape: 1 1024 4 4 (16384)
I0107 09:35:53.024747 23133 net.cpp:137] Memory required for data: 16629764
I0107 09:35:53.024750 23133 layer_factory.hpp:77] Creating layer res4d_branch2a
I0107 09:35:53.024758 23133 net.cpp:84] Creating Layer res4d_branch2a
I0107 09:35:53.024762 23133 net.cpp:406] res4d_branch2a <- res4c_res4c_relu_0_split_0
I0107 09:35:53.024768 23133 net.cpp:380] res4d_branch2a -> res4d_branch2a
I0107 09:35:53.025130 23133 net.cpp:122] Setting up res4d_branch2a
I0107 09:35:53.025141 23133 net.cpp:129] Top shape: 1 256 4 4 (4096)
I0107 09:35:53.025146 23133 net.cpp:137] Memory required for data: 16646148
I0107 09:35:53.025151 23133 layer_factory.hpp:77] Creating layer bn4d_branch2a
I0107 09:35:53.025159 23133 net.cpp:84] Creating Layer bn4d_branch2a
I0107 09:35:53.025163 23133 net.cpp:406] bn4d_branch2a <- res4d_branch2a
I0107 09:35:53.025169 23133 net.cpp:367] bn4d_branch2a -> res4d_branch2a (in-place)
I0107 09:35:53.025355 23133 net.cpp:122] Setting up bn4d_branch2a
I0107 09:35:53.025364 23133 net.cpp:129] Top shape: 1 256 4 4 (4096)
I0107 09:35:53.025368 23133 net.cpp:137] Memory required for data: 16662532
I0107 09:35:53.025375 23133 layer_factory.hpp:77] Creating layer scale4d_branch2a
I0107 09:35:53.025382 23133 net.cpp:84] Creating Layer scale4d_branch2a
I0107 09:35:53.025387 23133 net.cpp:406] scale4d_branch2a <- res4d_branch2a
I0107 09:35:53.025393 23133 net.cpp:367] scale4d_branch2a -> res4d_branch2a (in-place)
I0107 09:35:53.025429 23133 layer_factory.hpp:77] Creating layer scale4d_branch2a
I0107 09:35:53.025542 23133 net.cpp:122] Setting up scale4d_branch2a
I0107 09:35:53.025552 23133 net.cpp:129] Top shape: 1 256 4 4 (4096)
I0107 09:35:53.025555 23133 net.cpp:137] Memory required for data: 16678916
I0107 09:35:53.025562 23133 layer_factory.hpp:77] Creating layer res4d_branch2a_relu
I0107 09:35:53.025568 23133 net.cpp:84] Creating Layer res4d_branch2a_relu
I0107 09:35:53.025571 23133 net.cpp:406] res4d_branch2a_relu <- res4d_branch2a
I0107 09:35:53.025576 23133 net.cpp:367] res4d_branch2a_relu -> res4d_branch2a (in-place)
I0107 09:35:53.025583 23133 net.cpp:122] Setting up res4d_branch2a_relu
I0107 09:35:53.025588 23133 net.cpp:129] Top shape: 1 256 4 4 (4096)
I0107 09:35:53.025591 23133 net.cpp:137] Memory required for data: 16695300
I0107 09:35:53.025595 23133 layer_factory.hpp:77] Creating layer res4d_branch2b
I0107 09:35:53.025604 23133 net.cpp:84] Creating Layer res4d_branch2b
I0107 09:35:53.025607 23133 net.cpp:406] res4d_branch2b <- res4d_branch2a
I0107 09:35:53.025614 23133 net.cpp:380] res4d_branch2b -> res4d_branch2b
I0107 09:35:53.027369 23133 net.cpp:122] Setting up res4d_branch2b
I0107 09:35:53.027385 23133 net.cpp:129] Top shape: 1 256 4 4 (4096)
I0107 09:35:53.027390 23133 net.cpp:137] Memory required for data: 16711684
I0107 09:35:53.027396 23133 layer_factory.hpp:77] Creating layer bn4d_branch2b
I0107 09:35:53.027418 23133 net.cpp:84] Creating Layer bn4d_branch2b
I0107 09:35:53.027426 23133 net.cpp:406] bn4d_branch2b <- res4d_branch2b
I0107 09:35:53.027431 23133 net.cpp:367] bn4d_branch2b -> res4d_branch2b (in-place)
I0107 09:35:53.027652 23133 net.cpp:122] Setting up bn4d_branch2b
I0107 09:35:53.027664 23133 net.cpp:129] Top shape: 1 256 4 4 (4096)
I0107 09:35:53.027667 23133 net.cpp:137] Memory required for data: 16728068
I0107 09:35:53.027676 23133 layer_factory.hpp:77] Creating layer scale4d_branch2b
I0107 09:35:53.027685 23133 net.cpp:84] Creating Layer scale4d_branch2b
I0107 09:35:53.027689 23133 net.cpp:406] scale4d_branch2b <- res4d_branch2b
I0107 09:35:53.027694 23133 net.cpp:367] scale4d_branch2b -> res4d_branch2b (in-place)
I0107 09:35:53.027745 23133 layer_factory.hpp:77] Creating layer scale4d_branch2b
I0107 09:35:53.027856 23133 net.cpp:122] Setting up scale4d_branch2b
I0107 09:35:53.027866 23133 net.cpp:129] Top shape: 1 256 4 4 (4096)
I0107 09:35:53.027869 23133 net.cpp:137] Memory required for data: 16744452
I0107 09:35:53.027876 23133 layer_factory.hpp:77] Creating layer res4d_branch2b_relu
I0107 09:35:53.027884 23133 net.cpp:84] Creating Layer res4d_branch2b_relu
I0107 09:35:53.027889 23133 net.cpp:406] res4d_branch2b_relu <- res4d_branch2b
I0107 09:35:53.027894 23133 net.cpp:367] res4d_branch2b_relu -> res4d_branch2b (in-place)
I0107 09:35:53.027899 23133 net.cpp:122] Setting up res4d_branch2b_relu
I0107 09:35:53.027904 23133 net.cpp:129] Top shape: 1 256 4 4 (4096)
I0107 09:35:53.027907 23133 net.cpp:137] Memory required for data: 16760836
I0107 09:35:53.027911 23133 layer_factory.hpp:77] Creating layer res4d_branch2c
I0107 09:35:53.027920 23133 net.cpp:84] Creating Layer res4d_branch2c
I0107 09:35:53.027925 23133 net.cpp:406] res4d_branch2c <- res4d_branch2b
I0107 09:35:53.027930 23133 net.cpp:380] res4d_branch2c -> res4d_branch2c
I0107 09:35:53.029356 23133 net.cpp:122] Setting up res4d_branch2c
I0107 09:35:53.029371 23133 net.cpp:129] Top shape: 1 1024 4 4 (16384)
I0107 09:35:53.029387 23133 net.cpp:137] Memory required for data: 16826372
I0107 09:35:53.029394 23133 layer_factory.hpp:77] Creating layer bn4d_branch2c
I0107 09:35:53.029402 23133 net.cpp:84] Creating Layer bn4d_branch2c
I0107 09:35:53.029407 23133 net.cpp:406] bn4d_branch2c <- res4d_branch2c
I0107 09:35:53.029412 23133 net.cpp:367] bn4d_branch2c -> res4d_branch2c (in-place)
I0107 09:35:53.029623 23133 net.cpp:122] Setting up bn4d_branch2c
I0107 09:35:53.029634 23133 net.cpp:129] Top shape: 1 1024 4 4 (16384)
I0107 09:35:53.029639 23133 net.cpp:137] Memory required for data: 16891908
I0107 09:35:53.029647 23133 layer_factory.hpp:77] Creating layer scale4d_branch2c
I0107 09:35:53.029654 23133 net.cpp:84] Creating Layer scale4d_branch2c
I0107 09:35:53.029657 23133 net.cpp:406] scale4d_branch2c <- res4d_branch2c
I0107 09:35:53.029664 23133 net.cpp:367] scale4d_branch2c -> res4d_branch2c (in-place)
I0107 09:35:53.029701 23133 layer_factory.hpp:77] Creating layer scale4d_branch2c
I0107 09:35:53.029821 23133 net.cpp:122] Setting up scale4d_branch2c
I0107 09:35:53.029831 23133 net.cpp:129] Top shape: 1 1024 4 4 (16384)
I0107 09:35:53.029835 23133 net.cpp:137] Memory required for data: 16957444
I0107 09:35:53.029842 23133 layer_factory.hpp:77] Creating layer res4d
I0107 09:35:53.029851 23133 net.cpp:84] Creating Layer res4d
I0107 09:35:53.029855 23133 net.cpp:406] res4d <- res4c_res4c_relu_0_split_1
I0107 09:35:53.029861 23133 net.cpp:406] res4d <- res4d_branch2c
I0107 09:35:53.029868 23133 net.cpp:380] res4d -> res4d
I0107 09:35:53.029892 23133 net.cpp:122] Setting up res4d
I0107 09:35:53.029901 23133 net.cpp:129] Top shape: 1 1024 4 4 (16384)
I0107 09:35:53.029904 23133 net.cpp:137] Memory required for data: 17022980
I0107 09:35:53.029908 23133 layer_factory.hpp:77] Creating layer res4d_relu
I0107 09:35:53.029920 23133 net.cpp:84] Creating Layer res4d_relu
I0107 09:35:53.029924 23133 net.cpp:406] res4d_relu <- res4d
I0107 09:35:53.029930 23133 net.cpp:367] res4d_relu -> res4d (in-place)
I0107 09:35:53.029937 23133 net.cpp:122] Setting up res4d_relu
I0107 09:35:53.029942 23133 net.cpp:129] Top shape: 1 1024 4 4 (16384)
I0107 09:35:53.029945 23133 net.cpp:137] Memory required for data: 17088516
I0107 09:35:53.029949 23133 layer_factory.hpp:77] Creating layer res4d_res4d_relu_0_split
I0107 09:35:53.029954 23133 net.cpp:84] Creating Layer res4d_res4d_relu_0_split
I0107 09:35:53.029958 23133 net.cpp:406] res4d_res4d_relu_0_split <- res4d
I0107 09:35:53.029963 23133 net.cpp:380] res4d_res4d_relu_0_split -> res4d_res4d_relu_0_split_0
I0107 09:35:53.029970 23133 net.cpp:380] res4d_res4d_relu_0_split -> res4d_res4d_relu_0_split_1
I0107 09:35:53.030009 23133 net.cpp:122] Setting up res4d_res4d_relu_0_split
I0107 09:35:53.030017 23133 net.cpp:129] Top shape: 1 1024 4 4 (16384)
I0107 09:35:53.030023 23133 net.cpp:129] Top shape: 1 1024 4 4 (16384)
I0107 09:35:53.030026 23133 net.cpp:137] Memory required for data: 17219588
I0107 09:35:53.030030 23133 layer_factory.hpp:77] Creating layer res4e_branch2a
I0107 09:35:53.030040 23133 net.cpp:84] Creating Layer res4e_branch2a
I0107 09:35:53.030045 23133 net.cpp:406] res4e_branch2a <- res4d_res4d_relu_0_split_0
I0107 09:35:53.030050 23133 net.cpp:380] res4e_branch2a -> res4e_branch2a
I0107 09:35:53.030411 23133 net.cpp:122] Setting up res4e_branch2a
I0107 09:35:53.030422 23133 net.cpp:129] Top shape: 1 256 4 4 (4096)
I0107 09:35:53.030426 23133 net.cpp:137] Memory required for data: 17235972
I0107 09:35:53.030431 23133 layer_factory.hpp:77] Creating layer bn4e_branch2a
I0107 09:35:53.030438 23133 net.cpp:84] Creating Layer bn4e_branch2a
I0107 09:35:53.030442 23133 net.cpp:406] bn4e_branch2a <- res4e_branch2a
I0107 09:35:53.030447 23133 net.cpp:367] bn4e_branch2a -> res4e_branch2a (in-place)
I0107 09:35:53.030637 23133 net.cpp:122] Setting up bn4e_branch2a
I0107 09:35:53.030647 23133 net.cpp:129] Top shape: 1 256 4 4 (4096)
I0107 09:35:53.030652 23133 net.cpp:137] Memory required for data: 17252356
I0107 09:35:53.030659 23133 layer_factory.hpp:77] Creating layer scale4e_branch2a
I0107 09:35:53.030666 23133 net.cpp:84] Creating Layer scale4e_branch2a
I0107 09:35:53.030670 23133 net.cpp:406] scale4e_branch2a <- res4e_branch2a
I0107 09:35:53.030675 23133 net.cpp:367] scale4e_branch2a -> res4e_branch2a (in-place)
I0107 09:35:53.030714 23133 layer_factory.hpp:77] Creating layer scale4e_branch2a
I0107 09:35:53.030827 23133 net.cpp:122] Setting up scale4e_branch2a
I0107 09:35:53.030838 23133 net.cpp:129] Top shape: 1 256 4 4 (4096)
I0107 09:35:53.030841 23133 net.cpp:137] Memory required for data: 17268740
I0107 09:35:53.030848 23133 layer_factory.hpp:77] Creating layer res4e_branch2a_relu
I0107 09:35:53.030856 23133 net.cpp:84] Creating Layer res4e_branch2a_relu
I0107 09:35:53.030859 23133 net.cpp:406] res4e_branch2a_relu <- res4e_branch2a
I0107 09:35:53.030865 23133 net.cpp:367] res4e_branch2a_relu -> res4e_branch2a (in-place)
I0107 09:35:53.030870 23133 net.cpp:122] Setting up res4e_branch2a_relu
I0107 09:35:53.030876 23133 net.cpp:129] Top shape: 1 256 4 4 (4096)
I0107 09:35:53.030879 23133 net.cpp:137] Memory required for data: 17285124
I0107 09:35:53.030884 23133 layer_factory.hpp:77] Creating layer res4e_branch2b
I0107 09:35:53.030892 23133 net.cpp:84] Creating Layer res4e_branch2b
I0107 09:35:53.030896 23133 net.cpp:406] res4e_branch2b <- res4e_branch2a
I0107 09:35:53.030902 23133 net.cpp:380] res4e_branch2b -> res4e_branch2b
I0107 09:35:53.032693 23133 net.cpp:122] Setting up res4e_branch2b
I0107 09:35:53.032712 23133 net.cpp:129] Top shape: 1 256 4 4 (4096)
I0107 09:35:53.032716 23133 net.cpp:137] Memory required for data: 17301508
I0107 09:35:53.032723 23133 layer_factory.hpp:77] Creating layer bn4e_branch2b
I0107 09:35:53.032730 23133 net.cpp:84] Creating Layer bn4e_branch2b
I0107 09:35:53.032735 23133 net.cpp:406] bn4e_branch2b <- res4e_branch2b
I0107 09:35:53.032742 23133 net.cpp:367] bn4e_branch2b -> res4e_branch2b (in-place)
I0107 09:35:53.032934 23133 net.cpp:122] Setting up bn4e_branch2b
I0107 09:35:53.032948 23133 net.cpp:129] Top shape: 1 256 4 4 (4096)
I0107 09:35:53.032951 23133 net.cpp:137] Memory required for data: 17317892
I0107 09:35:53.032960 23133 layer_factory.hpp:77] Creating layer scale4e_branch2b
I0107 09:35:53.032968 23133 net.cpp:84] Creating Layer scale4e_branch2b
I0107 09:35:53.032971 23133 net.cpp:406] scale4e_branch2b <- res4e_branch2b
I0107 09:35:53.032976 23133 net.cpp:367] scale4e_branch2b -> res4e_branch2b (in-place)
I0107 09:35:53.033016 23133 layer_factory.hpp:77] Creating layer scale4e_branch2b
I0107 09:35:53.033129 23133 net.cpp:122] Setting up scale4e_branch2b
I0107 09:35:53.033139 23133 net.cpp:129] Top shape: 1 256 4 4 (4096)
I0107 09:35:53.033143 23133 net.cpp:137] Memory required for data: 17334276
I0107 09:35:53.033150 23133 layer_factory.hpp:77] Creating layer res4e_branch2b_relu
I0107 09:35:53.033159 23133 net.cpp:84] Creating Layer res4e_branch2b_relu
I0107 09:35:53.033162 23133 net.cpp:406] res4e_branch2b_relu <- res4e_branch2b
I0107 09:35:53.033167 23133 net.cpp:367] res4e_branch2b_relu -> res4e_branch2b (in-place)
I0107 09:35:53.033174 23133 net.cpp:122] Setting up res4e_branch2b_relu
I0107 09:35:53.033179 23133 net.cpp:129] Top shape: 1 256 4 4 (4096)
I0107 09:35:53.033182 23133 net.cpp:137] Memory required for data: 17350660
I0107 09:35:53.033186 23133 layer_factory.hpp:77] Creating layer res4e_branch2c
I0107 09:35:53.033195 23133 net.cpp:84] Creating Layer res4e_branch2c
I0107 09:35:53.033200 23133 net.cpp:406] res4e_branch2c <- res4e_branch2b
I0107 09:35:53.033205 23133 net.cpp:380] res4e_branch2c -> res4e_branch2c
I0107 09:35:53.034639 23133 net.cpp:122] Setting up res4e_branch2c
I0107 09:35:53.034668 23133 net.cpp:129] Top shape: 1 1024 4 4 (16384)
I0107 09:35:53.034672 23133 net.cpp:137] Memory required for data: 17416196
I0107 09:35:53.034679 23133 layer_factory.hpp:77] Creating layer bn4e_branch2c
I0107 09:35:53.034687 23133 net.cpp:84] Creating Layer bn4e_branch2c
I0107 09:35:53.034692 23133 net.cpp:406] bn4e_branch2c <- res4e_branch2c
I0107 09:35:53.034698 23133 net.cpp:367] bn4e_branch2c -> res4e_branch2c (in-place)
I0107 09:35:53.034901 23133 net.cpp:122] Setting up bn4e_branch2c
I0107 09:35:53.034912 23133 net.cpp:129] Top shape: 1 1024 4 4 (16384)
I0107 09:35:53.034916 23133 net.cpp:137] Memory required for data: 17481732
I0107 09:35:53.034924 23133 layer_factory.hpp:77] Creating layer scale4e_branch2c
I0107 09:35:53.034931 23133 net.cpp:84] Creating Layer scale4e_branch2c
I0107 09:35:53.034935 23133 net.cpp:406] scale4e_branch2c <- res4e_branch2c
I0107 09:35:53.034940 23133 net.cpp:367] scale4e_branch2c -> res4e_branch2c (in-place)
I0107 09:35:53.034981 23133 layer_factory.hpp:77] Creating layer scale4e_branch2c
I0107 09:35:53.035109 23133 net.cpp:122] Setting up scale4e_branch2c
I0107 09:35:53.035118 23133 net.cpp:129] Top shape: 1 1024 4 4 (16384)
I0107 09:35:53.035122 23133 net.cpp:137] Memory required for data: 17547268
I0107 09:35:53.035130 23133 layer_factory.hpp:77] Creating layer res4e
I0107 09:35:53.035135 23133 net.cpp:84] Creating Layer res4e
I0107 09:35:53.035140 23133 net.cpp:406] res4e <- res4d_res4d_relu_0_split_1
I0107 09:35:53.035145 23133 net.cpp:406] res4e <- res4e_branch2c
I0107 09:35:53.035152 23133 net.cpp:380] res4e -> res4e
I0107 09:35:53.035176 23133 net.cpp:122] Setting up res4e
I0107 09:35:53.035184 23133 net.cpp:129] Top shape: 1 1024 4 4 (16384)
I0107 09:35:53.035188 23133 net.cpp:137] Memory required for data: 17612804
I0107 09:35:53.035192 23133 layer_factory.hpp:77] Creating layer res4e_relu
I0107 09:35:53.035199 23133 net.cpp:84] Creating Layer res4e_relu
I0107 09:35:53.035203 23133 net.cpp:406] res4e_relu <- res4e
I0107 09:35:53.035208 23133 net.cpp:367] res4e_relu -> res4e (in-place)
I0107 09:35:53.035214 23133 net.cpp:122] Setting up res4e_relu
I0107 09:35:53.035219 23133 net.cpp:129] Top shape: 1 1024 4 4 (16384)
I0107 09:35:53.035223 23133 net.cpp:137] Memory required for data: 17678340
I0107 09:35:53.035226 23133 layer_factory.hpp:77] Creating layer res4e_res4e_relu_0_split
I0107 09:35:53.035233 23133 net.cpp:84] Creating Layer res4e_res4e_relu_0_split
I0107 09:35:53.035238 23133 net.cpp:406] res4e_res4e_relu_0_split <- res4e
I0107 09:35:53.035243 23133 net.cpp:380] res4e_res4e_relu_0_split -> res4e_res4e_relu_0_split_0
I0107 09:35:53.035249 23133 net.cpp:380] res4e_res4e_relu_0_split -> res4e_res4e_relu_0_split_1
I0107 09:35:53.035285 23133 net.cpp:122] Setting up res4e_res4e_relu_0_split
I0107 09:35:53.035295 23133 net.cpp:129] Top shape: 1 1024 4 4 (16384)
I0107 09:35:53.035300 23133 net.cpp:129] Top shape: 1 1024 4 4 (16384)
I0107 09:35:53.035302 23133 net.cpp:137] Memory required for data: 17809412
I0107 09:35:53.035306 23133 layer_factory.hpp:77] Creating layer res4f_branch2a
I0107 09:35:53.035315 23133 net.cpp:84] Creating Layer res4f_branch2a
I0107 09:35:53.035320 23133 net.cpp:406] res4f_branch2a <- res4e_res4e_relu_0_split_0
I0107 09:35:53.035326 23133 net.cpp:380] res4f_branch2a -> res4f_branch2a
I0107 09:35:53.035714 23133 net.cpp:122] Setting up res4f_branch2a
I0107 09:35:53.035738 23133 net.cpp:129] Top shape: 1 256 4 4 (4096)
I0107 09:35:53.035742 23133 net.cpp:137] Memory required for data: 17825796
I0107 09:35:53.035748 23133 layer_factory.hpp:77] Creating layer bn4f_branch2a
I0107 09:35:53.035755 23133 net.cpp:84] Creating Layer bn4f_branch2a
I0107 09:35:53.035770 23133 net.cpp:406] bn4f_branch2a <- res4f_branch2a
I0107 09:35:53.035775 23133 net.cpp:367] bn4f_branch2a -> res4f_branch2a (in-place)
I0107 09:35:53.035960 23133 net.cpp:122] Setting up bn4f_branch2a
I0107 09:35:53.035972 23133 net.cpp:129] Top shape: 1 256 4 4 (4096)
I0107 09:35:53.035975 23133 net.cpp:137] Memory required for data: 17842180
I0107 09:35:53.035984 23133 layer_factory.hpp:77] Creating layer scale4f_branch2a
I0107 09:35:53.035989 23133 net.cpp:84] Creating Layer scale4f_branch2a
I0107 09:35:53.035993 23133 net.cpp:406] scale4f_branch2a <- res4f_branch2a
I0107 09:35:53.035998 23133 net.cpp:367] scale4f_branch2a -> res4f_branch2a (in-place)
I0107 09:35:53.036036 23133 layer_factory.hpp:77] Creating layer scale4f_branch2a
I0107 09:35:53.036144 23133 net.cpp:122] Setting up scale4f_branch2a
I0107 09:35:53.036154 23133 net.cpp:129] Top shape: 1 256 4 4 (4096)
I0107 09:35:53.036159 23133 net.cpp:137] Memory required for data: 17858564
I0107 09:35:53.036164 23133 layer_factory.hpp:77] Creating layer res4f_branch2a_relu
I0107 09:35:53.036172 23133 net.cpp:84] Creating Layer res4f_branch2a_relu
I0107 09:35:53.036176 23133 net.cpp:406] res4f_branch2a_relu <- res4f_branch2a
I0107 09:35:53.036181 23133 net.cpp:367] res4f_branch2a_relu -> res4f_branch2a (in-place)
I0107 09:35:53.036186 23133 net.cpp:122] Setting up res4f_branch2a_relu
I0107 09:35:53.036195 23133 net.cpp:129] Top shape: 1 256 4 4 (4096)
I0107 09:35:53.036197 23133 net.cpp:137] Memory required for data: 17874948
I0107 09:35:53.036201 23133 layer_factory.hpp:77] Creating layer res4f_branch2b
I0107 09:35:53.036208 23133 net.cpp:84] Creating Layer res4f_branch2b
I0107 09:35:53.036211 23133 net.cpp:406] res4f_branch2b <- res4f_branch2a
I0107 09:35:53.036216 23133 net.cpp:380] res4f_branch2b -> res4f_branch2b
I0107 09:35:53.037942 23133 net.cpp:122] Setting up res4f_branch2b
I0107 09:35:53.037969 23133 net.cpp:129] Top shape: 1 256 4 4 (4096)
I0107 09:35:53.037973 23133 net.cpp:137] Memory required for data: 17891332
I0107 09:35:53.037981 23133 layer_factory.hpp:77] Creating layer bn4f_branch2b
I0107 09:35:53.037988 23133 net.cpp:84] Creating Layer bn4f_branch2b
I0107 09:35:53.037992 23133 net.cpp:406] bn4f_branch2b <- res4f_branch2b
I0107 09:35:53.037998 23133 net.cpp:367] bn4f_branch2b -> res4f_branch2b (in-place)
I0107 09:35:53.038203 23133 net.cpp:122] Setting up bn4f_branch2b
I0107 09:35:53.038215 23133 net.cpp:129] Top shape: 1 256 4 4 (4096)
I0107 09:35:53.038219 23133 net.cpp:137] Memory required for data: 17907716
I0107 09:35:53.038228 23133 layer_factory.hpp:77] Creating layer scale4f_branch2b
I0107 09:35:53.038233 23133 net.cpp:84] Creating Layer scale4f_branch2b
I0107 09:35:53.038239 23133 net.cpp:406] scale4f_branch2b <- res4f_branch2b
I0107 09:35:53.038244 23133 net.cpp:367] scale4f_branch2b -> res4f_branch2b (in-place)
I0107 09:35:53.038283 23133 layer_factory.hpp:77] Creating layer scale4f_branch2b
I0107 09:35:53.038398 23133 net.cpp:122] Setting up scale4f_branch2b
I0107 09:35:53.038408 23133 net.cpp:129] Top shape: 1 256 4 4 (4096)
I0107 09:35:53.038410 23133 net.cpp:137] Memory required for data: 17924100
I0107 09:35:53.038417 23133 layer_factory.hpp:77] Creating layer res4f_branch2b_relu
I0107 09:35:53.038425 23133 net.cpp:84] Creating Layer res4f_branch2b_relu
I0107 09:35:53.038429 23133 net.cpp:406] res4f_branch2b_relu <- res4f_branch2b
I0107 09:35:53.038434 23133 net.cpp:367] res4f_branch2b_relu -> res4f_branch2b (in-place)
I0107 09:35:53.038442 23133 net.cpp:122] Setting up res4f_branch2b_relu
I0107 09:35:53.038449 23133 net.cpp:129] Top shape: 1 256 4 4 (4096)
I0107 09:35:53.038451 23133 net.cpp:137] Memory required for data: 17940484
I0107 09:35:53.038455 23133 layer_factory.hpp:77] Creating layer res4f_branch2c
I0107 09:35:53.038463 23133 net.cpp:84] Creating Layer res4f_branch2c
I0107 09:35:53.038467 23133 net.cpp:406] res4f_branch2c <- res4f_branch2b
I0107 09:35:53.038475 23133 net.cpp:380] res4f_branch2c -> res4f_branch2c
I0107 09:35:53.039901 23133 net.cpp:122] Setting up res4f_branch2c
I0107 09:35:53.039929 23133 net.cpp:129] Top shape: 1 1024 4 4 (16384)
I0107 09:35:53.039933 23133 net.cpp:137] Memory required for data: 18006020
I0107 09:35:53.039940 23133 layer_factory.hpp:77] Creating layer bn4f_branch2c
I0107 09:35:53.039947 23133 net.cpp:84] Creating Layer bn4f_branch2c
I0107 09:35:53.039952 23133 net.cpp:406] bn4f_branch2c <- res4f_branch2c
I0107 09:35:53.039960 23133 net.cpp:367] bn4f_branch2c -> res4f_branch2c (in-place)
I0107 09:35:53.040158 23133 net.cpp:122] Setting up bn4f_branch2c
I0107 09:35:53.040169 23133 net.cpp:129] Top shape: 1 1024 4 4 (16384)
I0107 09:35:53.040172 23133 net.cpp:137] Memory required for data: 18071556
I0107 09:35:53.040207 23133 layer_factory.hpp:77] Creating layer scale4f_branch2c
I0107 09:35:53.040216 23133 net.cpp:84] Creating Layer scale4f_branch2c
I0107 09:35:53.040220 23133 net.cpp:406] scale4f_branch2c <- res4f_branch2c
I0107 09:35:53.040225 23133 net.cpp:367] scale4f_branch2c -> res4f_branch2c (in-place)
I0107 09:35:53.040267 23133 layer_factory.hpp:77] Creating layer scale4f_branch2c
I0107 09:35:53.040383 23133 net.cpp:122] Setting up scale4f_branch2c
I0107 09:35:53.040393 23133 net.cpp:129] Top shape: 1 1024 4 4 (16384)
I0107 09:35:53.040397 23133 net.cpp:137] Memory required for data: 18137092
I0107 09:35:53.040405 23133 layer_factory.hpp:77] Creating layer res4f
I0107 09:35:53.040412 23133 net.cpp:84] Creating Layer res4f
I0107 09:35:53.040416 23133 net.cpp:406] res4f <- res4e_res4e_relu_0_split_1
I0107 09:35:53.040421 23133 net.cpp:406] res4f <- res4f_branch2c
I0107 09:35:53.040426 23133 net.cpp:380] res4f -> res4f
I0107 09:35:53.040452 23133 net.cpp:122] Setting up res4f
I0107 09:35:53.040459 23133 net.cpp:129] Top shape: 1 1024 4 4 (16384)
I0107 09:35:53.040463 23133 net.cpp:137] Memory required for data: 18202628
I0107 09:35:53.040467 23133 layer_factory.hpp:77] Creating layer res4f_relu
I0107 09:35:53.040472 23133 net.cpp:84] Creating Layer res4f_relu
I0107 09:35:53.040475 23133 net.cpp:406] res4f_relu <- res4f
I0107 09:35:53.040483 23133 net.cpp:367] res4f_relu -> res4f (in-place)
I0107 09:35:53.040489 23133 net.cpp:122] Setting up res4f_relu
I0107 09:35:53.040494 23133 net.cpp:129] Top shape: 1 1024 4 4 (16384)
I0107 09:35:53.040498 23133 net.cpp:137] Memory required for data: 18268164
I0107 09:35:53.040501 23133 layer_factory.hpp:77] Creating layer drop4
I0107 09:35:53.040508 23133 net.cpp:84] Creating Layer drop4
I0107 09:35:53.040510 23133 net.cpp:406] drop4 <- res4f
I0107 09:35:53.040515 23133 net.cpp:367] drop4 -> res4f (in-place)
I0107 09:35:53.040539 23133 net.cpp:122] Setting up drop4
I0107 09:35:53.040545 23133 net.cpp:129] Top shape: 1 1024 4 4 (16384)
I0107 09:35:53.040549 23133 net.cpp:137] Memory required for data: 18333700
I0107 09:35:53.040552 23133 layer_factory.hpp:77] Creating layer res4f_drop4_0_split
I0107 09:35:53.040557 23133 net.cpp:84] Creating Layer res4f_drop4_0_split
I0107 09:35:53.040561 23133 net.cpp:406] res4f_drop4_0_split <- res4f
I0107 09:35:53.040568 23133 net.cpp:380] res4f_drop4_0_split -> res4f_drop4_0_split_0
I0107 09:35:53.040575 23133 net.cpp:380] res4f_drop4_0_split -> res4f_drop4_0_split_1
I0107 09:35:53.040609 23133 net.cpp:122] Setting up res4f_drop4_0_split
I0107 09:35:53.040616 23133 net.cpp:129] Top shape: 1 1024 4 4 (16384)
I0107 09:35:53.040621 23133 net.cpp:129] Top shape: 1 1024 4 4 (16384)
I0107 09:35:53.040624 23133 net.cpp:137] Memory required for data: 18464772
I0107 09:35:53.040628 23133 layer_factory.hpp:77] Creating layer res5a_branch1
I0107 09:35:53.040637 23133 net.cpp:84] Creating Layer res5a_branch1
I0107 09:35:53.040642 23133 net.cpp:406] res5a_branch1 <- res4f_drop4_0_split_0
I0107 09:35:53.040647 23133 net.cpp:380] res5a_branch1 -> res5a_branch1
I0107 09:35:53.045629 23133 net.cpp:122] Setting up res5a_branch1
I0107 09:35:53.045644 23133 net.cpp:129] Top shape: 1 2048 2 2 (8192)
I0107 09:35:53.045646 23133 net.cpp:137] Memory required for data: 18497540
I0107 09:35:53.045653 23133 layer_factory.hpp:77] Creating layer bn5a_branch1
I0107 09:35:53.045662 23133 net.cpp:84] Creating Layer bn5a_branch1
I0107 09:35:53.045666 23133 net.cpp:406] bn5a_branch1 <- res5a_branch1
I0107 09:35:53.045671 23133 net.cpp:367] bn5a_branch1 -> res5a_branch1 (in-place)
I0107 09:35:53.045857 23133 net.cpp:122] Setting up bn5a_branch1
I0107 09:35:53.045866 23133 net.cpp:129] Top shape: 1 2048 2 2 (8192)
I0107 09:35:53.045869 23133 net.cpp:137] Memory required for data: 18530308
I0107 09:35:53.045876 23133 layer_factory.hpp:77] Creating layer scale5a_branch1
I0107 09:35:53.045882 23133 net.cpp:84] Creating Layer scale5a_branch1
I0107 09:35:53.045886 23133 net.cpp:406] scale5a_branch1 <- res5a_branch1
I0107 09:35:53.045892 23133 net.cpp:367] scale5a_branch1 -> res5a_branch1 (in-place)
I0107 09:35:53.045928 23133 layer_factory.hpp:77] Creating layer scale5a_branch1
I0107 09:35:53.046034 23133 net.cpp:122] Setting up scale5a_branch1
I0107 09:35:53.046043 23133 net.cpp:129] Top shape: 1 2048 2 2 (8192)
I0107 09:35:53.046046 23133 net.cpp:137] Memory required for data: 18563076
I0107 09:35:53.046053 23133 layer_factory.hpp:77] Creating layer res5a_branch2a
I0107 09:35:53.046061 23133 net.cpp:84] Creating Layer res5a_branch2a
I0107 09:35:53.046064 23133 net.cpp:406] res5a_branch2a <- res4f_drop4_0_split_1
I0107 09:35:53.046072 23133 net.cpp:380] res5a_branch2a -> res5a_branch2a
I0107 09:35:53.047606 23133 net.cpp:122] Setting up res5a_branch2a
I0107 09:35:53.047621 23133 net.cpp:129] Top shape: 1 512 2 2 (2048)
I0107 09:35:53.047624 23133 net.cpp:137] Memory required for data: 18571268
I0107 09:35:53.047631 23133 layer_factory.hpp:77] Creating layer bn5a_branch2a
I0107 09:35:53.047637 23133 net.cpp:84] Creating Layer bn5a_branch2a
I0107 09:35:53.047642 23133 net.cpp:406] bn5a_branch2a <- res5a_branch2a
I0107 09:35:53.047647 23133 net.cpp:367] bn5a_branch2a -> res5a_branch2a (in-place)
I0107 09:35:53.047842 23133 net.cpp:122] Setting up bn5a_branch2a
I0107 09:35:53.047850 23133 net.cpp:129] Top shape: 1 512 2 2 (2048)
I0107 09:35:53.047853 23133 net.cpp:137] Memory required for data: 18579460
I0107 09:35:53.047861 23133 layer_factory.hpp:77] Creating layer scale5a_branch2a
I0107 09:35:53.047868 23133 net.cpp:84] Creating Layer scale5a_branch2a
I0107 09:35:53.047870 23133 net.cpp:406] scale5a_branch2a <- res5a_branch2a
I0107 09:35:53.047875 23133 net.cpp:367] scale5a_branch2a -> res5a_branch2a (in-place)
I0107 09:35:53.047912 23133 layer_factory.hpp:77] Creating layer scale5a_branch2a
I0107 09:35:53.048020 23133 net.cpp:122] Setting up scale5a_branch2a
I0107 09:35:53.048027 23133 net.cpp:129] Top shape: 1 512 2 2 (2048)
I0107 09:35:53.048032 23133 net.cpp:137] Memory required for data: 18587652
I0107 09:35:53.048038 23133 layer_factory.hpp:77] Creating layer res5a_branch2a_relu
I0107 09:35:53.048043 23133 net.cpp:84] Creating Layer res5a_branch2a_relu
I0107 09:35:53.048046 23133 net.cpp:406] res5a_branch2a_relu <- res5a_branch2a
I0107 09:35:53.048053 23133 net.cpp:367] res5a_branch2a_relu -> res5a_branch2a (in-place)
I0107 09:35:53.048058 23133 net.cpp:122] Setting up res5a_branch2a_relu
I0107 09:35:53.048063 23133 net.cpp:129] Top shape: 1 512 2 2 (2048)
I0107 09:35:53.048066 23133 net.cpp:137] Memory required for data: 18595844
I0107 09:35:53.048069 23133 layer_factory.hpp:77] Creating layer res5a_branch2b
I0107 09:35:53.048076 23133 net.cpp:84] Creating Layer res5a_branch2b
I0107 09:35:53.048079 23133 net.cpp:406] res5a_branch2b <- res5a_branch2a
I0107 09:35:53.048086 23133 net.cpp:380] res5a_branch2b -> res5a_branch2b
I0107 09:35:53.053606 23133 net.cpp:122] Setting up res5a_branch2b
I0107 09:35:53.053619 23133 net.cpp:129] Top shape: 1 512 2 2 (2048)
I0107 09:35:53.053622 23133 net.cpp:137] Memory required for data: 18604036
I0107 09:35:53.053629 23133 layer_factory.hpp:77] Creating layer bn5a_branch2b
I0107 09:35:53.053638 23133 net.cpp:84] Creating Layer bn5a_branch2b
I0107 09:35:53.053642 23133 net.cpp:406] bn5a_branch2b <- res5a_branch2b
I0107 09:35:53.053647 23133 net.cpp:367] bn5a_branch2b -> res5a_branch2b (in-place)
I0107 09:35:53.053833 23133 net.cpp:122] Setting up bn5a_branch2b
I0107 09:35:53.053841 23133 net.cpp:129] Top shape: 1 512 2 2 (2048)
I0107 09:35:53.053844 23133 net.cpp:137] Memory required for data: 18612228
I0107 09:35:53.053853 23133 layer_factory.hpp:77] Creating layer scale5a_branch2b
I0107 09:35:53.053858 23133 net.cpp:84] Creating Layer scale5a_branch2b
I0107 09:35:53.053861 23133 net.cpp:406] scale5a_branch2b <- res5a_branch2b
I0107 09:35:53.053869 23133 net.cpp:367] scale5a_branch2b -> res5a_branch2b (in-place)
I0107 09:35:53.053902 23133 layer_factory.hpp:77] Creating layer scale5a_branch2b
I0107 09:35:53.054006 23133 net.cpp:122] Setting up scale5a_branch2b
I0107 09:35:53.054015 23133 net.cpp:129] Top shape: 1 512 2 2 (2048)
I0107 09:35:53.054018 23133 net.cpp:137] Memory required for data: 18620420
I0107 09:35:53.054025 23133 layer_factory.hpp:77] Creating layer res5a_branch2b_relu
I0107 09:35:53.054030 23133 net.cpp:84] Creating Layer res5a_branch2b_relu
I0107 09:35:53.054034 23133 net.cpp:406] res5a_branch2b_relu <- res5a_branch2b
I0107 09:35:53.054039 23133 net.cpp:367] res5a_branch2b_relu -> res5a_branch2b (in-place)
I0107 09:35:53.054044 23133 net.cpp:122] Setting up res5a_branch2b_relu
I0107 09:35:53.054049 23133 net.cpp:129] Top shape: 1 512 2 2 (2048)
I0107 09:35:53.054052 23133 net.cpp:137] Memory required for data: 18628612
I0107 09:35:53.054055 23133 layer_factory.hpp:77] Creating layer res5a_branch2c
I0107 09:35:53.054064 23133 net.cpp:84] Creating Layer res5a_branch2c
I0107 09:35:53.054067 23133 net.cpp:406] res5a_branch2c <- res5a_branch2b
I0107 09:35:53.054075 23133 net.cpp:380] res5a_branch2c -> res5a_branch2c
I0107 09:35:53.056702 23133 net.cpp:122] Setting up res5a_branch2c
I0107 09:35:53.056716 23133 net.cpp:129] Top shape: 1 2048 2 2 (8192)
I0107 09:35:53.056720 23133 net.cpp:137] Memory required for data: 18661380
I0107 09:35:53.056726 23133 layer_factory.hpp:77] Creating layer bn5a_branch2c
I0107 09:35:53.056735 23133 net.cpp:84] Creating Layer bn5a_branch2c
I0107 09:35:53.056740 23133 net.cpp:406] bn5a_branch2c <- res5a_branch2c
I0107 09:35:53.056744 23133 net.cpp:367] bn5a_branch2c -> res5a_branch2c (in-place)
I0107 09:35:53.056926 23133 net.cpp:122] Setting up bn5a_branch2c
I0107 09:35:53.056932 23133 net.cpp:129] Top shape: 1 2048 2 2 (8192)
I0107 09:35:53.056936 23133 net.cpp:137] Memory required for data: 18694148
I0107 09:35:53.056943 23133 layer_factory.hpp:77] Creating layer scale5a_branch2c
I0107 09:35:53.056952 23133 net.cpp:84] Creating Layer scale5a_branch2c
I0107 09:35:53.056957 23133 net.cpp:406] scale5a_branch2c <- res5a_branch2c
I0107 09:35:53.056960 23133 net.cpp:367] scale5a_branch2c -> res5a_branch2c (in-place)
I0107 09:35:53.056996 23133 layer_factory.hpp:77] Creating layer scale5a_branch2c
I0107 09:35:53.057104 23133 net.cpp:122] Setting up scale5a_branch2c
I0107 09:35:53.057112 23133 net.cpp:129] Top shape: 1 2048 2 2 (8192)
I0107 09:35:53.057116 23133 net.cpp:137] Memory required for data: 18726916
I0107 09:35:53.057123 23133 layer_factory.hpp:77] Creating layer res5a
I0107 09:35:53.057129 23133 net.cpp:84] Creating Layer res5a
I0107 09:35:53.057133 23133 net.cpp:406] res5a <- res5a_branch1
I0107 09:35:53.057137 23133 net.cpp:406] res5a <- res5a_branch2c
I0107 09:35:53.057144 23133 net.cpp:380] res5a -> res5a
I0107 09:35:53.057168 23133 net.cpp:122] Setting up res5a
I0107 09:35:53.057174 23133 net.cpp:129] Top shape: 1 2048 2 2 (8192)
I0107 09:35:53.057178 23133 net.cpp:137] Memory required for data: 18759684
I0107 09:35:53.057180 23133 layer_factory.hpp:77] Creating layer res5a_relu
I0107 09:35:53.057185 23133 net.cpp:84] Creating Layer res5a_relu
I0107 09:35:53.057189 23133 net.cpp:406] res5a_relu <- res5a
I0107 09:35:53.057193 23133 net.cpp:367] res5a_relu -> res5a (in-place)
I0107 09:35:53.057199 23133 net.cpp:122] Setting up res5a_relu
I0107 09:35:53.057204 23133 net.cpp:129] Top shape: 1 2048 2 2 (8192)
I0107 09:35:53.057206 23133 net.cpp:137] Memory required for data: 18792452
I0107 09:35:53.057209 23133 layer_factory.hpp:77] Creating layer res5a_res5a_relu_0_split
I0107 09:35:53.057216 23133 net.cpp:84] Creating Layer res5a_res5a_relu_0_split
I0107 09:35:53.057219 23133 net.cpp:406] res5a_res5a_relu_0_split <- res5a
I0107 09:35:53.057224 23133 net.cpp:380] res5a_res5a_relu_0_split -> res5a_res5a_relu_0_split_0
I0107 09:35:53.057230 23133 net.cpp:380] res5a_res5a_relu_0_split -> res5a_res5a_relu_0_split_1
I0107 09:35:53.057262 23133 net.cpp:122] Setting up res5a_res5a_relu_0_split
I0107 09:35:53.057268 23133 net.cpp:129] Top shape: 1 2048 2 2 (8192)
I0107 09:35:53.057273 23133 net.cpp:129] Top shape: 1 2048 2 2 (8192)
I0107 09:35:53.057276 23133 net.cpp:137] Memory required for data: 18857988
I0107 09:35:53.057279 23133 layer_factory.hpp:77] Creating layer res5b_branch2a
I0107 09:35:53.057286 23133 net.cpp:84] Creating Layer res5b_branch2a
I0107 09:35:53.057291 23133 net.cpp:406] res5b_branch2a <- res5a_res5a_relu_0_split_0
I0107 09:35:53.057296 23133 net.cpp:380] res5b_branch2a -> res5b_branch2a
I0107 09:35:53.059922 23133 net.cpp:122] Setting up res5b_branch2a
I0107 09:35:53.059937 23133 net.cpp:129] Top shape: 1 512 2 2 (2048)
I0107 09:35:53.059940 23133 net.cpp:137] Memory required for data: 18866180
I0107 09:35:53.059947 23133 layer_factory.hpp:77] Creating layer bn5b_branch2a
I0107 09:35:53.059953 23133 net.cpp:84] Creating Layer bn5b_branch2a
I0107 09:35:53.059958 23133 net.cpp:406] bn5b_branch2a <- res5b_branch2a
I0107 09:35:53.059963 23133 net.cpp:367] bn5b_branch2a -> res5b_branch2a (in-place)
I0107 09:35:53.060148 23133 net.cpp:122] Setting up bn5b_branch2a
I0107 09:35:53.060156 23133 net.cpp:129] Top shape: 1 512 2 2 (2048)
I0107 09:35:53.060160 23133 net.cpp:137] Memory required for data: 18874372
I0107 09:35:53.060168 23133 layer_factory.hpp:77] Creating layer scale5b_branch2a
I0107 09:35:53.060174 23133 net.cpp:84] Creating Layer scale5b_branch2a
I0107 09:35:53.060178 23133 net.cpp:406] scale5b_branch2a <- res5b_branch2a
I0107 09:35:53.060183 23133 net.cpp:367] scale5b_branch2a -> res5b_branch2a (in-place)
I0107 09:35:53.060218 23133 layer_factory.hpp:77] Creating layer scale5b_branch2a
I0107 09:35:53.060325 23133 net.cpp:122] Setting up scale5b_branch2a
I0107 09:35:53.060333 23133 net.cpp:129] Top shape: 1 512 2 2 (2048)
I0107 09:35:53.060336 23133 net.cpp:137] Memory required for data: 18882564
I0107 09:35:53.060343 23133 layer_factory.hpp:77] Creating layer res5b_branch2a_relu
I0107 09:35:53.060350 23133 net.cpp:84] Creating Layer res5b_branch2a_relu
I0107 09:35:53.060354 23133 net.cpp:406] res5b_branch2a_relu <- res5b_branch2a
I0107 09:35:53.060359 23133 net.cpp:367] res5b_branch2a_relu -> res5b_branch2a (in-place)
I0107 09:35:53.060369 23133 net.cpp:122] Setting up res5b_branch2a_relu
I0107 09:35:53.060374 23133 net.cpp:129] Top shape: 1 512 2 2 (2048)
I0107 09:35:53.060376 23133 net.cpp:137] Memory required for data: 18890756
I0107 09:35:53.060380 23133 layer_factory.hpp:77] Creating layer res5b_branch2b
I0107 09:35:53.060386 23133 net.cpp:84] Creating Layer res5b_branch2b
I0107 09:35:53.060390 23133 net.cpp:406] res5b_branch2b <- res5b_branch2a
I0107 09:35:53.060396 23133 net.cpp:380] res5b_branch2b -> res5b_branch2b
I0107 09:35:53.065862 23133 net.cpp:122] Setting up res5b_branch2b
I0107 09:35:53.065876 23133 net.cpp:129] Top shape: 1 512 2 2 (2048)
I0107 09:35:53.065881 23133 net.cpp:137] Memory required for data: 18898948
I0107 09:35:53.065886 23133 layer_factory.hpp:77] Creating layer bn5b_branch2b
I0107 09:35:53.065893 23133 net.cpp:84] Creating Layer bn5b_branch2b
I0107 09:35:53.065897 23133 net.cpp:406] bn5b_branch2b <- res5b_branch2b
I0107 09:35:53.065902 23133 net.cpp:367] bn5b_branch2b -> res5b_branch2b (in-place)
I0107 09:35:53.066088 23133 net.cpp:122] Setting up bn5b_branch2b
I0107 09:35:53.066097 23133 net.cpp:129] Top shape: 1 512 2 2 (2048)
I0107 09:35:53.066099 23133 net.cpp:137] Memory required for data: 18907140
I0107 09:35:53.066107 23133 layer_factory.hpp:77] Creating layer scale5b_branch2b
I0107 09:35:53.066113 23133 net.cpp:84] Creating Layer scale5b_branch2b
I0107 09:35:53.066118 23133 net.cpp:406] scale5b_branch2b <- res5b_branch2b
I0107 09:35:53.066121 23133 net.cpp:367] scale5b_branch2b -> res5b_branch2b (in-place)
I0107 09:35:53.066157 23133 layer_factory.hpp:77] Creating layer scale5b_branch2b
I0107 09:35:53.066264 23133 net.cpp:122] Setting up scale5b_branch2b
I0107 09:35:53.066272 23133 net.cpp:129] Top shape: 1 512 2 2 (2048)
I0107 09:35:53.066275 23133 net.cpp:137] Memory required for data: 18915332
I0107 09:35:53.066282 23133 layer_factory.hpp:77] Creating layer res5b_branch2b_relu
I0107 09:35:53.066288 23133 net.cpp:84] Creating Layer res5b_branch2b_relu
I0107 09:35:53.066293 23133 net.cpp:406] res5b_branch2b_relu <- res5b_branch2b
I0107 09:35:53.066298 23133 net.cpp:367] res5b_branch2b_relu -> res5b_branch2b (in-place)
I0107 09:35:53.066304 23133 net.cpp:122] Setting up res5b_branch2b_relu
I0107 09:35:53.066309 23133 net.cpp:129] Top shape: 1 512 2 2 (2048)
I0107 09:35:53.066313 23133 net.cpp:137] Memory required for data: 18923524
I0107 09:35:53.066315 23133 layer_factory.hpp:77] Creating layer res5b_branch2c
I0107 09:35:53.066323 23133 net.cpp:84] Creating Layer res5b_branch2c
I0107 09:35:53.066325 23133 net.cpp:406] res5b_branch2c <- res5b_branch2b
I0107 09:35:53.066332 23133 net.cpp:380] res5b_branch2c -> res5b_branch2c
I0107 09:35:53.068949 23133 net.cpp:122] Setting up res5b_branch2c
I0107 09:35:53.068964 23133 net.cpp:129] Top shape: 1 2048 2 2 (8192)
I0107 09:35:53.068967 23133 net.cpp:137] Memory required for data: 18956292
I0107 09:35:53.068974 23133 layer_factory.hpp:77] Creating layer bn5b_branch2c
I0107 09:35:53.068981 23133 net.cpp:84] Creating Layer bn5b_branch2c
I0107 09:35:53.068985 23133 net.cpp:406] bn5b_branch2c <- res5b_branch2c
I0107 09:35:53.068990 23133 net.cpp:367] bn5b_branch2c -> res5b_branch2c (in-place)
I0107 09:35:53.069176 23133 net.cpp:122] Setting up bn5b_branch2c
I0107 09:35:53.069185 23133 net.cpp:129] Top shape: 1 2048 2 2 (8192)
I0107 09:35:53.069187 23133 net.cpp:137] Memory required for data: 18989060
I0107 09:35:53.069195 23133 layer_factory.hpp:77] Creating layer scale5b_branch2c
I0107 09:35:53.069200 23133 net.cpp:84] Creating Layer scale5b_branch2c
I0107 09:35:53.069205 23133 net.cpp:406] scale5b_branch2c <- res5b_branch2c
I0107 09:35:53.069209 23133 net.cpp:367] scale5b_branch2c -> res5b_branch2c (in-place)
I0107 09:35:53.069247 23133 layer_factory.hpp:77] Creating layer scale5b_branch2c
I0107 09:35:53.069355 23133 net.cpp:122] Setting up scale5b_branch2c
I0107 09:35:53.069362 23133 net.cpp:129] Top shape: 1 2048 2 2 (8192)
I0107 09:35:53.069365 23133 net.cpp:137] Memory required for data: 19021828
I0107 09:35:53.069372 23133 layer_factory.hpp:77] Creating layer res5b
I0107 09:35:53.069378 23133 net.cpp:84] Creating Layer res5b
I0107 09:35:53.069382 23133 net.cpp:406] res5b <- res5a_res5a_relu_0_split_1
I0107 09:35:53.069387 23133 net.cpp:406] res5b <- res5b_branch2c
I0107 09:35:53.069393 23133 net.cpp:380] res5b -> res5b
I0107 09:35:53.069417 23133 net.cpp:122] Setting up res5b
I0107 09:35:53.069423 23133 net.cpp:129] Top shape: 1 2048 2 2 (8192)
I0107 09:35:53.069427 23133 net.cpp:137] Memory required for data: 19054596
I0107 09:35:53.069429 23133 layer_factory.hpp:77] Creating layer res5b_relu
I0107 09:35:53.069437 23133 net.cpp:84] Creating Layer res5b_relu
I0107 09:35:53.069440 23133 net.cpp:406] res5b_relu <- res5b
I0107 09:35:53.069445 23133 net.cpp:367] res5b_relu -> res5b (in-place)
I0107 09:35:53.069450 23133 net.cpp:122] Setting up res5b_relu
I0107 09:35:53.069458 23133 net.cpp:129] Top shape: 1 2048 2 2 (8192)
I0107 09:35:53.069460 23133 net.cpp:137] Memory required for data: 19087364
I0107 09:35:53.069463 23133 layer_factory.hpp:77] Creating layer res5b_res5b_relu_0_split
I0107 09:35:53.069468 23133 net.cpp:84] Creating Layer res5b_res5b_relu_0_split
I0107 09:35:53.069473 23133 net.cpp:406] res5b_res5b_relu_0_split <- res5b
I0107 09:35:53.069476 23133 net.cpp:380] res5b_res5b_relu_0_split -> res5b_res5b_relu_0_split_0
I0107 09:35:53.069483 23133 net.cpp:380] res5b_res5b_relu_0_split -> res5b_res5b_relu_0_split_1
I0107 09:35:53.069515 23133 net.cpp:122] Setting up res5b_res5b_relu_0_split
I0107 09:35:53.069521 23133 net.cpp:129] Top shape: 1 2048 2 2 (8192)
I0107 09:35:53.069526 23133 net.cpp:129] Top shape: 1 2048 2 2 (8192)
I0107 09:35:53.069530 23133 net.cpp:137] Memory required for data: 19152900
I0107 09:35:53.069532 23133 layer_factory.hpp:77] Creating layer res5c_branch2a
I0107 09:35:53.069541 23133 net.cpp:84] Creating Layer res5c_branch2a
I0107 09:35:53.069545 23133 net.cpp:406] res5c_branch2a <- res5b_res5b_relu_0_split_0
I0107 09:35:53.069550 23133 net.cpp:380] res5c_branch2a -> res5c_branch2a
I0107 09:35:53.072266 23133 net.cpp:122] Setting up res5c_branch2a
I0107 09:35:53.072281 23133 net.cpp:129] Top shape: 1 512 2 2 (2048)
I0107 09:35:53.072284 23133 net.cpp:137] Memory required for data: 19161092
I0107 09:35:53.072291 23133 layer_factory.hpp:77] Creating layer bn5c_branch2a
I0107 09:35:53.072299 23133 net.cpp:84] Creating Layer bn5c_branch2a
I0107 09:35:53.072302 23133 net.cpp:406] bn5c_branch2a <- res5c_branch2a
I0107 09:35:53.072310 23133 net.cpp:367] bn5c_branch2a -> res5c_branch2a (in-place)
I0107 09:35:53.072494 23133 net.cpp:122] Setting up bn5c_branch2a
I0107 09:35:53.072502 23133 net.cpp:129] Top shape: 1 512 2 2 (2048)
I0107 09:35:53.072505 23133 net.cpp:137] Memory required for data: 19169284
I0107 09:35:53.072513 23133 layer_factory.hpp:77] Creating layer scale5c_branch2a
I0107 09:35:53.072520 23133 net.cpp:84] Creating Layer scale5c_branch2a
I0107 09:35:53.072522 23133 net.cpp:406] scale5c_branch2a <- res5c_branch2a
I0107 09:35:53.072527 23133 net.cpp:367] scale5c_branch2a -> res5c_branch2a (in-place)
I0107 09:35:53.072563 23133 layer_factory.hpp:77] Creating layer scale5c_branch2a
I0107 09:35:53.072672 23133 net.cpp:122] Setting up scale5c_branch2a
I0107 09:35:53.072681 23133 net.cpp:129] Top shape: 1 512 2 2 (2048)
I0107 09:35:53.072685 23133 net.cpp:137] Memory required for data: 19177476
I0107 09:35:53.072691 23133 layer_factory.hpp:77] Creating layer res5c_branch2a_relu
I0107 09:35:53.072698 23133 net.cpp:84] Creating Layer res5c_branch2a_relu
I0107 09:35:53.072702 23133 net.cpp:406] res5c_branch2a_relu <- res5c_branch2a
I0107 09:35:53.072707 23133 net.cpp:367] res5c_branch2a_relu -> res5c_branch2a (in-place)
I0107 09:35:53.072712 23133 net.cpp:122] Setting up res5c_branch2a_relu
I0107 09:35:53.072717 23133 net.cpp:129] Top shape: 1 512 2 2 (2048)
I0107 09:35:53.072721 23133 net.cpp:137] Memory required for data: 19185668
I0107 09:35:53.072723 23133 layer_factory.hpp:77] Creating layer res5c_branch2b
I0107 09:35:53.072732 23133 net.cpp:84] Creating Layer res5c_branch2b
I0107 09:35:53.072736 23133 net.cpp:406] res5c_branch2b <- res5c_branch2a
I0107 09:35:53.072741 23133 net.cpp:380] res5c_branch2b -> res5c_branch2b
I0107 09:35:53.078227 23133 net.cpp:122] Setting up res5c_branch2b
I0107 09:35:53.078243 23133 net.cpp:129] Top shape: 1 512 2 2 (2048)
I0107 09:35:53.078246 23133 net.cpp:137] Memory required for data: 19193860
I0107 09:35:53.078253 23133 layer_factory.hpp:77] Creating layer bn5c_branch2b
I0107 09:35:53.078261 23133 net.cpp:84] Creating Layer bn5c_branch2b
I0107 09:35:53.078265 23133 net.cpp:406] bn5c_branch2b <- res5c_branch2b
I0107 09:35:53.078271 23133 net.cpp:367] bn5c_branch2b -> res5c_branch2b (in-place)
I0107 09:35:53.078457 23133 net.cpp:122] Setting up bn5c_branch2b
I0107 09:35:53.078464 23133 net.cpp:129] Top shape: 1 512 2 2 (2048)
I0107 09:35:53.078467 23133 net.cpp:137] Memory required for data: 19202052
I0107 09:35:53.078475 23133 layer_factory.hpp:77] Creating layer scale5c_branch2b
I0107 09:35:53.078481 23133 net.cpp:84] Creating Layer scale5c_branch2b
I0107 09:35:53.078485 23133 net.cpp:406] scale5c_branch2b <- res5c_branch2b
I0107 09:35:53.078493 23133 net.cpp:367] scale5c_branch2b -> res5c_branch2b (in-place)
I0107 09:35:53.078527 23133 layer_factory.hpp:77] Creating layer scale5c_branch2b
I0107 09:35:53.078636 23133 net.cpp:122] Setting up scale5c_branch2b
I0107 09:35:53.078644 23133 net.cpp:129] Top shape: 1 512 2 2 (2048)
I0107 09:35:53.078647 23133 net.cpp:137] Memory required for data: 19210244
I0107 09:35:53.078653 23133 layer_factory.hpp:77] Creating layer res5c_branch2b_relu
I0107 09:35:53.078658 23133 net.cpp:84] Creating Layer res5c_branch2b_relu
I0107 09:35:53.078662 23133 net.cpp:406] res5c_branch2b_relu <- res5c_branch2b
I0107 09:35:53.078670 23133 net.cpp:367] res5c_branch2b_relu -> res5c_branch2b (in-place)
I0107 09:35:53.078675 23133 net.cpp:122] Setting up res5c_branch2b_relu
I0107 09:35:53.078680 23133 net.cpp:129] Top shape: 1 512 2 2 (2048)
I0107 09:35:53.078682 23133 net.cpp:137] Memory required for data: 19218436
I0107 09:35:53.078685 23133 layer_factory.hpp:77] Creating layer res5c_branch2c
I0107 09:35:53.078692 23133 net.cpp:84] Creating Layer res5c_branch2c
I0107 09:35:53.078696 23133 net.cpp:406] res5c_branch2c <- res5c_branch2b
I0107 09:35:53.078702 23133 net.cpp:380] res5c_branch2c -> res5c_branch2c
I0107 09:35:53.081362 23133 net.cpp:122] Setting up res5c_branch2c
I0107 09:35:53.081377 23133 net.cpp:129] Top shape: 1 2048 2 2 (8192)
I0107 09:35:53.081380 23133 net.cpp:137] Memory required for data: 19251204
I0107 09:35:53.081387 23133 layer_factory.hpp:77] Creating layer bn5c_branch2c
I0107 09:35:53.081395 23133 net.cpp:84] Creating Layer bn5c_branch2c
I0107 09:35:53.081400 23133 net.cpp:406] bn5c_branch2c <- res5c_branch2c
I0107 09:35:53.081405 23133 net.cpp:367] bn5c_branch2c -> res5c_branch2c (in-place)
I0107 09:35:53.081594 23133 net.cpp:122] Setting up bn5c_branch2c
I0107 09:35:53.081602 23133 net.cpp:129] Top shape: 1 2048 2 2 (8192)
I0107 09:35:53.081605 23133 net.cpp:137] Memory required for data: 19283972
I0107 09:35:53.081614 23133 layer_factory.hpp:77] Creating layer scale5c_branch2c
I0107 09:35:53.081621 23133 net.cpp:84] Creating Layer scale5c_branch2c
I0107 09:35:53.081624 23133 net.cpp:406] scale5c_branch2c <- res5c_branch2c
I0107 09:35:53.081629 23133 net.cpp:367] scale5c_branch2c -> res5c_branch2c (in-place)
I0107 09:35:53.081667 23133 layer_factory.hpp:77] Creating layer scale5c_branch2c
I0107 09:35:53.081777 23133 net.cpp:122] Setting up scale5c_branch2c
I0107 09:35:53.081784 23133 net.cpp:129] Top shape: 1 2048 2 2 (8192)
I0107 09:35:53.081789 23133 net.cpp:137] Memory required for data: 19316740
I0107 09:35:53.081794 23133 layer_factory.hpp:77] Creating layer res5c
I0107 09:35:53.081801 23133 net.cpp:84] Creating Layer res5c
I0107 09:35:53.081805 23133 net.cpp:406] res5c <- res5b_res5b_relu_0_split_1
I0107 09:35:53.081810 23133 net.cpp:406] res5c <- res5c_branch2c
I0107 09:35:53.081815 23133 net.cpp:380] res5c -> res5c
I0107 09:35:53.081840 23133 net.cpp:122] Setting up res5c
I0107 09:35:53.081846 23133 net.cpp:129] Top shape: 1 2048 2 2 (8192)
I0107 09:35:53.081849 23133 net.cpp:137] Memory required for data: 19349508
I0107 09:35:53.081852 23133 layer_factory.hpp:77] Creating layer res5c_relu
I0107 09:35:53.081858 23133 net.cpp:84] Creating Layer res5c_relu
I0107 09:35:53.081861 23133 net.cpp:406] res5c_relu <- res5c
I0107 09:35:53.081867 23133 net.cpp:367] res5c_relu -> res5c (in-place)
I0107 09:35:53.081873 23133 net.cpp:122] Setting up res5c_relu
I0107 09:35:53.081877 23133 net.cpp:129] Top shape: 1 2048 2 2 (8192)
I0107 09:35:53.081881 23133 net.cpp:137] Memory required for data: 19382276
I0107 09:35:53.081884 23133 layer_factory.hpp:77] Creating layer drop5
I0107 09:35:53.081890 23133 net.cpp:84] Creating Layer drop5
I0107 09:35:53.081894 23133 net.cpp:406] drop5 <- res5c
I0107 09:35:53.081898 23133 net.cpp:367] drop5 -> res5c (in-place)
I0107 09:35:53.081918 23133 net.cpp:122] Setting up drop5
I0107 09:35:53.081924 23133 net.cpp:129] Top shape: 1 2048 2 2 (8192)
I0107 09:35:53.081928 23133 net.cpp:137] Memory required for data: 19415044
I0107 09:35:53.081930 23133 layer_factory.hpp:77] Creating layer pool5
I0107 09:35:53.081938 23133 net.cpp:84] Creating Layer pool5
I0107 09:35:53.081940 23133 net.cpp:406] pool5 <- res5c
I0107 09:35:53.081948 23133 net.cpp:380] pool5 -> pool5
I0107 09:35:53.081971 23133 net.cpp:122] Setting up pool5
I0107 09:35:53.081977 23133 net.cpp:129] Top shape: 1 2048 1 1 (2048)
I0107 09:35:53.081980 23133 net.cpp:137] Memory required for data: 19423236
I0107 09:35:53.081984 23133 layer_factory.hpp:77] Creating layer fc_4
I0107 09:35:53.081990 23133 net.cpp:84] Creating Layer fc_4
I0107 09:35:53.081995 23133 net.cpp:406] fc_4 <- pool5
I0107 09:35:53.082003 23133 net.cpp:380] fc_4 -> fc_4
I0107 09:35:53.082137 23133 net.cpp:122] Setting up fc_4
I0107 09:35:53.082144 23133 net.cpp:129] Top shape: 1 7 (7)
I0107 09:35:53.082147 23133 net.cpp:137] Memory required for data: 19423264
I0107 09:35:53.082154 23133 layer_factory.hpp:77] Creating layer prob
I0107 09:35:53.082161 23133 net.cpp:84] Creating Layer prob
I0107 09:35:53.082165 23133 net.cpp:406] prob <- fc_4
I0107 09:35:53.082170 23133 net.cpp:380] prob -> prob
I0107 09:35:53.082229 23133 net.cpp:122] Setting up prob
I0107 09:35:53.082235 23133 net.cpp:129] Top shape: 1 7 (7)
I0107 09:35:53.082238 23133 net.cpp:137] Memory required for data: 19423292
I0107 09:35:53.082242 23133 net.cpp:200] prob does not need backward computation.
I0107 09:35:53.082245 23133 net.cpp:200] fc_4 does not need backward computation.
I0107 09:35:53.082249 23133 net.cpp:200] pool5 does not need backward computation.
I0107 09:35:53.082252 23133 net.cpp:200] drop5 does not need backward computation.
…
