…
W0105 10:27:37.641593 45974 _caffe.cpp:142] Net('/media/root/新加卷/TreeClassification/Models/resnet50_inference.prototxt', 1, weights='/media/root/新加卷/TreeClassification/Inference/Models/resnet50_0.00001_iter_125000.caffemodel')
I0105 10:27:37.654384 45974 net.cpp:51] Initializing net from parameters: 
name: "Deep learning for building density estimation"
state {
  phase: TEST
  level: 0
}
layer {
  name: "data"
  type: "Python"
  top: "data_RGB"
  top: "data_Label"
  python_param {
    module: "MyDataLayer"
    layer: "MyDataLayer"
    param_str: "\'source_dir\': \'/media/root/\346\226\260\345\212\240\345\215\267/TreeClassification/Data/samples_48\',\'target_size_w\': 48,\'target_size_h\': 48,\'batch_size\': 1,\'stage\': \'test\'"
  }
}
layer {
  name: "conv1"
  type: "Convolution"
  bottom: "data_RGB"
  top: "conv1"
  convolution_param {
    num_output: 64
    pad: 3
    kernel_size: 7
    stride: 2
  }
}
layer {
  name: "bn_conv1"
  type: "BatchNorm"
  bottom: "conv1"
  top: "conv1"
  batch_norm_param {
    use_global_stats: true
  }
}
layer {
  name: "scale_conv1"
  type: "Scale"
  bottom: "conv1"
  top: "conv1"
  scale_param {
    bias_term: true
  }
}
layer {
  name: "conv1_relu"
  type: "ReLU"
  bottom: "conv1"
  top: "conv1"
}
layer {
  name: "pool1"
  type: "Pooling"
  bottom: "conv1"
  top: "pool1"
  pooling_param {
    pool: MAX
    kernel_size: 3
    stride: 2
  }
}
layer {
  name: "res2a_branch1"
  type: "Convolution"
  bottom: "pool1"
  top: "res2a_branch1"
  convolution_param {
    num_output: 256
    bias_term: false
    pad: 0
    kernel_size: 1
    stride: 1
  }
}
layer {
  name: "bn2a_branch1"
  type: "BatchNorm"
  bottom: "res2a_branch1"
  top: "res2a_branch1"
  batch_norm_param {
    use_global_stats: true
  }
}
layer {
  name: "scale2a_branch1"
  type: "Scale"
  bottom: "res2a_branch1"
  top: "res2a_branch1"
  scale_param {
    bias_term: true
  }
}
layer {
  name: "res2a_branch2a"
  type: "Convolution"
  bottom: "pool1"
  top: "res2a_branch2a"
  convolution_param {
    num_output: 64
    bias_term: false
    pad: 0
    kernel_size: 1
    stride: 1
  }
}
layer {
  name: "bn2a_branch2a"
  type: "BatchNorm"
  bottom: "res2a_branch2a"
  top: "res2a_branch2a"
  batch_norm_param {
    use_global_stats: true
  }
}
layer {
  name: "scale2a_branch2a"
  type: "Scale"
  bottom: "res2a_branch2a"
  top: "res2a_branch2a"
  scale_param {
    bias_term: true
  }
}
layer {
  name: "res2a_branch2a_relu"
  type: "ReLU"
  bottom: "res2a_branch2a"
  top: "res2a_branch2a"
}
layer {
  name: "res2a_branch2b"
  type: "Convolution"
  bottom: "res2a_branch2a"
  top: "res2a_branch2b"
  convolution_param {
    num_output: 64
    bias_term: false
    pad: 1
    kernel_size: 3
    stride: 1
  }
}
layer {
  name: "bn2a_branch2b"
  type: "BatchNorm"
  bottom: "res2a_branch2b"
  top: "res2a_branch2b"
  batch_norm_param {
    use_global_stats: true
  }
}
layer {
  name: "scale2a_branch2b"
  type: "Scale"
  bottom: "res2a_branch2b"
  top: "res2a_branch2b"
  scale_param {
    bias_term: true
  }
}
layer {
  name: "res2a_branch2b_relu"
  type: "ReLU"
  bottom: "res2a_branch2b"
  top: "res2a_branch2b"
}
layer {
  name: "res2a_branch2c"
  type: "Convolution"
  bottom: "res2a_branch2b"
  top: "res2a_branch2c"
  convolution_param {
    num_output: 256
    bias_term: false
    pad: 0
    kernel_size: 1
    stride: 1
  }
}
layer {
  name: "bn2a_branch2c"
  type: "BatchNorm"
  bottom: "res2a_branch2c"
  top: "res2a_branch2c"
  batch_norm_param {
    use_global_stats: true
  }
}
layer {
  name: "scale2a_branch2c"
  type: "Scale"
  bottom: "res2a_branch2c"
  top: "res2a_branch2c"
  scale_param {
    bias_term: true
  }
}
layer {
  name: "res2a"
  type: "Eltwise"
  bottom: "res2a_branch1"
  bottom: "res2a_branch2c"
  top: "res2a"
}
layer {
  name: "res2a_relu"
  type: "ReLU"
  bottom: "res2a"
  top: "res2a"
}
layer {
  name: "res2b_branch2a"
  type: "Convolution"
  bottom: "res2a"
  top: "res2b_branch2a"
  convolution_param {
    num_output: 64
    bias_term: false
    pad: 0
    kernel_size: 1
    stride: 1
  }
}
layer {
  name: "bn2b_branch2a"
  type: "BatchNorm"
  bottom: "res2b_branch2a"
  top: "res2b_branch2a"
  batch_norm_param {
    use_global_stats: true
  }
}
layer {
  name: "scale2b_branch2a"
  type: "Scale"
  bottom: "res2b_branch2a"
  top: "res2b_branch2a"
  scale_param {
    bias_term: true
  }
}
layer {
  name: "res2b_branch2a_relu"
  type: "ReLU"
  bottom: "res2b_branch2a"
  top: "res2b_branch2a"
}
layer {
  name: "res2b_branch2b"
  type: "Convolution"
  bottom: "res2b_branch2a"
  top: "res2b_branch2b"
  convolution_param {
    num_output: 64
    bias_term: false
    pad: 1
    kernel_size: 3
    stride: 1
  }
}
layer {
  name: "bn2b_branch2b"
  type: "BatchNorm"
  bottom: "res2b_branch2b"
  top: "res2b_branch2b"
  batch_norm_param {
    use_global_stats: true
  }
}
layer {
  name: "scale2b_branch2b"
  type: "Scale"
  bottom: "res2b_branch2b"
  top: "res2b_branch2b"
  scale_param {
    bias_term: true
  }
}
layer {
  name: "res2b_branch2b_relu"
  type: "ReLU"
  bottom: "res2b_branch2b"
  top: "res2b_branch2b"
}
layer {
  name: "res2b_branch2c"
  type: "Convolution"
  bottom: "res2b_branch2b"
  top: "res2b_branch2c"
  convolution_param {
    num_output: 256
    bias_term: false
    pad: 0
    kernel_size: 1
    stride: 1
  }
}
layer {
  name: "bn2b_branch2c"
  type: "BatchNorm"
  bottom: "res2b_branch2c"
  top: "res2b_branch2c"
  batch_norm_param {
    use_global_stats: true
  }
}
layer {
  name: "scale2b_branch2c"
  type: "Scale"
  bottom: "res2b_branch2c"
  top: "res2b_branch2c"
  scale_param {
    bias_term: true
  }
}
layer {
  name: "res2b"
  type: "Eltwise"
  bottom: "res2a"
  bottom: "res2b_branch2c"
  top: "res2b"
}
layer {
  name: "res2b_relu"
  type: "ReLU"
  bottom: "res2b"
  top: "res2b"
}
layer {
  name: "res2c_branch2a"
  type: "Convolution"
  bottom: "res2b"
  top: "res2c_branch2a"
  convolution_param {
    num_output: 64
    bias_term: false
    pad: 0
    kernel_size: 1
    stride: 1
  }
}
layer {
  name: "bn2c_branch2a"
  type: "BatchNorm"
  bottom: "res2c_branch2a"
  top: "res2c_branch2a"
  batch_norm_param {
    use_global_stats: true
  }
}
layer {
  name: "scale2c_branch2a"
  type: "Scale"
  bottom: "res2c_branch2a"
  top: "res2c_branch2a"
  scale_param {
    bias_term: true
  }
}
layer {
  name: "res2c_branch2a_relu"
  type: "ReLU"
  bottom: "res2c_branch2a"
  top: "res2c_branch2a"
}
layer {
  name: "res2c_branch2b"
  type: "Convolution"
  bottom: "res2c_branch2a"
  top: "res2c_branch2b"
  convolution_param {
    num_output: 64
    bias_term: false
    pad: 1
    kernel_size: 3
    stride: 1
  }
}
layer {
  name: "bn2c_branch2b"
  type: "BatchNorm"
  bottom: "res2c_branch2b"
  top: "res2c_branch2b"
  batch_norm_param {
    use_global_stats: true
  }
}
layer {
  name: "scale2c_branch2b"
  type: "Scale"
  bottom: "res2c_branch2b"
  top: "res2c_branch2b"
  scale_param {
    bias_term: true
  }
}
layer {
  name: "res2c_branch2b_relu"
  type: "ReLU"
  bottom: "res2c_branch2b"
  top: "res2c_branch2b"
}
layer {
  name: "res2c_branch2c"
  type: "Convolution"
  bottom: "res2c_branch2b"
  top: "res2c_branch2c"
  convolution_param {
    num_output: 256
    bias_term: false
    pad: 0
    kernel_size: 1
    stride: 1
  }
}
layer {
  name: "bn2c_branch2c"
  type: "BatchNorm"
  bottom: "res2c_branch2c"
  top: "res2c_branch2c"
  batch_norm_param {
    use_global_stats: true
  }
}
layer {
  name: "scale2c_branch2c"
  type: "Scale"
  bottom: "res2c_branch2c"
  top: "res2c_branch2c"
  scale_param {
    bias_term: true
  }
}
layer {
  name: "res2c"
  type: "Eltwise"
  bottom: "res2b"
  bottom: "res2c_branch2c"
  top: "res2c"
}
layer {
  name: "res2c_relu"
  type: "ReLU"
  bottom: "res2c"
  top: "res2c"
}
layer {
  name: "drop2"
  type: "Dropout"
  bottom: "res2c"
  top: "res2c"
  dropout_param {
    dropout_ratio: 0.5
  }
}
layer {
  name: "res3a_branch1"
  type: "Convolution"
  bottom: "res2c"
  top: "res3a_branch1"
  convolution_param {
    num_output: 512
    bias_term: false
    pad: 0
    kernel_size: 1
    stride: 2
  }
}
layer {
  name: "bn3a_branch1"
  type: "BatchNorm"
  bottom: "res3a_branch1"
  top: "res3a_branch1"
  batch_norm_param {
    use_global_stats: true
  }
}
layer {
  name: "scale3a_branch1"
  type: "Scale"
  bottom: "res3a_branch1"
  top: "res3a_branch1"
  scale_param {
    bias_term: true
  }
}
layer {
  name: "res3a_branch2a"
  type: "Convolution"
  bottom: "res2c"
  top: "res3a_branch2a"
  convolution_param {
    num_output: 128
    bias_term: false
    pad: 0
    kernel_size: 1
    stride: 2
  }
}
layer {
  name: "bn3a_branch2a"
  type: "BatchNorm"
  bottom: "res3a_branch2a"
  top: "res3a_branch2a"
  batch_norm_param {
    use_global_stats: true
  }
}
layer {
  name: "scale3a_branch2a"
  type: "Scale"
  bottom: "res3a_branch2a"
  top: "res3a_branch2a"
  scale_param {
    bias_term: true
  }
}
layer {
  name: "res3a_branch2a_relu"
  type: "ReLU"
  bottom: "res3a_branch2a"
  top: "res3a_branch2a"
}
layer {
  name: "res3a_branch2b"
  type: "Convolution"
  bottom: "res3a_branch2a"
  top: "res3a_branch2b"
  convolution_param {
    num_output: 128
    bias_term: false
    pad: 1
    kernel_size: 3
    stride: 1
  }
}
layer {
  name: "bn3a_branch2b"
  type: "BatchNorm"
  bottom: "res3a_branch2b"
  top: "res3a_branch2b"
  batch_norm_param {
    use_global_stats: true
  }
}
layer {
  name: "scale3a_branch2b"
  type: "Scale"
  bottom: "res3a_branch2b"
  top: "res3a_branch2b"
  scale_param {
    bias_term: true
  }
}
layer {
  name: "res3a_branch2b_relu"
  type: "ReLU"
  bottom: "res3a_branch2b"
  top: "res3a_branch2b"
}
layer {
  name: "res3a_branch2c"
  type: "Convolution"
  bottom: "res3a_branch2b"
  top: "res3a_branch2c"
  convolution_param {
    num_output: 512
    bias_term: false
    pad: 0
    kernel_size: 1
    stride: 1
  }
}
layer {
  name: "bn3a_branch2c"
  type: "BatchNorm"
  bottom: "res3a_branch2c"
  top: "res3a_branch2c"
  batch_norm_param {
    use_global_stats: true
  }
}
layer {
  name: "scale3a_branch2c"
  type: "Scale"
  bottom: "res3a_branch2c"
  top: "res3a_branch2c"
  scale_param {
    bias_term: true
  }
}
layer {
  name: "res3a"
  type: "Eltwise"
  bottom: "res3a_branch1"
  bottom: "res3a_branch2c"
  top: "res3a"
}
layer {
  name: "res3a_relu"
  type: "ReLU"
  bottom: "res3a"
  top: "res3a"
}
layer {
  name: "res3b_branch2a"
  type: "Convolution"
  bottom: "res3a"
  top: "res3b_branch2a"
  convolution_param {
    num_output: 128
    bias_term: false
    pad: 0
    kernel_size: 1
    stride: 1
  }
}
layer {
  name: "bn3b_branch2a"
  type: "BatchNorm"
  bottom: "res3b_branch2a"
  top: "res3b_branch2a"
  batch_norm_param {
    use_global_stats: true
  }
}
layer {
  name: "scale3b_branch2a"
  type: "Scale"
  bottom: "res3b_branch2a"
  top: "res3b_branch2a"
  scale_param {
    bias_term: true
  }
}
layer {
  name: "res3b_branch2a_relu"
  type: "ReLU"
  bottom: "res3b_branch2a"
  top: "res3b_branch2a"
}
layer {
  name: "res3b_branch2b"
  type: "Convolution"
  bottom: "res3b_branch2a"
  top: "res3b_branch2b"
  convolution_param {
    num_output: 128
    bias_term: false
    pad: 1
    kernel_size: 3
    stride: 1
  }
}
layer {
  name: "bn3b_branch2b"
  type: "BatchNorm"
  bottom: "res3b_branch2b"
  top: "res3b_branch2b"
  batch_norm_param {
    use_global_stats: true
  }
}
layer {
  name: "scale3b_branch2b"
  type: "Scale"
  bottom: "res3b_branch2b"
  top: "res3b_branch2b"
  scale_param {
    bias_term: true
  }
}
layer {
  name: "res3b_branch2b_relu"
  type: "ReLU"
  bottom: "res3b_branch2b"
  top: "res3b_branch2b"
}
layer {
  name: "res3b_branch2c"
  type: "Convolution"
  bottom: "res3b_branch2b"
  top: "res3b_branch2c"
  convolution_param {
    num_output: 512
    bias_term: false
    pad: 0
    kernel_size: 1
    stride: 1
  }
}
layer {
  name: "bn3b_branch2c"
  type: "BatchNorm"
  bottom: "res3b_branch2c"
  top: "res3b_branch2c"
  batch_norm_param {
    use_global_stats: true
  }
}
layer {
  name: "scale3b_branch2c"
  type: "Scale"
  bottom: "res3b_branch2c"
  top: "res3b_branch2c"
  scale_param {
    bias_term: true
  }
}
layer {
  name: "res3b"
  type: "Eltwise"
  bottom: "res3a"
  bottom: "res3b_branch2c"
  top: "res3b"
}
layer {
  name: "res3b_relu"
  type: "ReLU"
  bottom: "res3b"
  top: "res3b"
}
layer {
  name: "res3c_branch2a"
  type: "Convolution"
  bottom: "res3b"
  top: "res3c_branch2a"
  convolution_param {
    num_output: 128
    bias_term: false
    pad: 0
    kernel_size: 1
    stride: 1
  }
}
layer {
  name: "bn3c_branch2a"
  type: "BatchNorm"
  bottom: "res3c_branch2a"
  top: "res3c_branch2a"
  batch_norm_param {
    use_global_stats: true
  }
}
layer {
  name: "scale3c_branch2a"
  type: "Scale"
  bottom: "res3c_branch2a"
  top: "res3c_branch2a"
  scale_param {
    bias_term: true
  }
}
layer {
  name: "res3c_branch2a_relu"
  type: "ReLU"
  bottom: "res3c_branch2a"
  top: "res3c_branch2a"
}
layer {
  name: "res3c_branch2b"
  type: "Convolution"
  bottom: "res3c_branch2a"
  top: "res3c_branch2b"
  convolution_param {
    num_output: 128
    bias_term: false
    pad: 1
    kernel_size: 3
    stride: 1
  }
}
layer {
  name: "bn3c_branch2b"
  type: "BatchNorm"
  bottom: "res3c_branch2b"
  top: "res3c_branch2b"
  batch_norm_param {
    use_global_stats: true
  }
}
layer {
  name: "scale3c_branch2b"
  type: "Scale"
  bottom: "res3c_branch2b"
  top: "res3c_branch2b"
  scale_param {
    bias_term: true
  }
}
layer {
  name: "res3c_branch2b_relu"
  type: "ReLU"
  bottom: "res3c_branch2b"
  top: "res3c_branch2b"
}
layer {
  name: "res3c_branch2c"
  type: "Convolution"
  bottom: "res3c_branch2b"
  top: "res3c_branch2c"
  convolution_param {
    num_output: 512
    bias_term: false
    pad: 0
    kernel_size: 1
    stride: 1
  }
}
layer {
  name: "bn3c_branch2c"
  type: "BatchNorm"
  bottom: "res3c_branch2c"
  top: "res3c_branch2c"
  batch_norm_param {
    use_global_stats: true
  }
}
layer {
  name: "scale3c_branch2c"
  type: "Scale"
  bottom: "res3c_branch2c"
  top: "res3c_branch2c"
  scale_param {
    bias_term: true
  }
}
layer {
  name: "res3c"
  type: "Eltwise"
  bottom: "res3b"
  bottom: "res3c_branch2c"
  top: "res3c"
}
layer {
  name: "res3c_relu"
  type: "ReLU"
  bottom: "res3c"
  top: "res3c"
}
layer {
  name: "res3d_branch2a"
  type: "Convolution"
  bottom: "res3c"
  top: "res3d_branch2a"
  convolution_param {
    num_output: 128
    bias_term: false
    pad: 0
    kernel_size: 1
    stride: 1
  }
}
layer {
  name: "bn3d_branch2a"
  type: "BatchNorm"
  bottom: "res3d_branch2a"
  top: "res3d_branch2a"
  batch_norm_param {
    use_global_stats: true
  }
}
layer {
  name: "scale3d_branch2a"
  type: "Scale"
  bottom: "res3d_branch2a"
  top: "res3d_branch2a"
  scale_param {
    bias_term: true
  }
}
layer {
  name: "res3d_branch2a_relu"
  type: "ReLU"
  bottom: "res3d_branch2a"
  top: "res3d_branch2a"
}
layer {
  name: "res3d_branch2b"
  type: "Convolution"
  bottom: "res3d_branch2a"
  top: "res3d_branch2b"
  convolution_param {
    num_output: 128
    bias_term: false
    pad: 1
    kernel_size: 3
    stride: 1
  }
}
layer {
  name: "bn3d_branch2b"
  type: "BatchNorm"
  bottom: "res3d_branch2b"
  top: "res3d_branch2b"
  batch_norm_param {
    use_global_stats: true
  }
}
layer {
  name: "scale3d_branch2b"
  type: "Scale"
  bottom: "res3d_branch2b"
  top: "res3d_branch2b"
  scale_param {
    bias_term: true
  }
}
layer {
  name: "res3d_branch2b_relu"
  type: "ReLU"
  bottom: "res3d_branch2b"
  top: "res3d_branch2b"
}
layer {
  name: "res3d_branch2c"
  type: "Convolution"
  bottom: "res3d_branch2b"
  top: "res3d_branch2c"
  convolution_param {
    num_output: 512
    bias_term: false
    pad: 0
    kernel_size: 1
    stride: 1
  }
}
layer {
  name: "bn3d_branch2c"
  type: "BatchNorm"
  bottom: "res3d_branch2c"
  top: "res3d_branch2c"
  batch_norm_param {
    use_global_stats: true
  }
}
layer {
  name: "scale3d_branch2c"
  type: "Scale"
  bottom: "res3d_branch2c"
  top: "res3d_branch2c"
  scale_param {
    bias_term: true
  }
}
layer {
  name: "res3d"
  type: "Eltwise"
  bottom: "res3c"
  bottom: "res3d_branch2c"
  top: "res3d"
}
layer {
  name: "res3d_relu"
  type: "ReLU"
  bottom: "res3d"
  top: "res3d"
}
layer {
  name: "drop3"
  type: "Dropout"
  bottom: "res3d"
  top: "res3d"
  dropout_param {
    dropout_ratio: 0.5
  }
}
layer {
  name: "res4a_branch1"
  type: "Convolution"
  bottom: "res3d"
  top: "res4a_branch1"
  convolution_param {
    num_output: 1024
    bias_term: false
    pad: 0
    kernel_size: 1
    stride: 2
  }
}
layer {
  name: "bn4a_branch1"
  type: "BatchNorm"
  bottom: "res4a_branch1"
  top: "res4a_branch1"
  batch_norm_param {
    use_global_stats: true
  }
}
layer {
  name: "scale4a_branch1"
  type: "Scale"
  bottom: "res4a_branch1"
  top: "res4a_branch1"
  scale_param {
    bias_term: true
  }
}
layer {
  name: "res4a_branch2a"
  type: "Convolution"
  bottom: "res3d"
  top: "res4a_branch2a"
  convolution_param {
    num_output: 256
    bias_term: false
    pad: 0
    kernel_size: 1
    stride: 2
  }
}
layer {
  name: "bn4a_branch2a"
  type: "BatchNorm"
  bottom: "res4a_branch2a"
  top: "res4a_branch2a"
  batch_norm_param {
    use_global_stats: true
  }
}
layer {
  name: "scale4a_branch2a"
  type: "Scale"
  bottom: "res4a_branch2a"
  top: "res4a_branch2a"
  scale_param {
    bias_term: true
  }
}
layer {
  name: "res4a_branch2a_relu"
  type: "ReLU"
  bottom: "res4a_branch2a"
  top: "res4a_branch2a"
}
layer {
  name: "res4a_branch2b"
  type: "Convolution"
  bottom: "res4a_branch2a"
  top: "res4a_branch2b"
  convolution_param {
    num_output: 256
    bias_term: false
    pad: 1
    kernel_size: 3
    stride: 1
  }
}
layer {
  name: "bn4a_branch2b"
  type: "BatchNorm"
  bottom: "res4a_branch2b"
  top: "res4a_branch2b"
  batch_norm_param {
    use_global_stats: true
  }
}
layer {
  name: "scale4a_branch2b"
  type: "Scale"
  bottom: "res4a_branch2b"
  top: "res4a_branch2b"
  scale_param {
    bias_term: true
  }
}
layer {
  name: "res4a_branch2b_relu"
  type: "ReLU"
  bottom: "res4a_branch2b"
  top: "res4a_branch2b"
}
layer {
  name: "res4a_branch2c"
  type: "Convolution"
  bottom: "res4a_branch2b"
  top: "res4a_branch2c"
  convolution_param {
    num_output: 1024
    bias_term: false
    pad: 0
    kernel_size: 1
    stride: 1
  }
}
layer {
  name: "bn4a_branch2c"
  type: "BatchNorm"
  bottom: "res4a_branch2c"
  top: "res4a_branch2c"
  batch_norm_param {
    use_global_stats: true
  }
}
layer {
  name: "scale4a_branch2c"
  type: "Scale"
  bottom: "res4a_branch2c"
  top: "res4a_branch2c"
  scale_param {
    bias_term: true
  }
}
layer {
  name: "res4a"
  type: "Eltwise"
  bottom: "res4a_branch1"
  bottom: "res4a_branch2c"
  top: "res4a"
}
layer {
  name: "res4a_relu"
  type: "ReLU"
  bottom: "res4a"
  top: "res4a"
}
layer {
  name: "res4b_branch2a"
  type: "Convolution"
  bottom: "res4a"
  top: "res4b_branch2a"
  convolution_param {
    num_output: 256
    bias_term: false
    pad: 0
    kernel_size: 1
    stride: 1
  }
}
layer {
  name: "bn4b_branch2a"
  type: "BatchNorm"
  bottom: "res4b_branch2a"
  top: "res4b_branch2a"
  batch_norm_param {
    use_global_stats: true
  }
}
layer {
  name: "scale4b_branch2a"
  type: "Scale"
  bottom: "res4b_branch2a"
  top: "res4b_branch2a"
  scale_param {
    bias_term: true
  }
}
layer {
  name: "res4b_branch2a_relu"
  type: "ReLU"
  bottom: "res4b_branch2a"
  top: "res4b_branch2a"
}
layer {
  name: "res4b_branch2b"
  type: "Convolution"
  bottom: "res4b_branch2a"
  top: "res4b_branch2b"
  convolution_param {
    num_output: 256
    bias_term: false
    pad: 1
    kernel_size: 3
    stride: 1
  }
}
layer {
  name: "bn4b_branch2b"
  type: "BatchNorm"
  bottom: "res4b_branch2b"
  top: "res4b_branch2b"
  batch_norm_param {
    use_global_stats: true
  }
}
layer {
  name: "scale4b_branch2b"
  type: "Scale"
  bottom: "res4b_branch2b"
  top: "res4b_branch2b"
  scale_param {
    bias_term: true
  }
}
layer {
  name: "res4b_branch2b_relu"
  type: "ReLU"
  bottom: "res4b_branch2b"
  top: "res4b_branch2b"
}
layer {
  name: "res4b_branch2c"
  type: "Convolution"
  bottom: "res4b_branch2b"
  top: "res4b_branch2c"
  convolution_param {
    num_output: 1024
    bias_term: false
    pad: 0
    kernel_size: 1
    stride: 1
  }
}
layer {
  name: "bn4b_branch2c"
  type: "BatchNorm"
  bottom: "res4b_branch2c"
  top: "res4b_branch2c"
  batch_norm_param {
    use_global_stats: true
  }
}
layer {
  name: "scale4b_branch2c"
  type: "Scale"
  bottom: "res4b_branch2c"
  top: "res4b_branch2c"
  scale_param {
    bias_term: true
  }
}
layer {
  name: "res4b"
  type: "Eltwise"
  bottom: "res4a"
  bottom: "res4b_branch2c"
  top: "res4b"
}
layer {
  name: "res4b_relu"
  type: "ReLU"
  bottom: "res4b"
  top: "res4b"
}
layer {
  name: "res4c_branch2a"
  type: "Convolution"
  bottom: "res4b"
  top: "res4c_branch2a"
  convolution_param {
    num_output: 256
    bias_term: false
    pad: 0
    kernel_size: 1
    stride: 1
  }
}
layer {
  name: "bn4c_branch2a"
  type: "BatchNorm"
  bottom: "res4c_branch2a"
  top: "res4c_branch2a"
  batch_norm_param {
    use_global_stats: true
  }
}
layer {
  name: "scale4c_branch2a"
  type: "Scale"
  bottom: "res4c_branch2a"
  top: "res4c_branch2a"
  scale_param {
    bias_term: true
  }
}
layer {
  name: "res4c_branch2a_relu"
  type: "ReLU"
  bottom: "res4c_branch2a"
  top: "res4c_branch2a"
}
layer {
  name: "res4c_branch2b"
  type: "Convolution"
  bottom: "res4c_branch2a"
  top: "res4c_branch2b"
  convolution_param {
    num_output: 256
    bias_term: false
    pad: 1
    kernel_size: 3
    stride: 1
  }
}
layer {
  name: "bn4c_branch2b"
  type: "BatchNorm"
  bottom: "res4c_branch2b"
  top: "res4c_branch2b"
  batch_norm_param {
    use_global_stats: true
  }
}
layer {
  name: "scale4c_branch2b"
  type: "Scale"
  bottom: "res4c_branch2b"
  top: "res4c_branch2b"
  scale_param {
    bias_term: true
  }
}
layer {
  name: "res4c_branch2b_relu"
  type: "ReLU"
  bottom: "res4c_branch2b"
  top: "res4c_branch2b"
}
layer {
  name: "res4c_branch2c"
  type: "Convolution"
  bottom: "res4c_branch2b"
  top: "res4c_branch2c"
  convolution_param {
    num_output: 1024
    bias_term: false
    pad: 0
    kernel_size: 1
    stride: 1
  }
}
layer {
  name: "bn4c_branch2c"
  type: "BatchNorm"
  bottom: "res4c_branch2c"
  top: "res4c_branch2c"
  batch_norm_param {
    use_global_stats: true
  }
}
layer {
  name: "scale4c_branch2c"
  type: "Scale"
  bottom: "res4c_branch2c"
  top: "res4c_branch2c"
  scale_param {
    bias_term: true
  }
}
layer {
  name: "res4c"
  type: "Eltwise"
  bottom: "res4b"
  bottom: "res4c_branch2c"
  top: "res4c"
}
layer {
  name: "res4c_relu"
  type: "ReLU"
  bottom: "res4c"
  top: "res4c"
}
layer {
  name: "res4d_branch2a"
  type: "Convolution"
  bottom: "res4c"
  top: "res4d_branch2a"
  convolution_param {
    num_output: 256
    bias_term: false
    pad: 0
    kernel_size: 1
    stride: 1
  }
}
layer {
  name: "bn4d_branch2a"
  type: "BatchNorm"
  bottom: "res4d_branch2a"
  top: "res4d_branch2a"
  batch_norm_param {
    use_global_stats: true
  }
}
layer {
  name: "scale4d_branch2a"
  type: "Scale"
  bottom: "res4d_branch2a"
  top: "res4d_branch2a"
  scale_param {
    bias_term: true
  }
}
layer {
  name: "res4d_branch2a_relu"
  type: "ReLU"
  bottom: "res4d_branch2a"
  top: "res4d_branch2a"
}
layer {
  name: "res4d_branch2b"
  type: "Convolution"
  bottom: "res4d_branch2a"
  top: "res4d_branch2b"
  convolution_param {
    num_output: 256
    bias_term: false
    pad: 1
    kernel_size: 3
    stride: 1
  }
}
layer {
  name: "bn4d_branch2b"
  type: "BatchNorm"
  bottom: "res4d_branch2b"
  top: "res4d_branch2b"
  batch_norm_param {
    use_global_stats: true
  }
}
layer {
  name: "scale4d_branch2b"
  type: "Scale"
  bottom: "res4d_branch2b"
  top: "res4d_branch2b"
  scale_param {
    bias_term: true
  }
}
layer {
  name: "res4d_branch2b_relu"
  type: "ReLU"
  bottom: "res4d_branch2b"
  top: "res4d_branch2b"
}
layer {
  name: "res4d_branch2c"
  type: "Convolution"
  bottom: "res4d_branch2b"
  top: "res4d_branch2c"
  convolution_param {
    num_output: 1024
    bias_term: false
    pad: 0
    kernel_size: 1
    stride: 1
  }
}
layer {
  name: "bn4d_branch2c"
  type: "BatchNorm"
  bottom: "res4d_branch2c"
  top: "res4d_branch2c"
  batch_norm_param {
    use_global_stats: true
  }
}
layer {
  name: "scale4d_branch2c"
  type: "Scale"
  bottom: "res4d_branch2c"
  top: "res4d_branch2c"
  scale_param {
    bias_term: true
  }
}
layer {
  name: "res4d"
  type: "Eltwise"
  bottom: "res4c"
  bottom: "res4d_branch2c"
  top: "res4d"
}
layer {
  name: "res4d_relu"
  type: "ReLU"
  bottom: "res4d"
  top: "res4d"
}
layer {
  name: "res4e_branch2a"
  type: "Convolution"
  bottom: "res4d"
  top: "res4e_branch2a"
  convolution_param {
    num_output: 256
    bias_term: false
    pad: 0
    kernel_size: 1
    stride: 1
  }
}
layer {
  name: "bn4e_branch2a"
  type: "BatchNorm"
  bottom: "res4e_branch2a"
  top: "res4e_branch2a"
  batch_norm_param {
    use_global_stats: true
  }
}
layer {
  name: "scale4e_branch2a"
  type: "Scale"
  bottom: "res4e_branch2a"
  top: "res4e_branch2a"
  scale_param {
    bias_term: true
  }
}
layer {
  name: "res4e_branch2a_relu"
  type: "ReLU"
  bottom: "res4e_branch2a"
  top: "res4e_branch2a"
}
layer {
  name: "res4e_branch2b"
  type: "Convolution"
  bottom: "res4e_branch2a"
  top: "res4e_branch2b"
  convolution_param {
    num_output: 256
    bias_term: false
    pad: 1
    kernel_size: 3
    stride: 1
  }
}
layer {
  name: "bn4e_branch2b"
  type: "BatchNorm"
  bottom: "res4e_branch2b"
  top: "res4e_branch2b"
  batch_norm_param {
    use_global_stats: true
  }
}
layer {
  name: "scale4e_branch2b"
  type: "Scale"
  bottom: "res4e_branch2b"
  top: "res4e_branch2b"
  scale_param {
    bias_term: true
  }
}
layer {
  name: "res4e_branch2b_relu"
  type: "ReLU"
  bottom: "res4e_branch2b"
  top: "res4e_branch2b"
}
layer {
  name: "res4e_branch2c"
  type: "Convolution"
  bottom: "res4e_branch2b"
  top: "res4e_branch2c"
  convolution_param {
    num_output: 1024
    bias_term: false
    pad: 0
    kernel_size: 1
    stride: 1
  }
}
layer {
  name: "bn4e_branch2c"
  type: "BatchNorm"
  bottom: "res4e_branch2c"
  top: "res4e_branch2c"
  batch_norm_param {
    use_global_stats: true
  }
}
layer {
  name: "scale4e_branch2c"
  type: "Scale"
  bottom: "res4e_branch2c"
  top: "res4e_branch2c"
  scale_param {
    bias_term: true
  }
}
layer {
  name: "res4e"
  type: "Eltwise"
  bottom: "res4d"
  bottom: "res4e_branch2c"
  top: "res4e"
}
layer {
  name: "res4e_relu"
  type: "ReLU"
  bottom: "res4e"
  top: "res4e"
}
layer {
  name: "res4f_branch2a"
  type: "Convolution"
  bottom: "res4e"
  top: "res4f_branch2a"
  convolution_param {
    num_output: 256
    bias_term: false
    pad: 0
    kernel_size: 1
    stride: 1
  }
}
layer {
  name: "bn4f_branch2a"
  type: "BatchNorm"
  bottom: "res4f_branch2a"
  top: "res4f_branch2a"
  batch_norm_param {
    use_global_stats: true
  }
}
layer {
  name: "scale4f_branch2a"
  type: "Scale"
  bottom: "res4f_branch2a"
  top: "res4f_branch2a"
  scale_param {
    bias_term: true
  }
}
layer {
  name: "res4f_branch2a_relu"
  type: "ReLU"
  bottom: "res4f_branch2a"
  top: "res4f_branch2a"
}
layer {
  name: "res4f_branch2b"
  type: "Convolution"
  bottom: "res4f_branch2a"
  top: "res4f_branch2b"
  convolution_param {
    num_output: 256
    bias_term: false
    pad: 1
    kernel_size: 3
    stride: 1
  }
}
layer {
  name: "bn4f_branch2b"
  type: "BatchNorm"
  bottom: "res4f_branch2b"
  top: "res4f_branch2b"
  batch_norm_param {
    use_global_stats: true
  }
}
layer {
  name: "scale4f_branch2b"
  type: "Scale"
  bottom: "res4f_branch2b"
  top: "res4f_branch2b"
  scale_param {
    bias_term: true
  }
}
layer {
  name: "res4f_branch2b_relu"
  type: "ReLU"
  bottom: "res4f_branch2b"
  top: "res4f_branch2b"
}
layer {
  name: "res4f_branch2c"
  type: "Convolution"
  bottom: "res4f_branch2b"
  top: "res4f_branch2c"
  convolution_param {
    num_output: 1024
    bias_term: false
    pad: 0
    kernel_size: 1
    stride: 1
  }
}
layer {
  name: "bn4f_branch2c"
  type: "BatchNorm"
  bottom: "res4f_branch2c"
  top: "res4f_branch2c"
  batch_norm_param {
    use_global_stats: true
  }
}
layer {
  name: "scale4f_branch2c"
  type: "Scale"
  bottom: "res4f_branch2c"
  top: "res4f_branch2c"
  scale_param {
    bias_term: true
  }
}
layer {
  name: "res4f"
  type: "Eltwise"
  bottom: "res4e"
  bottom: "res4f_branch2c"
  top: "res4f"
}
layer {
  name: "res4f_relu"
  type: "ReLU"
  bottom: "res4f"
  top: "res4f"
}
layer {
  name: "drop4"
  type: "Dropout"
  bottom: "res4f"
  top: "res4f"
  dropout_param {
    dropout_ratio: 0.5
  }
}
layer {
  name: "res5a_branch1"
  type: "Convolution"
  bottom: "res4f"
  top: "res5a_branch1"
  convolution_param {
    num_output: 2048
    bias_term: false
    pad: 0
    kernel_size: 1
    stride: 2
  }
}
layer {
  name: "bn5a_branch1"
  type: "BatchNorm"
  bottom: "res5a_branch1"
  top: "res5a_branch1"
  batch_norm_param {
    use_global_stats: true
  }
}
layer {
  name: "scale5a_branch1"
  type: "Scale"
  bottom: "res5a_branch1"
  top: "res5a_branch1"
  scale_param {
    bias_term: true
  }
}
layer {
  name: "res5a_branch2a"
  type: "Convolution"
  bottom: "res4f"
  top: "res5a_branch2a"
  convolution_param {
    num_output: 512
    bias_term: false
    pad: 0
    kernel_size: 1
    stride: 2
  }
}
layer {
  name: "bn5a_branch2a"
  type: "BatchNorm"
  bottom: "res5a_branch2a"
  top: "res5a_branch2a"
  batch_norm_param {
    use_global_stats: true
  }
}
layer {
  name: "scale5a_branch2a"
  type: "Scale"
  bottom: "res5a_branch2a"
  top: "res5a_branch2a"
  scale_param {
    bias_term: true
  }
}
layer {
  name: "res5a_branch2a_relu"
  type: "ReLU"
  bottom: "res5a_branch2a"
  top: "res5a_branch2a"
}
layer {
  name: "res5a_branch2b"
  type: "Convolution"
  bottom: "res5a_branch2a"
  top: "res5a_branch2b"
  convolution_param {
    num_output: 512
    bias_term: false
    pad: 1
    kernel_size: 3
    stride: 1
  }
}
layer {
  name: "bn5a_branch2b"
  type: "BatchNorm"
  bottom: "res5a_branch2b"
  top: "res5a_branch2b"
  batch_norm_param {
    use_global_stats: true
  }
}
layer {
  name: "scale5a_branch2b"
  type: "Scale"
  bottom: "res5a_branch2b"
  top: "res5a_branch2b"
  scale_param {
    bias_term
I0105 10:27:37.655994 45974 layer_factory.hpp:77] Creating layer data
I0105 10:27:37.662055 45974 net.cpp:84] Creating Layer data
I0105 10:27:37.662083 45974 net.cpp:380] data -> data_RGB
I0105 10:27:37.662104 45974 net.cpp:380] data -> data_Label
I0105 10:27:37.686362 45974 net.cpp:122] Setting up data
I0105 10:27:37.686404 45974 net.cpp:129] Top shape: 1 3 48 48 (6912)
I0105 10:27:37.686416 45974 net.cpp:129] Top shape: 1 1 1 1 (1)
I0105 10:27:37.686424 45974 net.cpp:137] Memory required for data: 27652
I0105 10:27:37.686432 45974 layer_factory.hpp:77] Creating layer conv1
I0105 10:27:37.686467 45974 net.cpp:84] Creating Layer conv1
I0105 10:27:37.686477 45974 net.cpp:406] conv1 <- data_RGB
I0105 10:27:37.686491 45974 net.cpp:380] conv1 -> conv1
I0105 10:27:37.690627 45974 net.cpp:122] Setting up conv1
I0105 10:27:37.690662 45974 net.cpp:129] Top shape: 1 64 24 24 (36864)
I0105 10:27:37.690670 45974 net.cpp:137] Memory required for data: 175108
I0105 10:27:37.690693 45974 layer_factory.hpp:77] Creating layer bn_conv1
I0105 10:27:37.690721 45974 net.cpp:84] Creating Layer bn_conv1
I0105 10:27:37.690728 45974 net.cpp:406] bn_conv1 <- conv1
I0105 10:27:37.690739 45974 net.cpp:367] bn_conv1 -> conv1 (in-place)
I0105 10:27:37.691031 45974 net.cpp:122] Setting up bn_conv1
I0105 10:27:37.691051 45974 net.cpp:129] Top shape: 1 64 24 24 (36864)
I0105 10:27:37.691057 45974 net.cpp:137] Memory required for data: 322564
I0105 10:27:37.691078 45974 layer_factory.hpp:77] Creating layer scale_conv1
I0105 10:27:37.691100 45974 net.cpp:84] Creating Layer scale_conv1
I0105 10:27:37.691108 45974 net.cpp:406] scale_conv1 <- conv1
I0105 10:27:37.691118 45974 net.cpp:367] scale_conv1 -> conv1 (in-place)
I0105 10:27:37.691186 45974 layer_factory.hpp:77] Creating layer scale_conv1
I0105 10:27:37.691371 45974 net.cpp:122] Setting up scale_conv1
I0105 10:27:37.691388 45974 net.cpp:129] Top shape: 1 64 24 24 (36864)
I0105 10:27:37.691395 45974 net.cpp:137] Memory required for data: 470020
I0105 10:27:37.691407 45974 layer_factory.hpp:77] Creating layer conv1_relu
I0105 10:27:37.691419 45974 net.cpp:84] Creating Layer conv1_relu
I0105 10:27:37.691426 45974 net.cpp:406] conv1_relu <- conv1
I0105 10:27:37.691438 45974 net.cpp:367] conv1_relu -> conv1 (in-place)
I0105 10:27:37.691454 45974 net.cpp:122] Setting up conv1_relu
I0105 10:27:37.691464 45974 net.cpp:129] Top shape: 1 64 24 24 (36864)
I0105 10:27:37.691470 45974 net.cpp:137] Memory required for data: 617476
I0105 10:27:37.691476 45974 layer_factory.hpp:77] Creating layer pool1
I0105 10:27:37.691488 45974 net.cpp:84] Creating Layer pool1
I0105 10:27:37.691494 45974 net.cpp:406] pool1 <- conv1
I0105 10:27:37.691510 45974 net.cpp:380] pool1 -> pool1
I0105 10:27:37.691588 45974 net.cpp:122] Setting up pool1
I0105 10:27:37.691601 45974 net.cpp:129] Top shape: 1 64 12 12 (9216)
I0105 10:27:37.691607 45974 net.cpp:137] Memory required for data: 654340
I0105 10:27:37.691614 45974 layer_factory.hpp:77] Creating layer pool1_pool1_0_split
I0105 10:27:37.691628 45974 net.cpp:84] Creating Layer pool1_pool1_0_split
I0105 10:27:37.691635 45974 net.cpp:406] pool1_pool1_0_split <- pool1
I0105 10:27:37.691645 45974 net.cpp:380] pool1_pool1_0_split -> pool1_pool1_0_split_0
I0105 10:27:37.691658 45974 net.cpp:380] pool1_pool1_0_split -> pool1_pool1_0_split_1
I0105 10:27:37.691709 45974 net.cpp:122] Setting up pool1_pool1_0_split
I0105 10:27:37.691721 45974 net.cpp:129] Top shape: 1 64 12 12 (9216)
I0105 10:27:37.691730 45974 net.cpp:129] Top shape: 1 64 12 12 (9216)
I0105 10:27:37.691736 45974 net.cpp:137] Memory required for data: 728068
I0105 10:27:37.691742 45974 layer_factory.hpp:77] Creating layer res2a_branch1
I0105 10:27:37.691758 45974 net.cpp:84] Creating Layer res2a_branch1
I0105 10:27:37.691766 45974 net.cpp:406] res2a_branch1 <- pool1_pool1_0_split_0
I0105 10:27:37.691776 45974 net.cpp:380] res2a_branch1 -> res2a_branch1
I0105 10:27:37.692059 45974 net.cpp:122] Setting up res2a_branch1
I0105 10:27:37.692076 45974 net.cpp:129] Top shape: 1 256 12 12 (36864)
I0105 10:27:37.692083 45974 net.cpp:137] Memory required for data: 875524
I0105 10:27:37.692093 45974 layer_factory.hpp:77] Creating layer bn2a_branch1
I0105 10:27:37.692106 45974 net.cpp:84] Creating Layer bn2a_branch1
I0105 10:27:37.692112 45974 net.cpp:406] bn2a_branch1 <- res2a_branch1
I0105 10:27:37.692122 45974 net.cpp:367] bn2a_branch1 -> res2a_branch1 (in-place)
I0105 10:27:37.692378 45974 net.cpp:122] Setting up bn2a_branch1
I0105 10:27:37.692394 45974 net.cpp:129] Top shape: 1 256 12 12 (36864)
I0105 10:27:37.692401 45974 net.cpp:137] Memory required for data: 1022980
I0105 10:27:37.692420 45974 layer_factory.hpp:77] Creating layer scale2a_branch1
I0105 10:27:37.692430 45974 net.cpp:84] Creating Layer scale2a_branch1
I0105 10:27:37.692436 45974 net.cpp:406] scale2a_branch1 <- res2a_branch1
I0105 10:27:37.692445 45974 net.cpp:367] scale2a_branch1 -> res2a_branch1 (in-place)
I0105 10:27:37.692519 45974 layer_factory.hpp:77] Creating layer scale2a_branch1
I0105 10:27:37.692687 45974 net.cpp:122] Setting up scale2a_branch1
I0105 10:27:37.692703 45974 net.cpp:129] Top shape: 1 256 12 12 (36864)
I0105 10:27:37.692709 45974 net.cpp:137] Memory required for data: 1170436
I0105 10:27:37.692721 45974 layer_factory.hpp:77] Creating layer res2a_branch2a
I0105 10:27:37.692735 45974 net.cpp:84] Creating Layer res2a_branch2a
I0105 10:27:37.692742 45974 net.cpp:406] res2a_branch2a <- pool1_pool1_0_split_1
I0105 10:27:37.692754 45974 net.cpp:380] res2a_branch2a -> res2a_branch2a
I0105 10:27:37.694885 45974 net.cpp:122] Setting up res2a_branch2a
I0105 10:27:37.694916 45974 net.cpp:129] Top shape: 1 64 12 12 (9216)
I0105 10:27:37.694922 45974 net.cpp:137] Memory required for data: 1207300
I0105 10:27:37.694934 45974 layer_factory.hpp:77] Creating layer bn2a_branch2a
I0105 10:27:37.694947 45974 net.cpp:84] Creating Layer bn2a_branch2a
I0105 10:27:37.694953 45974 net.cpp:406] bn2a_branch2a <- res2a_branch2a
I0105 10:27:37.694967 45974 net.cpp:367] bn2a_branch2a -> res2a_branch2a (in-place)
I0105 10:27:37.695230 45974 net.cpp:122] Setting up bn2a_branch2a
I0105 10:27:37.695246 45974 net.cpp:129] Top shape: 1 64 12 12 (9216)
I0105 10:27:37.695253 45974 net.cpp:137] Memory required for data: 1244164
I0105 10:27:37.695276 45974 layer_factory.hpp:77] Creating layer scale2a_branch2a
I0105 10:27:37.695286 45974 net.cpp:84] Creating Layer scale2a_branch2a
I0105 10:27:37.695292 45974 net.cpp:406] scale2a_branch2a <- res2a_branch2a
I0105 10:27:37.695302 45974 net.cpp:367] scale2a_branch2a -> res2a_branch2a (in-place)
I0105 10:27:37.695359 45974 layer_factory.hpp:77] Creating layer scale2a_branch2a
I0105 10:27:37.695515 45974 net.cpp:122] Setting up scale2a_branch2a
I0105 10:27:37.695531 45974 net.cpp:129] Top shape: 1 64 12 12 (9216)
I0105 10:27:37.695538 45974 net.cpp:137] Memory required for data: 1281028
I0105 10:27:37.695549 45974 layer_factory.hpp:77] Creating layer res2a_branch2a_relu
I0105 10:27:37.695559 45974 net.cpp:84] Creating Layer res2a_branch2a_relu
I0105 10:27:37.695564 45974 net.cpp:406] res2a_branch2a_relu <- res2a_branch2a
I0105 10:27:37.695575 45974 net.cpp:367] res2a_branch2a_relu -> res2a_branch2a (in-place)
I0105 10:27:37.695585 45974 net.cpp:122] Setting up res2a_branch2a_relu
I0105 10:27:37.695595 45974 net.cpp:129] Top shape: 1 64 12 12 (9216)
I0105 10:27:37.695600 45974 net.cpp:137] Memory required for data: 1317892
I0105 10:27:37.695606 45974 layer_factory.hpp:77] Creating layer res2a_branch2b
I0105 10:27:37.695618 45974 net.cpp:84] Creating Layer res2a_branch2b
I0105 10:27:37.695624 45974 net.cpp:406] res2a_branch2b <- res2a_branch2a
I0105 10:27:37.695636 45974 net.cpp:380] res2a_branch2b -> res2a_branch2b
I0105 10:27:37.697636 45974 net.cpp:122] Setting up res2a_branch2b
I0105 10:27:37.697667 45974 net.cpp:129] Top shape: 1 64 12 12 (9216)
I0105 10:27:37.697675 45974 net.cpp:137] Memory required for data: 1354756
I0105 10:27:37.697686 45974 layer_factory.hpp:77] Creating layer bn2a_branch2b
I0105 10:27:37.697701 45974 net.cpp:84] Creating Layer bn2a_branch2b
I0105 10:27:37.697708 45974 net.cpp:406] bn2a_branch2b <- res2a_branch2b
I0105 10:27:37.697718 45974 net.cpp:367] bn2a_branch2b -> res2a_branch2b (in-place)
I0105 10:27:37.697991 45974 net.cpp:122] Setting up bn2a_branch2b
I0105 10:27:37.698009 45974 net.cpp:129] Top shape: 1 64 12 12 (9216)
I0105 10:27:37.698015 45974 net.cpp:137] Memory required for data: 1391620
I0105 10:27:37.698030 45974 layer_factory.hpp:77] Creating layer scale2a_branch2b
I0105 10:27:37.698045 45974 net.cpp:84] Creating Layer scale2a_branch2b
I0105 10:27:37.698052 45974 net.cpp:406] scale2a_branch2b <- res2a_branch2b
I0105 10:27:37.698062 45974 net.cpp:367] scale2a_branch2b -> res2a_branch2b (in-place)
I0105 10:27:37.698122 45974 layer_factory.hpp:77] Creating layer scale2a_branch2b
I0105 10:27:37.698285 45974 net.cpp:122] Setting up scale2a_branch2b
I0105 10:27:37.698300 45974 net.cpp:129] Top shape: 1 64 12 12 (9216)
I0105 10:27:37.698307 45974 net.cpp:137] Memory required for data: 1428484
I0105 10:27:37.698318 45974 layer_factory.hpp:77] Creating layer res2a_branch2b_relu
I0105 10:27:37.698328 45974 net.cpp:84] Creating Layer res2a_branch2b_relu
I0105 10:27:37.698334 45974 net.cpp:406] res2a_branch2b_relu <- res2a_branch2b
I0105 10:27:37.698349 45974 net.cpp:367] res2a_branch2b_relu -> res2a_branch2b (in-place)
I0105 10:27:37.698359 45974 net.cpp:122] Setting up res2a_branch2b_relu
I0105 10:27:37.698369 45974 net.cpp:129] Top shape: 1 64 12 12 (9216)
I0105 10:27:37.698374 45974 net.cpp:137] Memory required for data: 1465348
I0105 10:27:37.698380 45974 layer_factory.hpp:77] Creating layer res2a_branch2c
I0105 10:27:37.698392 45974 net.cpp:84] Creating Layer res2a_branch2c
I0105 10:27:37.698398 45974 net.cpp:406] res2a_branch2c <- res2a_branch2b
I0105 10:27:37.698410 45974 net.cpp:380] res2a_branch2c -> res2a_branch2c
I0105 10:27:37.698679 45974 net.cpp:122] Setting up res2a_branch2c
I0105 10:27:37.698696 45974 net.cpp:129] Top shape: 1 256 12 12 (36864)
I0105 10:27:37.698702 45974 net.cpp:137] Memory required for data: 1612804
I0105 10:27:37.698712 45974 layer_factory.hpp:77] Creating layer bn2a_branch2c
I0105 10:27:37.698724 45974 net.cpp:84] Creating Layer bn2a_branch2c
I0105 10:27:37.698731 45974 net.cpp:406] bn2a_branch2c <- res2a_branch2c
I0105 10:27:37.698740 45974 net.cpp:367] bn2a_branch2c -> res2a_branch2c (in-place)
I0105 10:27:37.698987 45974 net.cpp:122] Setting up bn2a_branch2c
I0105 10:27:37.699002 45974 net.cpp:129] Top shape: 1 256 12 12 (36864)
I0105 10:27:37.699009 45974 net.cpp:137] Memory required for data: 1760260
I0105 10:27:37.699023 45974 layer_factory.hpp:77] Creating layer scale2a_branch2c
I0105 10:27:37.699034 45974 net.cpp:84] Creating Layer scale2a_branch2c
I0105 10:27:37.699041 45974 net.cpp:406] scale2a_branch2c <- res2a_branch2c
I0105 10:27:37.699049 45974 net.cpp:367] scale2a_branch2c -> res2a_branch2c (in-place)
I0105 10:27:37.699105 45974 layer_factory.hpp:77] Creating layer scale2a_branch2c
I0105 10:27:37.699252 45974 net.cpp:122] Setting up scale2a_branch2c
I0105 10:27:37.699267 45974 net.cpp:129] Top shape: 1 256 12 12 (36864)
I0105 10:27:37.699273 45974 net.cpp:137] Memory required for data: 1907716
I0105 10:27:37.699285 45974 layer_factory.hpp:77] Creating layer res2a
I0105 10:27:37.699296 45974 net.cpp:84] Creating Layer res2a
I0105 10:27:37.699303 45974 net.cpp:406] res2a <- res2a_branch1
I0105 10:27:37.699311 45974 net.cpp:406] res2a <- res2a_branch2c
I0105 10:27:37.699321 45974 net.cpp:380] res2a -> res2a
I0105 10:27:37.699357 45974 net.cpp:122] Setting up res2a
I0105 10:27:37.699369 45974 net.cpp:129] Top shape: 1 256 12 12 (36864)
I0105 10:27:37.699375 45974 net.cpp:137] Memory required for data: 2055172
I0105 10:27:37.699381 45974 layer_factory.hpp:77] Creating layer res2a_relu
I0105 10:27:37.699390 45974 net.cpp:84] Creating Layer res2a_relu
I0105 10:27:37.699396 45974 net.cpp:406] res2a_relu <- res2a
I0105 10:27:37.699407 45974 net.cpp:367] res2a_relu -> res2a (in-place)
I0105 10:27:37.699416 45974 net.cpp:122] Setting up res2a_relu
I0105 10:27:37.699425 45974 net.cpp:129] Top shape: 1 256 12 12 (36864)
I0105 10:27:37.699431 45974 net.cpp:137] Memory required for data: 2202628
I0105 10:27:37.699437 45974 layer_factory.hpp:77] Creating layer res2a_res2a_relu_0_split
I0105 10:27:37.699445 45974 net.cpp:84] Creating Layer res2a_res2a_relu_0_split
I0105 10:27:37.699451 45974 net.cpp:406] res2a_res2a_relu_0_split <- res2a
I0105 10:27:37.699460 45974 net.cpp:380] res2a_res2a_relu_0_split -> res2a_res2a_relu_0_split_0
I0105 10:27:37.699470 45974 net.cpp:380] res2a_res2a_relu_0_split -> res2a_res2a_relu_0_split_1
I0105 10:27:37.699517 45974 net.cpp:122] Setting up res2a_res2a_relu_0_split
I0105 10:27:37.699528 45974 net.cpp:129] Top shape: 1 256 12 12 (36864)
I0105 10:27:37.699537 45974 net.cpp:129] Top shape: 1 256 12 12 (36864)
I0105 10:27:37.699542 45974 net.cpp:137] Memory required for data: 2497540
I0105 10:27:37.699548 45974 layer_factory.hpp:77] Creating layer res2b_branch2a
I0105 10:27:37.699559 45974 net.cpp:84] Creating Layer res2b_branch2a
I0105 10:27:37.699565 45974 net.cpp:406] res2b_branch2a <- res2a_res2a_relu_0_split_0
I0105 10:27:37.699578 45974 net.cpp:380] res2b_branch2a -> res2b_branch2a
I0105 10:27:37.699838 45974 net.cpp:122] Setting up res2b_branch2a
I0105 10:27:37.699851 45974 net.cpp:129] Top shape: 1 64 12 12 (9216)
I0105 10:27:37.699857 45974 net.cpp:137] Memory required for data: 2534404
I0105 10:27:37.699867 45974 layer_factory.hpp:77] Creating layer bn2b_branch2a
I0105 10:27:37.699878 45974 net.cpp:84] Creating Layer bn2b_branch2a
I0105 10:27:37.699885 45974 net.cpp:406] bn2b_branch2a <- res2b_branch2a
I0105 10:27:37.699894 45974 net.cpp:367] bn2b_branch2a -> res2b_branch2a (in-place)
I0105 10:27:37.700157 45974 net.cpp:122] Setting up bn2b_branch2a
I0105 10:27:37.700171 45974 net.cpp:129] Top shape: 1 64 12 12 (9216)
I0105 10:27:37.700178 45974 net.cpp:137] Memory required for data: 2571268
I0105 10:27:37.700197 45974 layer_factory.hpp:77] Creating layer scale2b_branch2a
I0105 10:27:37.700208 45974 net.cpp:84] Creating Layer scale2b_branch2a
I0105 10:27:37.700214 45974 net.cpp:406] scale2b_branch2a <- res2b_branch2a
I0105 10:27:37.700227 45974 net.cpp:367] scale2b_branch2a -> res2b_branch2a (in-place)
I0105 10:27:37.700282 45974 layer_factory.hpp:77] Creating layer scale2b_branch2a
I0105 10:27:37.700438 45974 net.cpp:122] Setting up scale2b_branch2a
I0105 10:27:37.700450 45974 net.cpp:129] Top shape: 1 64 12 12 (9216)
I0105 10:27:37.700456 45974 net.cpp:137] Memory required for data: 2608132
I0105 10:27:37.700467 45974 layer_factory.hpp:77] Creating layer res2b_branch2a_relu
I0105 10:27:37.700476 45974 net.cpp:84] Creating Layer res2b_branch2a_relu
I0105 10:27:37.700482 45974 net.cpp:406] res2b_branch2a_relu <- res2b_branch2a
I0105 10:27:37.700493 45974 net.cpp:367] res2b_branch2a_relu -> res2b_branch2a (in-place)
I0105 10:27:37.700515 45974 net.cpp:122] Setting up res2b_branch2a_relu
I0105 10:27:37.700526 45974 net.cpp:129] Top shape: 1 64 12 12 (9216)
I0105 10:27:37.700532 45974 net.cpp:137] Memory required for data: 2644996
I0105 10:27:37.700538 45974 layer_factory.hpp:77] Creating layer res2b_branch2b
I0105 10:27:37.700551 45974 net.cpp:84] Creating Layer res2b_branch2b
I0105 10:27:37.700556 45974 net.cpp:406] res2b_branch2b <- res2b_branch2a
I0105 10:27:37.700565 45974 net.cpp:380] res2b_branch2b -> res2b_branch2b
I0105 10:27:37.700856 45974 net.cpp:122] Setting up res2b_branch2b
I0105 10:27:37.700871 45974 net.cpp:129] Top shape: 1 64 12 12 (9216)
I0105 10:27:37.700878 45974 net.cpp:137] Memory required for data: 2681860
I0105 10:27:37.700887 45974 layer_factory.hpp:77] Creating layer bn2b_branch2b
I0105 10:27:37.700896 45974 net.cpp:84] Creating Layer bn2b_branch2b
I0105 10:27:37.700903 45974 net.cpp:406] bn2b_branch2b <- res2b_branch2b
I0105 10:27:37.700914 45974 net.cpp:367] bn2b_branch2b -> res2b_branch2b (in-place)
I0105 10:27:37.701176 45974 net.cpp:122] Setting up bn2b_branch2b
I0105 10:27:37.701189 45974 net.cpp:129] Top shape: 1 64 12 12 (9216)
I0105 10:27:37.701195 45974 net.cpp:137] Memory required for data: 2718724
I0105 10:27:37.701207 45974 layer_factory.hpp:77] Creating layer scale2b_branch2b
I0105 10:27:37.701220 45974 net.cpp:84] Creating Layer scale2b_branch2b
I0105 10:27:37.701226 45974 net.cpp:406] scale2b_branch2b <- res2b_branch2b
I0105 10:27:37.701234 45974 net.cpp:367] scale2b_branch2b -> res2b_branch2b (in-place)
I0105 10:27:37.701289 45974 layer_factory.hpp:77] Creating layer scale2b_branch2b
I0105 10:27:37.701450 45974 net.cpp:122] Setting up scale2b_branch2b
I0105 10:27:37.701462 45974 net.cpp:129] Top shape: 1 64 12 12 (9216)
I0105 10:27:37.701468 45974 net.cpp:137] Memory required for data: 2755588
I0105 10:27:37.701479 45974 layer_factory.hpp:77] Creating layer res2b_branch2b_relu
I0105 10:27:37.701494 45974 net.cpp:84] Creating Layer res2b_branch2b_relu
I0105 10:27:37.701501 45974 net.cpp:406] res2b_branch2b_relu <- res2b_branch2b
I0105 10:27:37.701509 45974 net.cpp:367] res2b_branch2b_relu -> res2b_branch2b (in-place)
I0105 10:27:37.701522 45974 net.cpp:122] Setting up res2b_branch2b_relu
I0105 10:27:37.701531 45974 net.cpp:129] Top shape: 1 64 12 12 (9216)
I0105 10:27:37.701537 45974 net.cpp:137] Memory required for data: 2792452
I0105 10:27:37.701544 45974 layer_factory.hpp:77] Creating layer res2b_branch2c
I0105 10:27:37.701557 45974 net.cpp:84] Creating Layer res2b_branch2c
I0105 10:27:37.701565 45974 net.cpp:406] res2b_branch2c <- res2b_branch2b
I0105 10:27:37.701580 45974 net.cpp:380] res2b_branch2c -> res2b_branch2c
I0105 10:27:37.701844 45974 net.cpp:122] Setting up res2b_branch2c
I0105 10:27:37.701858 45974 net.cpp:129] Top shape: 1 256 12 12 (36864)
I0105 10:27:37.701864 45974 net.cpp:137] Memory required for data: 2939908
I0105 10:27:37.701874 45974 layer_factory.hpp:77] Creating layer bn2b_branch2c
I0105 10:27:37.701885 45974 net.cpp:84] Creating Layer bn2b_branch2c
I0105 10:27:37.701891 45974 net.cpp:406] bn2b_branch2c <- res2b_branch2c
I0105 10:27:37.701900 45974 net.cpp:367] bn2b_branch2c -> res2b_branch2c (in-place)
I0105 10:27:37.702147 45974 net.cpp:122] Setting up bn2b_branch2c
I0105 10:27:37.702158 45974 net.cpp:129] Top shape: 1 256 12 12 (36864)
I0105 10:27:37.702164 45974 net.cpp:137] Memory required for data: 3087364
I0105 10:27:37.702178 45974 layer_factory.hpp:77] Creating layer scale2b_branch2c
I0105 10:27:37.702189 45974 net.cpp:84] Creating Layer scale2b_branch2c
I0105 10:27:37.702195 45974 net.cpp:406] scale2b_branch2c <- res2b_branch2c
I0105 10:27:37.702204 45974 net.cpp:367] scale2b_branch2c -> res2b_branch2c (in-place)
I0105 10:27:37.702260 45974 layer_factory.hpp:77] Creating layer scale2b_branch2c
I0105 10:27:37.702407 45974 net.cpp:122] Setting up scale2b_branch2c
I0105 10:27:37.702419 45974 net.cpp:129] Top shape: 1 256 12 12 (36864)
I0105 10:27:37.702425 45974 net.cpp:137] Memory required for data: 3234820
I0105 10:27:37.702435 45974 layer_factory.hpp:77] Creating layer res2b
I0105 10:27:37.702446 45974 net.cpp:84] Creating Layer res2b
I0105 10:27:37.702453 45974 net.cpp:406] res2b <- res2a_res2a_relu_0_split_1
I0105 10:27:37.702461 45974 net.cpp:406] res2b <- res2b_branch2c
I0105 10:27:37.702471 45974 net.cpp:380] res2b -> res2b
I0105 10:27:37.702508 45974 net.cpp:122] Setting up res2b
I0105 10:27:37.702520 45974 net.cpp:129] Top shape: 1 256 12 12 (36864)
I0105 10:27:37.702527 45974 net.cpp:137] Memory required for data: 3382276
I0105 10:27:37.702533 45974 layer_factory.hpp:77] Creating layer res2b_relu
I0105 10:27:37.702543 45974 net.cpp:84] Creating Layer res2b_relu
I0105 10:27:37.702549 45974 net.cpp:406] res2b_relu <- res2b
I0105 10:27:37.702559 45974 net.cpp:367] res2b_relu -> res2b (in-place)
I0105 10:27:37.702569 45974 net.cpp:122] Setting up res2b_relu
I0105 10:27:37.702579 45974 net.cpp:129] Top shape: 1 256 12 12 (36864)
I0105 10:27:37.702584 45974 net.cpp:137] Memory required for data: 3529732
I0105 10:27:37.702590 45974 layer_factory.hpp:77] Creating layer res2b_res2b_relu_0_split
I0105 10:27:37.702599 45974 net.cpp:84] Creating Layer res2b_res2b_relu_0_split
I0105 10:27:37.702605 45974 net.cpp:406] res2b_res2b_relu_0_split <- res2b
I0105 10:27:37.702612 45974 net.cpp:380] res2b_res2b_relu_0_split -> res2b_res2b_relu_0_split_0
I0105 10:27:37.702621 45974 net.cpp:380] res2b_res2b_relu_0_split -> res2b_res2b_relu_0_split_1
I0105 10:27:37.702670 45974 net.cpp:122] Setting up res2b_res2b_relu_0_split
I0105 10:27:37.702682 45974 net.cpp:129] Top shape: 1 256 12 12 (36864)
I0105 10:27:37.702689 45974 net.cpp:129] Top shape: 1 256 12 12 (36864)
I0105 10:27:37.702695 45974 net.cpp:137] Memory required for data: 3824644
I0105 10:27:37.702702 45974 layer_factory.hpp:77] Creating layer res2c_branch2a
I0105 10:27:37.702713 45974 net.cpp:84] Creating Layer res2c_branch2a
I0105 10:27:37.702718 45974 net.cpp:406] res2c_branch2a <- res2b_res2b_relu_0_split_0
I0105 10:27:37.702730 45974 net.cpp:380] res2c_branch2a -> res2c_branch2a
I0105 10:27:37.702992 45974 net.cpp:122] Setting up res2c_branch2a
I0105 10:27:37.703006 45974 net.cpp:129] Top shape: 1 64 12 12 (9216)
I0105 10:27:37.703011 45974 net.cpp:137] Memory required for data: 3861508
I0105 10:27:37.703019 45974 layer_factory.hpp:77] Creating layer bn2c_branch2a
I0105 10:27:37.703032 45974 net.cpp:84] Creating Layer bn2c_branch2a
I0105 10:27:37.703039 45974 net.cpp:406] bn2c_branch2a <- res2c_branch2a
I0105 10:27:37.703048 45974 net.cpp:367] bn2c_branch2a -> res2c_branch2a (in-place)
I0105 10:27:37.703313 45974 net.cpp:122] Setting up bn2c_branch2a
I0105 10:27:37.703325 45974 net.cpp:129] Top shape: 1 64 12 12 (9216)
I0105 10:27:37.703332 45974 net.cpp:137] Memory required for data: 3898372
I0105 10:27:37.703344 45974 layer_factory.hpp:77] Creating layer scale2c_branch2a
I0105 10:27:37.703354 45974 net.cpp:84] Creating Layer scale2c_branch2a
I0105 10:27:37.703361 45974 net.cpp:406] scale2c_branch2a <- res2c_branch2a
I0105 10:27:37.703369 45974 net.cpp:367] scale2c_branch2a -> res2c_branch2a (in-place)
I0105 10:27:37.703433 45974 layer_factory.hpp:77] Creating layer scale2c_branch2a
I0105 10:27:37.703588 45974 net.cpp:122] Setting up scale2c_branch2a
I0105 10:27:37.703603 45974 net.cpp:129] Top shape: 1 64 12 12 (9216)
I0105 10:27:37.703608 45974 net.cpp:137] Memory required for data: 3935236
I0105 10:27:37.703619 45974 layer_factory.hpp:77] Creating layer res2c_branch2a_relu
I0105 10:27:37.703627 45974 net.cpp:84] Creating Layer res2c_branch2a_relu
I0105 10:27:37.703634 45974 net.cpp:406] res2c_branch2a_relu <- res2c_branch2a
I0105 10:27:37.703642 45974 net.cpp:367] res2c_branch2a_relu -> res2c_branch2a (in-place)
I0105 10:27:37.703651 45974 net.cpp:122] Setting up res2c_branch2a_relu
I0105 10:27:37.703660 45974 net.cpp:129] Top shape: 1 64 12 12 (9216)
I0105 10:27:37.703665 45974 net.cpp:137] Memory required for data: 3972100
I0105 10:27:37.703672 45974 layer_factory.hpp:77] Creating layer res2c_branch2b
I0105 10:27:37.703685 45974 net.cpp:84] Creating Layer res2c_branch2b
I0105 10:27:37.703692 45974 net.cpp:406] res2c_branch2b <- res2c_branch2a
I0105 10:27:37.703701 45974 net.cpp:380] res2c_branch2b -> res2c_branch2b
I0105 10:27:37.703994 45974 net.cpp:122] Setting up res2c_branch2b
I0105 10:27:37.704006 45974 net.cpp:129] Top shape: 1 64 12 12 (9216)
I0105 10:27:37.704012 45974 net.cpp:137] Memory required for data: 4008964
I0105 10:27:37.704021 45974 layer_factory.hpp:77] Creating layer bn2c_branch2b
I0105 10:27:37.704031 45974 net.cpp:84] Creating Layer bn2c_branch2b
I0105 10:27:37.704037 45974 net.cpp:406] bn2c_branch2b <- res2c_branch2b
I0105 10:27:37.704047 45974 net.cpp:367] bn2c_branch2b -> res2c_branch2b (in-place)
I0105 10:27:37.704315 45974 net.cpp:122] Setting up bn2c_branch2b
I0105 10:27:37.704327 45974 net.cpp:129] Top shape: 1 64 12 12 (9216)
I0105 10:27:37.704334 45974 net.cpp:137] Memory required for data: 4045828
I0105 10:27:37.704346 45974 layer_factory.hpp:77] Creating layer scale2c_branch2b
I0105 10:27:37.704355 45974 net.cpp:84] Creating Layer scale2c_branch2b
I0105 10:27:37.704361 45974 net.cpp:406] scale2c_branch2b <- res2c_branch2b
I0105 10:27:37.704370 45974 net.cpp:367] scale2c_branch2b -> res2c_branch2b (in-place)
I0105 10:27:37.704428 45974 layer_factory.hpp:77] Creating layer scale2c_branch2b
I0105 10:27:37.704600 45974 net.cpp:122] Setting up scale2c_branch2b
I0105 10:27:37.704614 45974 net.cpp:129] Top shape: 1 64 12 12 (9216)
I0105 10:27:37.704620 45974 net.cpp:137] Memory required for data: 4082692
I0105 10:27:37.704632 45974 layer_factory.hpp:77] Creating layer res2c_branch2b_relu
I0105 10:27:37.704639 45974 net.cpp:84] Creating Layer res2c_branch2b_relu
I0105 10:27:37.704646 45974 net.cpp:406] res2c_branch2b_relu <- res2c_branch2b
I0105 10:27:37.704658 45974 net.cpp:367] res2c_branch2b_relu -> res2c_branch2b (in-place)
I0105 10:27:37.704668 45974 net.cpp:122] Setting up res2c_branch2b_relu
I0105 10:27:37.704675 45974 net.cpp:129] Top shape: 1 64 12 12 (9216)
I0105 10:27:37.704681 45974 net.cpp:137] Memory required for data: 4119556
I0105 10:27:37.704687 45974 layer_factory.hpp:77] Creating layer res2c_branch2c
I0105 10:27:37.704699 45974 net.cpp:84] Creating Layer res2c_branch2c
I0105 10:27:37.704705 45974 net.cpp:406] res2c_branch2c <- res2c_branch2b
I0105 10:27:37.704716 45974 net.cpp:380] res2c_branch2c -> res2c_branch2c
I0105 10:27:37.705000 45974 net.cpp:122] Setting up res2c_branch2c
I0105 10:27:37.705013 45974 net.cpp:129] Top shape: 1 256 12 12 (36864)
I0105 10:27:37.705018 45974 net.cpp:137] Memory required for data: 4267012
I0105 10:27:37.705027 45974 layer_factory.hpp:77] Creating layer bn2c_branch2c
I0105 10:27:37.705035 45974 net.cpp:84] Creating Layer bn2c_branch2c
I0105 10:27:37.705042 45974 net.cpp:406] bn2c_branch2c <- res2c_branch2c
I0105 10:27:37.705052 45974 net.cpp:367] bn2c_branch2c -> res2c_branch2c (in-place)
I0105 10:27:37.705296 45974 net.cpp:122] Setting up bn2c_branch2c
I0105 10:27:37.705308 45974 net.cpp:129] Top shape: 1 256 12 12 (36864)
I0105 10:27:37.705314 45974 net.cpp:137] Memory required for data: 4414468
I0105 10:27:37.705338 45974 layer_factory.hpp:77] Creating layer scale2c_branch2c
I0105 10:27:37.705348 45974 net.cpp:84] Creating Layer scale2c_branch2c
I0105 10:27:37.705354 45974 net.cpp:406] scale2c_branch2c <- res2c_branch2c
I0105 10:27:37.705363 45974 net.cpp:367] scale2c_branch2c -> res2c_branch2c (in-place)
I0105 10:27:37.705420 45974 layer_factory.hpp:77] Creating layer scale2c_branch2c
I0105 10:27:37.705557 45974 net.cpp:122] Setting up scale2c_branch2c
I0105 10:27:37.705569 45974 net.cpp:129] Top shape: 1 256 12 12 (36864)
I0105 10:27:37.705574 45974 net.cpp:137] Memory required for data: 4561924
I0105 10:27:37.705585 45974 layer_factory.hpp:77] Creating layer res2c
I0105 10:27:37.705595 45974 net.cpp:84] Creating Layer res2c
I0105 10:27:37.705601 45974 net.cpp:406] res2c <- res2b_res2b_relu_0_split_1
I0105 10:27:37.705610 45974 net.cpp:406] res2c <- res2c_branch2c
I0105 10:27:37.705617 45974 net.cpp:380] res2c -> res2c
I0105 10:27:37.705649 45974 net.cpp:122] Setting up res2c
I0105 10:27:37.705659 45974 net.cpp:129] Top shape: 1 256 12 12 (36864)
I0105 10:27:37.705665 45974 net.cpp:137] Memory required for data: 4709380
I0105 10:27:37.705672 45974 layer_factory.hpp:77] Creating layer res2c_relu
I0105 10:27:37.705682 45974 net.cpp:84] Creating Layer res2c_relu
I0105 10:27:37.705688 45974 net.cpp:406] res2c_relu <- res2c
I0105 10:27:37.705696 45974 net.cpp:367] res2c_relu -> res2c (in-place)
I0105 10:27:37.705704 45974 net.cpp:122] Setting up res2c_relu
I0105 10:27:37.705713 45974 net.cpp:129] Top shape: 1 256 12 12 (36864)
I0105 10:27:37.705719 45974 net.cpp:137] Memory required for data: 4856836
I0105 10:27:37.705724 45974 layer_factory.hpp:77] Creating layer drop2
I0105 10:27:37.705734 45974 net.cpp:84] Creating Layer drop2
I0105 10:27:37.705739 45974 net.cpp:406] drop2 <- res2c
I0105 10:27:37.705747 45974 net.cpp:367] drop2 -> res2c (in-place)
I0105 10:27:37.705780 45974 net.cpp:122] Setting up drop2
I0105 10:27:37.705791 45974 net.cpp:129] Top shape: 1 256 12 12 (36864)
I0105 10:27:37.705796 45974 net.cpp:137] Memory required for data: 5004292
I0105 10:27:37.705802 45974 layer_factory.hpp:77] Creating layer res2c_drop2_0_split
I0105 10:27:37.705811 45974 net.cpp:84] Creating Layer res2c_drop2_0_split
I0105 10:27:37.705816 45974 net.cpp:406] res2c_drop2_0_split <- res2c
I0105 10:27:37.705824 45974 net.cpp:380] res2c_drop2_0_split -> res2c_drop2_0_split_0
I0105 10:27:37.705834 45974 net.cpp:380] res2c_drop2_0_split -> res2c_drop2_0_split_1
I0105 10:27:37.705879 45974 net.cpp:122] Setting up res2c_drop2_0_split
I0105 10:27:37.705889 45974 net.cpp:129] Top shape: 1 256 12 12 (36864)
I0105 10:27:37.705898 45974 net.cpp:129] Top shape: 1 256 12 12 (36864)
I0105 10:27:37.705902 45974 net.cpp:137] Memory required for data: 5299204
I0105 10:27:37.705909 45974 layer_factory.hpp:77] Creating layer res3a_branch1
I0105 10:27:37.705919 45974 net.cpp:84] Creating Layer res3a_branch1
I0105 10:27:37.705925 45974 net.cpp:406] res3a_branch1 <- res2c_drop2_0_split_0
I0105 10:27:37.705937 45974 net.cpp:380] res3a_branch1 -> res3a_branch1
I0105 10:27:37.708120 45974 net.cpp:122] Setting up res3a_branch1
I0105 10:27:37.708143 45974 net.cpp:129] Top shape: 1 512 6 6 (18432)
I0105 10:27:37.708150 45974 net.cpp:137] Memory required for data: 5372932
I0105 10:27:37.708161 45974 layer_factory.hpp:77] Creating layer bn3a_branch1
I0105 10:27:37.708173 45974 net.cpp:84] Creating Layer bn3a_branch1
I0105 10:27:37.708179 45974 net.cpp:406] bn3a_branch1 <- res3a_branch1
I0105 10:27:37.708191 45974 net.cpp:367] bn3a_branch1 -> res3a_branch1 (in-place)
I0105 10:27:37.708458 45974 net.cpp:122] Setting up bn3a_branch1
I0105 10:27:37.708472 45974 net.cpp:129] Top shape: 1 512 6 6 (18432)
I0105 10:27:37.708477 45974 net.cpp:137] Memory required for data: 5446660
I0105 10:27:37.708490 45974 layer_factory.hpp:77] Creating layer scale3a_branch1
I0105 10:27:37.708500 45974 net.cpp:84] Creating Layer scale3a_branch1
I0105 10:27:37.708523 45974 net.cpp:406] scale3a_branch1 <- res3a_branch1
I0105 10:27:37.708534 45974 net.cpp:367] scale3a_branch1 -> res3a_branch1 (in-place)
I0105 10:27:37.708590 45974 layer_factory.hpp:77] Creating layer scale3a_branch1
I0105 10:27:37.708746 45974 net.cpp:122] Setting up scale3a_branch1
I0105 10:27:37.708758 45974 net.cpp:129] Top shape: 1 512 6 6 (18432)
I0105 10:27:37.708765 45974 net.cpp:137] Memory required for data: 5520388
I0105 10:27:37.708775 45974 layer_factory.hpp:77] Creating layer res3a_branch2a
I0105 10:27:37.708787 45974 net.cpp:84] Creating Layer res3a_branch2a
I0105 10:27:37.708796 45974 net.cpp:406] res3a_branch2a <- res2c_drop2_0_split_1
I0105 10:27:37.708804 45974 net.cpp:380] res3a_branch2a -> res3a_branch2a
I0105 10:27:37.709090 45974 net.cpp:122] Setting up res3a_branch2a
I0105 10:27:37.709105 45974 net.cpp:129] Top shape: 1 128 6 6 (4608)
I0105 10:27:37.709110 45974 net.cpp:137] Memory required for data: 5538820
I0105 10:27:37.709120 45974 layer_factory.hpp:77] Creating layer bn3a_branch2a
I0105 10:27:37.709128 45974 net.cpp:84] Creating Layer bn3a_branch2a
I0105 10:27:37.709136 45974 net.cpp:406] bn3a_branch2a <- res3a_branch2a
I0105 10:27:37.709143 45974 net.cpp:367] bn3a_branch2a -> res3a_branch2a (in-place)
I0105 10:27:37.709393 45974 net.cpp:122] Setting up bn3a_branch2a
I0105 10:27:37.709408 45974 net.cpp:129] Top shape: 1 128 6 6 (4608)
I0105 10:27:37.709414 45974 net.cpp:137] Memory required for data: 5557252
I0105 10:27:37.709426 45974 layer_factory.hpp:77] Creating layer scale3a_branch2a
I0105 10:27:37.709435 45974 net.cpp:84] Creating Layer scale3a_branch2a
I0105 10:27:37.709442 45974 net.cpp:406] scale3a_branch2a <- res3a_branch2a
I0105 10:27:37.709450 45974 net.cpp:367] scale3a_branch2a -> res3a_branch2a (in-place)
I0105 10:27:37.709506 45974 layer_factory.hpp:77] Creating layer scale3a_branch2a
I0105 10:27:37.709650 45974 net.cpp:122] Setting up scale3a_branch2a
I0105 10:27:37.709661 45974 net.cpp:129] Top shape: 1 128 6 6 (4608)
I0105 10:27:37.709666 45974 net.cpp:137] Memory required for data: 5575684
I0105 10:27:37.709676 45974 layer_factory.hpp:77] Creating layer res3a_branch2a_relu
I0105 10:27:37.709686 45974 net.cpp:84] Creating Layer res3a_branch2a_relu
I0105 10:27:37.709692 45974 net.cpp:406] res3a_branch2a_relu <- res3a_branch2a
I0105 10:27:37.709700 45974 net.cpp:367] res3a_branch2a_relu -> res3a_branch2a (in-place)
I0105 10:27:37.709713 45974 net.cpp:122] Setting up res3a_branch2a_relu
I0105 10:27:37.709722 45974 net.cpp:129] Top shape: 1 128 6 6 (4608)
I0105 10:27:37.709728 45974 net.cpp:137] Memory required for data: 5594116
I0105 10:27:37.709733 45974 layer_factory.hpp:77] Creating layer res3a_branch2b
I0105 10:27:37.709744 45974 net.cpp:84] Creating Layer res3a_branch2b
I0105 10:27:37.709750 45974 net.cpp:406] res3a_branch2b <- res3a_branch2a
I0105 10:27:37.709759 45974 net.cpp:380] res3a_branch2b -> res3a_branch2b
I0105 10:27:37.710153 45974 net.cpp:122] Setting up res3a_branch2b
I0105 10:27:37.710167 45974 net.cpp:129] Top shape: 1 128 6 6 (4608)
I0105 10:27:37.710172 45974 net.cpp:137] Memory required for data: 5612548
I0105 10:27:37.710181 45974 layer_factory.hpp:77] Creating layer bn3a_branch2b
I0105 10:27:37.710192 45974 net.cpp:84] Creating Layer bn3a_branch2b
I0105 10:27:37.710199 45974 net.cpp:406] bn3a_branch2b <- res3a_branch2b
I0105 10:27:37.710207 45974 net.cpp:367] bn3a_branch2b -> res3a_branch2b (in-place)
I0105 10:27:37.710451 45974 net.cpp:122] Setting up bn3a_branch2b
I0105 10:27:37.710464 45974 net.cpp:129] Top shape: 1 128 6 6 (4608)
I0105 10:27:37.710469 45974 net.cpp:137] Memory required for data: 5630980
I0105 10:27:37.710481 45974 layer_factory.hpp:77] Creating layer scale3a_branch2b
I0105 10:27:37.710492 45974 net.cpp:84] Creating Layer scale3a_branch2b
I0105 10:27:37.710500 45974 net.cpp:406] scale3a_branch2b <- res3a_branch2b
I0105 10:27:37.710507 45974 net.cpp:367] scale3a_branch2b -> res3a_branch2b (in-place)
I0105 10:27:37.710558 45974 layer_factory.hpp:77] Creating layer scale3a_branch2b
I0105 10:27:37.710700 45974 net.cpp:122] Setting up scale3a_branch2b
I0105 10:27:37.710711 45974 net.cpp:129] Top shape: 1 128 6 6 (4608)
I0105 10:27:37.710717 45974 net.cpp:137] Memory required for data: 5649412
I0105 10:27:37.710727 45974 layer_factory.hpp:77] Creating layer res3a_branch2b_relu
I0105 10:27:37.710736 45974 net.cpp:84] Creating Layer res3a_branch2b_relu
I0105 10:27:37.710741 45974 net.cpp:406] res3a_branch2b_relu <- res3a_branch2b
I0105 10:27:37.710752 45974 net.cpp:367] res3a_branch2b_relu -> res3a_branch2b (in-place)
I0105 10:27:37.710760 45974 net.cpp:122] Setting up res3a_branch2b_relu
I0105 10:27:37.710768 45974 net.cpp:129] Top shape: 1 128 6 6 (4608)
I0105 10:27:37.710773 45974 net.cpp:137] Memory required for data: 5667844
I0105 10:27:37.710779 45974 layer_factory.hpp:77] Creating layer res3a_branch2c
I0105 10:27:37.710798 45974 net.cpp:84] Creating Layer res3a_branch2c
I0105 10:27:37.710805 45974 net.cpp:406] res3a_branch2c <- res3a_branch2b
I0105 10:27:37.710820 45974 net.cpp:380] res3a_branch2c -> res3a_branch2c
I0105 10:27:37.711135 45974 net.cpp:122] Setting up res3a_branch2c
I0105 10:27:37.711149 45974 net.cpp:129] Top shape: 1 512 6 6 (18432)
I0105 10:27:37.711154 45974 net.cpp:137] Memory required for data: 5741572
I0105 10:27:37.711164 45974 layer_factory.hpp:77] Creating layer bn3a_branch2c
I0105 10:27:37.711175 45974 net.cpp:84] Creating Layer bn3a_branch2c
I0105 10:27:37.711182 45974 net.cpp:406] bn3a_branch2c <- res3a_branch2c
I0105 10:27:37.711190 45974 net.cpp:367] bn3a_branch2c -> res3a_branch2c (in-place)
I0105 10:27:37.711458 45974 net.cpp:122] Setting up bn3a_branch2c
I0105 10:27:37.711472 45974 net.cpp:129] Top shape: 1 512 6 6 (18432)
I0105 10:27:37.711477 45974 net.cpp:137] Memory required for data: 5815300
I0105 10:27:37.711489 45974 layer_factory.hpp:77] Creating layer scale3a_branch2c
I0105 10:27:37.711501 45974 net.cpp:84] Creating Layer scale3a_branch2c
I0105 10:27:37.711508 45974 net.cpp:406] scale3a_branch2c <- res3a_branch2c
I0105 10:27:37.711515 45974 net.cpp:367] scale3a_branch2c -> res3a_branch2c (in-place)
I0105 10:27:37.711566 45974 layer_factory.hpp:77] Creating layer scale3a_branch2c
I0105 10:27:37.711717 45974 net.cpp:122] Setting up scale3a_branch2c
I0105 10:27:37.711728 45974 net.cpp:129] Top shape: 1 512 6 6 (18432)
I0105 10:27:37.711735 45974 net.cpp:137] Memory required for data: 5889028
I0105 10:27:37.711745 45974 layer_factory.hpp:77] Creating layer res3a
I0105 10:27:37.711755 45974 net.cpp:84] Creating Layer res3a
I0105 10:27:37.711762 45974 net.cpp:406] res3a <- res3a_branch1
I0105 10:27:37.711771 45974 net.cpp:406] res3a <- res3a_branch2c
I0105 10:27:37.711778 45974 net.cpp:380] res3a -> res3a
I0105 10:27:37.711815 45974 net.cpp:122] Setting up res3a
I0105 10:27:37.711825 45974 net.cpp:129] Top shape: 1 512 6 6 (18432)
I0105 10:27:37.711832 45974 net.cpp:137] Memory required for data: 5962756
I0105 10:27:37.711838 45974 layer_factory.hpp:77] Creating layer res3a_relu
I0105 10:27:37.711845 45974 net.cpp:84] Creating Layer res3a_relu
I0105 10:27:37.711851 45974 net.cpp:406] res3a_relu <- res3a
I0105 10:27:37.711863 45974 net.cpp:367] res3a_relu -> res3a (in-place)
I0105 10:27:37.711871 45974 net.cpp:122] Setting up res3a_relu
I0105 10:27:37.711879 45974 net.cpp:129] Top shape: 1 512 6 6 (18432)
I0105 10:27:37.711884 45974 net.cpp:137] Memory required for data: 6036484
I0105 10:27:37.711890 45974 layer_factory.hpp:77] Creating layer res3a_res3a_relu_0_split
I0105 10:27:37.711899 45974 net.cpp:84] Creating Layer res3a_res3a_relu_0_split
I0105 10:27:37.711905 45974 net.cpp:406] res3a_res3a_relu_0_split <- res3a
I0105 10:27:37.711912 45974 net.cpp:380] res3a_res3a_relu_0_split -> res3a_res3a_relu_0_split_0
I0105 10:27:37.711921 45974 net.cpp:380] res3a_res3a_relu_0_split -> res3a_res3a_relu_0_split_1
I0105 10:27:37.711969 45974 net.cpp:122] Setting up res3a_res3a_relu_0_split
I0105 10:27:37.711980 45974 net.cpp:129] Top shape: 1 512 6 6 (18432)
I0105 10:27:37.711987 45974 net.cpp:129] Top shape: 1 512 6 6 (18432)
I0105 10:27:37.711993 45974 net.cpp:137] Memory required for data: 6183940
I0105 10:27:37.711999 45974 layer_factory.hpp:77] Creating layer res3b_branch2a
I0105 10:27:37.712009 45974 net.cpp:84] Creating Layer res3b_branch2a
I0105 10:27:37.712016 45974 net.cpp:406] res3b_branch2a <- res3a_res3a_relu_0_split_0
I0105 10:27:37.712024 45974 net.cpp:380] res3b_branch2a -> res3b_branch2a
I0105 10:27:37.712337 45974 net.cpp:122] Setting up res3b_branch2a
I0105 10:27:37.712350 45974 net.cpp:129] Top shape: 1 128 6 6 (4608)
I0105 10:27:37.712357 45974 net.cpp:137] Memory required for data: 6202372
I0105 10:27:37.712365 45974 layer_factory.hpp:77] Creating layer bn3b_branch2a
I0105 10:27:37.712378 45974 net.cpp:84] Creating Layer bn3b_branch2a
I0105 10:27:37.712384 45974 net.cpp:406] bn3b_branch2a <- res3b_branch2a
I0105 10:27:37.712393 45974 net.cpp:367] bn3b_branch2a -> res3b_branch2a (in-place)
I0105 10:27:37.712649 45974 net.cpp:122] Setting up bn3b_branch2a
I0105 10:27:37.712662 45974 net.cpp:129] Top shape: 1 128 6 6 (4608)
I0105 10:27:37.712668 45974 net.cpp:137] Memory required for data: 6220804
I0105 10:27:37.712682 45974 layer_factory.hpp:77] Creating layer scale3b_branch2a
I0105 10:27:37.712697 45974 net.cpp:84] Creating Layer scale3b_branch2a
I0105 10:27:37.712704 45974 net.cpp:406] scale3b_branch2a <- res3b_branch2a
I0105 10:27:37.712713 45974 net.cpp:367] scale3b_branch2a -> res3b_branch2a (in-place)
I0105 10:27:37.712765 45974 layer_factory.hpp:77] Creating layer scale3b_branch2a
I0105 10:27:37.712914 45974 net.cpp:122] Setting up scale3b_branch2a
I0105 10:27:37.712926 45974 net.cpp:129] Top shape: 1 128 6 6 (4608)
I0105 10:27:37.712934 45974 net.cpp:137] Memory required for data: 6239236
I0105 10:27:37.712944 45974 layer_factory.hpp:77] Creating layer res3b_branch2a_relu
I0105 10:27:37.712954 45974 net.cpp:84] Creating Layer res3b_branch2a_relu
I0105 10:27:37.712961 45974 net.cpp:406] res3b_branch2a_relu <- res3b_branch2a
I0105 10:27:37.712970 45974 net.cpp:367] res3b_branch2a_relu -> res3b_branch2a (in-place)
I0105 10:27:37.712978 45974 net.cpp:122] Setting up res3b_branch2a_relu
I0105 10:27:37.712986 45974 net.cpp:129] Top shape: 1 128 6 6 (4608)
I0105 10:27:37.712992 45974 net.cpp:137] Memory required for data: 6257668
I0105 10:27:37.712998 45974 layer_factory.hpp:77] Creating layer res3b_branch2b
I0105 10:27:37.713011 45974 net.cpp:84] Creating Layer res3b_branch2b
I0105 10:27:37.713017 45974 net.cpp:406] res3b_branch2b <- res3b_branch2a
I0105 10:27:37.713026 45974 net.cpp:380] res3b_branch2b -> res3b_branch2b
I0105 10:27:37.713425 45974 net.cpp:122] Setting up res3b_branch2b
I0105 10:27:37.713439 45974 net.cpp:129] Top shape: 1 128 6 6 (4608)
I0105 10:27:37.713444 45974 net.cpp:137] Memory required for data: 6276100
I0105 10:27:37.713454 45974 layer_factory.hpp:77] Creating layer bn3b_branch2b
I0105 10:27:37.713464 45974 net.cpp:84] Creating Layer bn3b_branch2b
I0105 10:27:37.713471 45974 net.cpp:406] bn3b_branch2b <- res3b_branch2b
I0105 10:27:37.713479 45974 net.cpp:367] bn3b_branch2b -> res3b_branch2b (in-place)
I0105 10:27:37.713727 45974 net.cpp:122] Setting up bn3b_branch2b
I0105 10:27:37.713739 45974 net.cpp:129] Top shape: 1 128 6 6 (4608)
I0105 10:27:37.713745 45974 net.cpp:137] Memory required for data: 6294532
I0105 10:27:37.713757 45974 layer_factory.hpp:77] Creating layer scale3b_branch2b
I0105 10:27:37.713768 45974 net.cpp:84] Creating Layer scale3b_branch2b
I0105 10:27:37.713773 45974 net.cpp:406] scale3b_branch2b <- res3b_branch2b
I0105 10:27:37.713785 45974 net.cpp:367] scale3b_branch2b -> res3b_branch2b (in-place)
I0105 10:27:37.713835 45974 layer_factory.hpp:77] Creating layer scale3b_branch2b
I0105 10:27:37.713982 45974 net.cpp:122] Setting up scale3b_branch2b
I0105 10:27:37.713994 45974 net.cpp:129] Top shape: 1 128 6 6 (4608)
I0105 10:27:37.713999 45974 net.cpp:137] Memory required for data: 6312964
I0105 10:27:37.714010 45974 layer_factory.hpp:77] Creating layer res3b_branch2b_relu
I0105 10:27:37.714017 45974 net.cpp:84] Creating Layer res3b_branch2b_relu
I0105 10:27:37.714023 45974 net.cpp:406] res3b_branch2b_relu <- res3b_branch2b
I0105 10:27:37.714031 45974 net.cpp:367] res3b_branch2b_relu -> res3b_branch2b (in-place)
I0105 10:27:37.714040 45974 net.cpp:122] Setting up res3b_branch2b_relu
I0105 10:27:37.714048 45974 net.cpp:129] Top shape: 1 128 6 6 (4608)
I0105 10:27:37.714054 45974 net.cpp:137] Memory required for data: 6331396
I0105 10:27:37.714061 45974 layer_factory.hpp:77] Creating layer res3b_branch2c
I0105 10:27:37.714072 45974 net.cpp:84] Creating Layer res3b_branch2c
I0105 10:27:37.714079 45974 net.cpp:406] res3b_branch2c <- res3b_branch2b
I0105 10:27:37.714089 45974 net.cpp:380] res3b_branch2c -> res3b_branch2c
I0105 10:27:37.714399 45974 net.cpp:122] Setting up res3b_branch2c
I0105 10:27:37.714413 45974 net.cpp:129] Top shape: 1 512 6 6 (18432)
I0105 10:27:37.714418 45974 net.cpp:137] Memory required for data: 6405124
I0105 10:27:37.714427 45974 layer_factory.hpp:77] Creating layer bn3b_branch2c
I0105 10:27:37.714437 45974 net.cpp:84] Creating Layer bn3b_branch2c
I0105 10:27:37.714442 45974 net.cpp:406] bn3b_branch2c <- res3b_branch2c
I0105 10:27:37.714450 45974 net.cpp:367] bn3b_branch2c -> res3b_branch2c (in-place)
I0105 10:27:37.714707 45974 net.cpp:122] Setting up bn3b_branch2c
I0105 10:27:37.714720 45974 net.cpp:129] Top shape: 1 512 6 6 (18432)
I0105 10:27:37.714726 45974 net.cpp:137] Memory required for data: 6478852
I0105 10:27:37.714738 45974 layer_factory.hpp:77] Creating layer scale3b_branch2c
I0105 10:27:37.714747 45974 net.cpp:84] Creating Layer scale3b_branch2c
I0105 10:27:37.714753 45974 net.cpp:406] scale3b_branch2c <- res3b_branch2c
I0105 10:27:37.714763 45974 net.cpp:367] scale3b_branch2c -> res3b_branch2c (in-place)
I0105 10:27:37.714815 45974 layer_factory.hpp:77] Creating layer scale3b_branch2c
I0105 10:27:37.714964 45974 net.cpp:122] Setting up scale3b_branch2c
I0105 10:27:37.714975 45974 net.cpp:129] Top shape: 1 512 6 6 (18432)
I0105 10:27:37.714982 45974 net.cpp:137] Memory required for data: 6552580
I0105 10:27:37.714992 45974 layer_factory.hpp:77] Creating layer res3b
I0105 10:27:37.715003 45974 net.cpp:84] Creating Layer res3b
I0105 10:27:37.715009 45974 net.cpp:406] res3b <- res3a_res3a_relu_0_split_1
I0105 10:27:37.715018 45974 net.cpp:406] res3b <- res3b_branch2c
I0105 10:27:37.715025 45974 net.cpp:380] res3b -> res3b
I0105 10:27:37.715059 45974 net.cpp:122] Setting up res3b
I0105 10:27:37.715070 45974 net.cpp:129] Top shape: 1 512 6 6 (18432)
I0105 10:27:37.715077 45974 net.cpp:137] Memory required for data: 6626308
I0105 10:27:37.715083 45974 layer_factory.hpp:77] Creating layer res3b_relu
I0105 10:27:37.715091 45974 net.cpp:84] Creating Layer res3b_relu
I0105 10:27:37.715097 45974 net.cpp:406] res3b_relu <- res3b
I0105 10:27:37.715107 45974 net.cpp:367] res3b_relu -> res3b (in-place)
I0105 10:27:37.715116 45974 net.cpp:122] Setting up res3b_relu
I0105 10:27:37.715124 45974 net.cpp:129] Top shape: 1 512 6 6 (18432)
I0105 10:27:37.715131 45974 net.cpp:137] Memory required for data: 6700036
I0105 10:27:37.715137 45974 layer_factory.hpp:77] Creating layer res3b_res3b_relu_0_split
I0105 10:27:37.715144 45974 net.cpp:84] Creating Layer res3b_res3b_relu_0_split
I0105 10:27:37.715149 45974 net.cpp:406] res3b_res3b_relu_0_split <- res3b
I0105 10:27:37.715157 45974 net.cpp:380] res3b_res3b_relu_0_split -> res3b_res3b_relu_0_split_0
I0105 10:27:37.715167 45974 net.cpp:380] res3b_res3b_relu_0_split -> res3b_res3b_relu_0_split_1
I0105 10:27:37.715214 45974 net.cpp:122] Setting up res3b_res3b_relu_0_split
I0105 10:27:37.715224 45974 net.cpp:129] Top shape: 1 512 6 6 (18432)
I0105 10:27:37.715232 45974 net.cpp:129] Top shape: 1 512 6 6 (18432)
I0105 10:27:37.715237 45974 net.cpp:137] Memory required for data: 6847492
I0105 10:27:37.715243 45974 layer_factory.hpp:77] Creating layer res3c_branch2a
I0105 10:27:37.715257 45974 net.cpp:84] Creating Layer res3c_branch2a
I0105 10:27:37.715265 45974 net.cpp:406] res3c_branch2a <- res3b_res3b_relu_0_split_0
I0105 10:27:37.715273 45974 net.cpp:380] res3c_branch2a -> res3c_branch2a
I0105 10:27:37.715591 45974 net.cpp:122] Setting up res3c_branch2a
I0105 10:27:37.715603 45974 net.cpp:129] Top shape: 1 128 6 6 (4608)
I0105 10:27:37.715610 45974 net.cpp:137] Memory required for data: 6865924
I0105 10:27:37.715618 45974 layer_factory.hpp:77] Creating layer bn3c_branch2a
I0105 10:27:37.715627 45974 net.cpp:84] Creating Layer bn3c_branch2a
I0105 10:27:37.715634 45974 net.cpp:406] bn3c_branch2a <- res3c_branch2a
I0105 10:27:37.715642 45974 net.cpp:367] bn3c_branch2a -> res3c_branch2a (in-place)
I0105 10:27:37.715889 45974 net.cpp:122] Setting up bn3c_branch2a
I0105 10:27:37.715900 45974 net.cpp:129] Top shape: 1 128 6 6 (4608)
I0105 10:27:37.715906 45974 net.cpp:137] Memory required for data: 6884356
I0105 10:27:37.715919 45974 layer_factory.hpp:77] Creating layer scale3c_branch2a
I0105 10:27:37.715927 45974 net.cpp:84] Creating Layer scale3c_branch2a
I0105 10:27:37.715934 45974 net.cpp:406] scale3c_branch2a <- res3c_branch2a
I0105 10:27:37.715941 45974 net.cpp:367] scale3c_branch2a -> res3c_branch2a (in-place)
I0105 10:27:37.715996 45974 layer_factory.hpp:77] Creating layer scale3c_branch2a
I0105 10:27:37.716145 45974 net.cpp:122] Setting up scale3c_branch2a
I0105 10:27:37.716156 45974 net.cpp:129] Top shape: 1 128 6 6 (4608)
I0105 10:27:37.716161 45974 net.cpp:137] Memory required for data: 6902788
I0105 10:27:37.716171 45974 layer_factory.hpp:77] Creating layer res3c_branch2a_relu
I0105 10:27:37.716179 45974 net.cpp:84] Creating Layer res3c_branch2a_relu
I0105 10:27:37.716187 45974 net.cpp:406] res3c_branch2a_relu <- res3c_branch2a
I0105 10:27:37.716197 45974 net.cpp:367] res3c_branch2a_relu -> res3c_branch2a (in-place)
I0105 10:27:37.716207 45974 net.cpp:122] Setting up res3c_branch2a_relu
I0105 10:27:37.716214 45974 net.cpp:129] Top shape: 1 128 6 6 (4608)
I0105 10:27:37.716220 45974 net.cpp:137] Memory required for data: 6921220
I0105 10:27:37.716226 45974 layer_factory.hpp:77] Creating layer res3c_branch2b
I0105 10:27:37.716238 45974 net.cpp:84] Creating Layer res3c_branch2b
I0105 10:27:37.716243 45974 net.cpp:406] res3c_branch2b <- res3c_branch2a
I0105 10:27:37.716253 45974 net.cpp:380] res3c_branch2b -> res3c_branch2b
I0105 10:27:37.718329 45974 net.cpp:122] Setting up res3c_branch2b
I0105 10:27:37.718353 45974 net.cpp:129] Top shape: 1 128 6 6 (4608)
I0105 10:27:37.718359 45974 net.cpp:137] Memory required for data: 6939652
I0105 10:27:37.718369 45974 layer_factory.hpp:77] Creating layer bn3c_branch2b
I0105 10:27:37.718380 45974 net.cpp:84] Creating Layer bn3c_branch2b
I0105 10:27:37.718387 45974 net.cpp:406] bn3c_branch2b <- res3c_branch2b
I0105 10:27:37.718399 45974 net.cpp:367] bn3c_branch2b -> res3c_branch2b (in-place)
I0105 10:27:37.718648 45974 net.cpp:122] Setting up bn3c_branch2b
I0105 10:27:37.718660 45974 net.cpp:129] Top shape: 1 128 6 6 (4608)
I0105 10:27:37.718667 45974 net.cpp:137] Memory required for data: 6958084
I0105 10:27:37.718679 45974 layer_factory.hpp:77] Creating layer scale3c_branch2b
I0105 10:27:37.718688 45974 net.cpp:84] Creating Layer scale3c_branch2b
I0105 10:27:37.718694 45974 net.cpp:406] scale3c_branch2b <- res3c_branch2b
I0105 10:27:37.718703 45974 net.cpp:367] scale3c_branch2b -> res3c_branch2b (in-place)
I0105 10:27:37.718756 45974 layer_factory.hpp:77] Creating layer scale3c_branch2b
I0105 10:27:37.718896 45974 net.cpp:122] Setting up scale3c_branch2b
I0105 10:27:37.718909 45974 net.cpp:129] Top shape: 1 128 6 6 (4608)
I0105 10:27:37.718915 45974 net.cpp:137] Memory required for data: 6976516
I0105 10:27:37.718925 45974 layer_factory.hpp:77] Creating layer res3c_branch2b_relu
I0105 10:27:37.718933 45974 net.cpp:84] Creating Layer res3c_branch2b_relu
I0105 10:27:37.718940 45974 net.cpp:406] res3c_branch2b_relu <- res3c_branch2b
I0105 10:27:37.718947 45974 net.cpp:367] res3c_branch2b_relu -> res3c_branch2b (in-place)
I0105 10:27:37.718956 45974 net.cpp:122] Setting up res3c_branch2b_relu
I0105 10:27:37.718964 45974 net.cpp:129] Top shape: 1 128 6 6 (4608)
I0105 10:27:37.718969 45974 net.cpp:137] Memory required for data: 6994948
I0105 10:27:37.718976 45974 layer_factory.hpp:77] Creating layer res3c_branch2c
I0105 10:27:37.718988 45974 net.cpp:84] Creating Layer res3c_branch2c
I0105 10:27:37.718996 45974 net.cpp:406] res3c_branch2c <- res3c_branch2b
I0105 10:27:37.719003 45974 net.cpp:380] res3c_branch2c -> res3c_branch2c
I0105 10:27:37.719310 45974 net.cpp:122] Setting up res3c_branch2c
I0105 10:27:37.719323 45974 net.cpp:129] Top shape: 1 512 6 6 (18432)
I0105 10:27:37.719329 45974 net.cpp:137] Memory required for data: 7068676
I0105 10:27:37.719337 45974 layer_factory.hpp:77] Creating layer bn3c_branch2c
I0105 10:27:37.719347 45974 net.cpp:84] Creating Layer bn3c_branch2c
I0105 10:27:37.719352 45974 net.cpp:406] bn3c_branch2c <- res3c_branch2c
I0105 10:27:37.719360 45974 net.cpp:367] bn3c_branch2c -> res3c_branch2c (in-place)
I0105 10:27:37.719601 45974 net.cpp:122] Setting up bn3c_branch2c
I0105 10:27:37.719612 45974 net.cpp:129] Top shape: 1 512 6 6 (18432)
I0105 10:27:37.719619 45974 net.cpp:137] Memory required for data: 7142404
I0105 10:27:37.719630 45974 layer_factory.hpp:77] Creating layer scale3c_branch2c
I0105 10:27:37.719638 45974 net.cpp:84] Creating Layer scale3c_branch2c
I0105 10:27:37.719645 45974 net.cpp:406] scale3c_branch2c <- res3c_branch2c
I0105 10:27:37.719652 45974 net.cpp:367] scale3c_branch2c -> res3c_branch2c (in-place)
I0105 10:27:37.719703 45974 layer_factory.hpp:77] Creating layer scale3c_branch2c
I0105 10:27:37.719857 45974 net.cpp:122] Setting up scale3c_branch2c
I0105 10:27:37.719869 45974 net.cpp:129] Top shape: 1 512 6 6 (18432)
I0105 10:27:37.719874 45974 net.cpp:137] Memory required for data: 7216132
I0105 10:27:37.719883 45974 layer_factory.hpp:77] Creating layer res3c
I0105 10:27:37.719892 45974 net.cpp:84] Creating Layer res3c
I0105 10:27:37.719898 45974 net.cpp:406] res3c <- res3b_res3b_relu_0_split_1
I0105 10:27:37.719905 45974 net.cpp:406] res3c <- res3c_branch2c
I0105 10:27:37.719915 45974 net.cpp:380] res3c -> res3c
I0105 10:27:37.719947 45974 net.cpp:122] Setting up res3c
I0105 10:27:37.719957 45974 net.cpp:129] Top shape: 1 512 6 6 (18432)
I0105 10:27:37.719962 45974 net.cpp:137] Memory required for data: 7289860
I0105 10:27:37.719969 45974 layer_factory.hpp:77] Creating layer res3c_relu
I0105 10:27:37.719979 45974 net.cpp:84] Creating Layer res3c_relu
I0105 10:27:37.719985 45974 net.cpp:406] res3c_relu <- res3c
I0105 10:27:37.719992 45974 net.cpp:367] res3c_relu -> res3c (in-place)
I0105 10:27:37.720000 45974 net.cpp:122] Setting up res3c_relu
I0105 10:27:37.720008 45974 net.cpp:129] Top shape: 1 512 6 6 (18432)
I0105 10:27:37.720013 45974 net.cpp:137] Memory required for data: 7363588
I0105 10:27:37.720018 45974 layer_factory.hpp:77] Creating layer res3c_res3c_relu_0_split
I0105 10:27:37.720026 45974 net.cpp:84] Creating Layer res3c_res3c_relu_0_split
I0105 10:27:37.720031 45974 net.cpp:406] res3c_res3c_relu_0_split <- res3c
I0105 10:27:37.720039 45974 net.cpp:380] res3c_res3c_relu_0_split -> res3c_res3c_relu_0_split_0
I0105 10:27:37.720048 45974 net.cpp:380] res3c_res3c_relu_0_split -> res3c_res3c_relu_0_split_1
I0105 10:27:37.720099 45974 net.cpp:122] Setting up res3c_res3c_relu_0_split
I0105 10:27:37.720109 45974 net.cpp:129] Top shape: 1 512 6 6 (18432)
I0105 10:27:37.720118 45974 net.cpp:129] Top shape: 1 512 6 6 (18432)
I0105 10:27:37.720122 45974 net.cpp:137] Memory required for data: 7511044
I0105 10:27:37.720127 45974 layer_factory.hpp:77] Creating layer res3d_branch2a
I0105 10:27:37.720139 45974 net.cpp:84] Creating Layer res3d_branch2a
I0105 10:27:37.720144 45974 net.cpp:406] res3d_branch2a <- res3c_res3c_relu_0_split_0
I0105 10:27:37.720155 45974 net.cpp:380] res3d_branch2a -> res3d_branch2a
I0105 10:27:37.727411 45974 net.cpp:122] Setting up res3d_branch2a
I0105 10:27:37.727834 45974 net.cpp:129] Top shape: 1 128 6 6 (4608)
I0105 10:27:37.727855 45974 net.cpp:137] Memory required for data: 7529476
I0105 10:27:37.727977 45974 layer_factory.hpp:77] Creating layer bn3d_branch2a
I0105 10:27:37.728109 45974 net.cpp:84] Creating Layer bn3d_branch2a
I0105 10:27:37.728165 45974 net.cpp:406] bn3d_branch2a <- res3d_branch2a
I0105 10:27:37.728317 45974 net.cpp:367] bn3d_branch2a -> res3d_branch2a (in-place)
I0105 10:27:37.729168 45974 net.cpp:122] Setting up bn3d_branch2a
I0105 10:27:37.729521 45974 net.cpp:129] Top shape: 1 128 6 6 (4608)
I0105 10:27:37.729540 45974 net.cpp:137] Memory required for data: 7547908
I0105 10:27:37.730041 45974 layer_factory.hpp:77] Creating layer scale3d_branch2a
I0105 10:27:37.730060 45974 net.cpp:84] Creating Layer scale3d_branch2a
I0105 10:27:37.730070 45974 net.cpp:406] scale3d_branch2a <- res3d_branch2a
I0105 10:27:37.730082 45974 net.cpp:367] scale3d_branch2a -> res3d_branch2a (in-place)
I0105 10:27:37.730167 45974 layer_factory.hpp:77] Creating layer scale3d_branch2a
I0105 10:27:37.730968 45974 net.cpp:122] Setting up scale3d_branch2a
I0105 10:27:37.731185 45974 net.cpp:129] Top shape: 1 128 6 6 (4608)
I0105 10:27:37.731214 45974 net.cpp:137] Memory required for data: 7566340
I0105 10:27:37.731297 45974 layer_factory.hpp:77] Creating layer res3d_branch2a_relu
I0105 10:27:37.731381 45974 net.cpp:84] Creating Layer res3d_branch2a_relu
I0105 10:27:37.731426 45974 net.cpp:406] res3d_branch2a_relu <- res3d_branch2a
I0105 10:27:37.731477 45974 net.cpp:367] res3d_branch2a_relu -> res3d_branch2a (in-place)
I0105 10:27:37.731564 45974 net.cpp:122] Setting up res3d_branch2a_relu
I0105 10:27:37.731591 45974 net.cpp:129] Top shape: 1 128 6 6 (4608)
I0105 10:27:37.731600 45974 net.cpp:137] Memory required for data: 7584772
I0105 10:27:37.731608 45974 layer_factory.hpp:77] Creating layer res3d_branch2b
I0105 10:27:37.731627 45974 net.cpp:84] Creating Layer res3d_branch2b
I0105 10:27:37.731642 45974 net.cpp:406] res3d_branch2b <- res3d_branch2a
I0105 10:27:37.731655 45974 net.cpp:380] res3d_branch2b -> res3d_branch2b
I0105 10:27:37.734452 45974 net.cpp:122] Setting up res3d_branch2b
I0105 10:27:37.734473 45974 net.cpp:129] Top shape: 1 128 6 6 (4608)
I0105 10:27:37.734481 45974 net.cpp:137] Memory required for data: 7603204
I0105 10:27:37.734493 45974 layer_factory.hpp:77] Creating layer bn3d_branch2b
I0105 10:27:37.734506 45974 net.cpp:84] Creating Layer bn3d_branch2b
I0105 10:27:37.734515 45974 net.cpp:406] bn3d_branch2b <- res3d_branch2b
I0105 10:27:37.734527 45974 net.cpp:367] bn3d_branch2b -> res3d_branch2b (in-place)
I0105 10:27:37.734891 45974 net.cpp:122] Setting up bn3d_branch2b
I0105 10:27:37.734908 45974 net.cpp:129] Top shape: 1 128 6 6 (4608)
I0105 10:27:37.734916 45974 net.cpp:137] Memory required for data: 7621636
I0105 10:27:37.734937 45974 layer_factory.hpp:77] Creating layer scale3d_branch2b
I0105 10:27:37.734951 45974 net.cpp:84] Creating Layer scale3d_branch2b
I0105 10:27:37.734959 45974 net.cpp:406] scale3d_branch2b <- res3d_branch2b
I0105 10:27:37.734972 45974 net.cpp:367] scale3d_branch2b -> res3d_branch2b (in-place)
I0105 10:27:37.735046 45974 layer_factory.hpp:77] Creating layer scale3d_branch2b
I0105 10:27:37.735255 45974 net.cpp:122] Setting up scale3d_branch2b
I0105 10:27:37.735270 45974 net.cpp:129] Top shape: 1 128 6 6 (4608)
I0105 10:27:37.735278 45974 net.cpp:137] Memory required for data: 7640068
I0105 10:27:37.735293 45974 layer_factory.hpp:77] Creating layer res3d_branch2b_relu
I0105 10:27:37.735307 45974 net.cpp:84] Creating Layer res3d_branch2b_relu
I0105 10:27:37.735316 45974 net.cpp:406] res3d_branch2b_relu <- res3d_branch2b
I0105 10:27:37.735327 45974 net.cpp:367] res3d_branch2b_relu -> res3d_branch2b (in-place)
I0105 10:27:37.735340 45974 net.cpp:122] Setting up res3d_branch2b_relu
I0105 10:27:37.735352 45974 net.cpp:129] Top shape: 1 128 6 6 (4608)
I0105 10:27:37.735359 45974 net.cpp:137] Memory required for data: 7658500
I0105 10:27:37.735368 45974 layer_factory.hpp:77] Creating layer res3d_branch2c
I0105 10:27:37.735384 45974 net.cpp:84] Creating Layer res3d_branch2c
I0105 10:27:37.735394 45974 net.cpp:406] res3d_branch2c <- res3d_branch2b
I0105 10:27:37.735404 45974 net.cpp:380] res3d_branch2c -> res3d_branch2c
I0105 10:27:37.735862 45974 net.cpp:122] Setting up res3d_branch2c
I0105 10:27:37.735879 45974 net.cpp:129] Top shape: 1 512 6 6 (18432)
I0105 10:27:37.735888 45974 net.cpp:137] Memory required for data: 7732228
I0105 10:27:37.735899 45974 layer_factory.hpp:77] Creating layer bn3d_branch2c
I0105 10:27:37.735914 45974 net.cpp:84] Creating Layer bn3d_branch2c
I0105 10:27:37.735924 45974 net.cpp:406] bn3d_branch2c <- res3d_branch2c
I0105 10:27:37.735934 45974 net.cpp:367] bn3d_branch2c -> res3d_branch2c (in-place)
I0105 10:27:37.736296 45974 net.cpp:122] Setting up bn3d_branch2c
I0105 10:27:37.736312 45974 net.cpp:129] Top shape: 1 512 6 6 (18432)
I0105 10:27:37.736320 45974 net.cpp:137] Memory required for data: 7805956
I0105 10:27:37.736337 45974 layer_factory.hpp:77] Creating layer scale3d_branch2c
I0105 10:27:37.736353 45974 net.cpp:84] Creating Layer scale3d_branch2c
I0105 10:27:37.736361 45974 net.cpp:406] scale3d_branch2c <- res3d_branch2c
I0105 10:27:37.736373 45974 net.cpp:367] scale3d_branch2c -> res3d_branch2c (in-place)
I0105 10:27:37.736438 45974 layer_factory.hpp:77] Creating layer scale3d_branch2c
I0105 10:27:37.736658 45974 net.cpp:122] Setting up scale3d_branch2c
I0105 10:27:37.736675 45974 net.cpp:129] Top shape: 1 512 6 6 (18432)
I0105 10:27:37.736683 45974 net.cpp:137] Memory required for data: 7879684
I0105 10:27:37.736698 45974 layer_factory.hpp:77] Creating layer res3d
I0105 10:27:37.736718 45974 net.cpp:84] Creating Layer res3d
I0105 10:27:37.736727 45974 net.cpp:406] res3d <- res3c_res3c_relu_0_split_1
I0105 10:27:37.736738 45974 net.cpp:406] res3d <- res3d_branch2c
I0105 10:27:37.736753 45974 net.cpp:380] res3d -> res3d
I0105 10:27:37.736804 45974 net.cpp:122] Setting up res3d
I0105 10:27:37.736819 45974 net.cpp:129] Top shape: 1 512 6 6 (18432)
I0105 10:27:37.736826 45974 net.cpp:137] Memory required for data: 7953412
I0105 10:27:37.736835 45974 layer_factory.hpp:77] Creating layer res3d_relu
I0105 10:27:37.736846 45974 net.cpp:84] Creating Layer res3d_relu
I0105 10:27:37.736855 45974 net.cpp:406] res3d_relu <- res3d
I0105 10:27:37.736866 45974 net.cpp:367] res3d_relu -> res3d (in-place)
I0105 10:27:37.736878 45974 net.cpp:122] Setting up res3d_relu
I0105 10:27:37.736889 45974 net.cpp:129] Top shape: 1 512 6 6 (18432)
I0105 10:27:37.736897 45974 net.cpp:137] Memory required for data: 8027140
I0105 10:27:37.736905 45974 layer_factory.hpp:77] Creating layer drop3
I0105 10:27:37.736918 45974 net.cpp:84] Creating Layer drop3
I0105 10:27:37.736927 45974 net.cpp:406] drop3 <- res3d
I0105 10:27:37.736939 45974 net.cpp:367] drop3 -> res3d (in-place)
I0105 10:27:37.736982 45974 net.cpp:122] Setting up drop3
I0105 10:27:37.736995 45974 net.cpp:129] Top shape: 1 512 6 6 (18432)
I0105 10:27:37.737002 45974 net.cpp:137] Memory required for data: 8100868
I0105 10:27:37.737011 45974 layer_factory.hpp:77] Creating layer res3d_drop3_0_split
I0105 10:27:37.737022 45974 net.cpp:84] Creating Layer res3d_drop3_0_split
I0105 10:27:37.737030 45974 net.cpp:406] res3d_drop3_0_split <- res3d
I0105 10:27:37.737042 45974 net.cpp:380] res3d_drop3_0_split -> res3d_drop3_0_split_0
I0105 10:27:37.737059 45974 net.cpp:380] res3d_drop3_0_split -> res3d_drop3_0_split_1
I0105 10:27:37.737120 45974 net.cpp:122] Setting up res3d_drop3_0_split
I0105 10:27:37.737134 45974 net.cpp:129] Top shape: 1 512 6 6 (18432)
I0105 10:27:37.737144 45974 net.cpp:129] Top shape: 1 512 6 6 (18432)
I0105 10:27:37.737152 45974 net.cpp:137] Memory required for data: 8248324
I0105 10:27:37.737160 45974 layer_factory.hpp:77] Creating layer res4a_branch1
I0105 10:27:37.737177 45974 net.cpp:84] Creating Layer res4a_branch1
I0105 10:27:37.737187 45974 net.cpp:406] res4a_branch1 <- res3d_drop3_0_split_0
I0105 10:27:37.737202 45974 net.cpp:380] res4a_branch1 -> res4a_branch1
I0105 10:27:37.740231 45974 net.cpp:122] Setting up res4a_branch1
I0105 10:27:37.740263 45974 net.cpp:129] Top shape: 1 1024 3 3 (9216)
I0105 10:27:37.740272 45974 net.cpp:137] Memory required for data: 8285188
I0105 10:27:37.740288 45974 layer_factory.hpp:77] Creating layer bn4a_branch1
I0105 10:27:37.740305 45974 net.cpp:84] Creating Layer bn4a_branch1
I0105 10:27:37.740315 45974 net.cpp:406] bn4a_branch1 <- res4a_branch1
I0105 10:27:37.740329 45974 net.cpp:367] bn4a_branch1 -> res4a_branch1 (in-place)
I0105 10:27:37.740723 45974 net.cpp:122] Setting up bn4a_branch1
I0105 10:27:37.740742 45974 net.cpp:129] Top shape: 1 1024 3 3 (9216)
I0105 10:27:37.740751 45974 net.cpp:137] Memory required for data: 8322052
I0105 10:27:37.740770 45974 layer_factory.hpp:77] Creating layer scale4a_branch1
I0105 10:27:37.740787 45974 net.cpp:84] Creating Layer scale4a_branch1
I0105 10:27:37.740797 45974 net.cpp:406] scale4a_branch1 <- res4a_branch1
I0105 10:27:37.740808 45974 net.cpp:367] scale4a_branch1 -> res4a_branch1 (in-place)
I0105 10:27:37.740882 45974 layer_factory.hpp:77] Creating layer scale4a_branch1
I0105 10:27:37.741102 45974 net.cpp:122] Setting up scale4a_branch1
I0105 10:27:37.741118 45974 net.cpp:129] Top shape: 1 1024 3 3 (9216)
I0105 10:27:37.741127 45974 net.cpp:137] Memory required for data: 8358916
I0105 10:27:37.741140 45974 layer_factory.hpp:77] Creating layer res4a_branch2a
I0105 10:27:37.741159 45974 net.cpp:84] Creating Layer res4a_branch2a
I0105 10:27:37.741169 45974 net.cpp:406] res4a_branch2a <- res3d_drop3_0_split_1
I0105 10:27:37.741184 45974 net.cpp:380] res4a_branch2a -> res4a_branch2a
I0105 10:27:37.741765 45974 net.cpp:122] Setting up res4a_branch2a
I0105 10:27:37.741784 45974 net.cpp:129] Top shape: 1 256 3 3 (2304)
I0105 10:27:37.741792 45974 net.cpp:137] Memory required for data: 8368132
I0105 10:27:37.741804 45974 layer_factory.hpp:77] Creating layer bn4a_branch2a
I0105 10:27:37.741816 45974 net.cpp:84] Creating Layer bn4a_branch2a
I0105 10:27:37.741827 45974 net.cpp:406] bn4a_branch2a <- res4a_branch2a
I0105 10:27:37.741843 45974 net.cpp:367] bn4a_branch2a -> res4a_branch2a (in-place)
I0105 10:27:37.742200 45974 net.cpp:122] Setting up bn4a_branch2a
I0105 10:27:37.742234 45974 net.cpp:129] Top shape: 1 256 3 3 (2304)
I0105 10:27:37.742242 45974 net.cpp:137] Memory required for data: 8377348
I0105 10:27:37.742259 45974 layer_factory.hpp:77] Creating layer scale4a_branch2a
I0105 10:27:37.742272 45974 net.cpp:84] Creating Layer scale4a_branch2a
I0105 10:27:37.742281 45974 net.cpp:406] scale4a_branch2a <- res4a_branch2a
I0105 10:27:37.742292 45974 net.cpp:367] scale4a_branch2a -> res4a_branch2a (in-place)
I0105 10:27:37.742367 45974 layer_factory.hpp:77] Creating layer scale4a_branch2a
I0105 10:27:37.742564 45974 net.cpp:122] Setting up scale4a_branch2a
I0105 10:27:37.742579 45974 net.cpp:129] Top shape: 1 256 3 3 (2304)
I0105 10:27:37.742588 45974 net.cpp:137] Memory required for data: 8386564
I0105 10:27:37.742602 45974 layer_factory.hpp:77] Creating layer res4a_branch2a_relu
I0105 10:27:37.742617 45974 net.cpp:84] Creating Layer res4a_branch2a_relu
I0105 10:27:37.742626 45974 net.cpp:406] res4a_branch2a_relu <- res4a_branch2a
I0105 10:27:37.742637 45974 net.cpp:367] res4a_branch2a_relu -> res4a_branch2a (in-place)
I0105 10:27:37.742650 45974 net.cpp:122] Setting up res4a_branch2a_relu
I0105 10:27:37.742660 45974 net.cpp:129] Top shape: 1 256 3 3 (2304)
I0105 10:27:37.742668 45974 net.cpp:137] Memory required for data: 8395780
I0105 10:27:37.742677 45974 layer_factory.hpp:77] Creating layer res4a_branch2b
I0105 10:27:37.742694 45974 net.cpp:84] Creating Layer res4a_branch2b
I0105 10:27:37.742703 45974 net.cpp:406] res4a_branch2b <- res4a_branch2a
I0105 10:27:37.742715 45974 net.cpp:380] res4a_branch2b -> res4a_branch2b
I0105 10:27:37.745884 45974 net.cpp:122] Setting up res4a_branch2b
I0105 10:27:37.745915 45974 net.cpp:129] Top shape: 1 256 3 3 (2304)
I0105 10:27:37.745923 45974 net.cpp:137] Memory required for data: 8404996
I0105 10:27:37.745937 45974 layer_factory.hpp:77] Creating layer bn4a_branch2b
I0105 10:27:37.745951 45974 net.cpp:84] Creating Layer bn4a_branch2b
I0105 10:27:37.745961 45974 net.cpp:406] bn4a_branch2b <- res4a_branch2b
I0105 10:27:37.745976 45974 net.cpp:367] bn4a_branch2b -> res4a_branch2b (in-place)
I0105 10:27:37.746310 45974 net.cpp:122] Setting up bn4a_branch2b
I0105 10:27:37.746327 45974 net.cpp:129] Top shape: 1 256 3 3 (2304)
I0105 10:27:37.746335 45974 net.cpp:137] Memory required for data: 8414212
I0105 10:27:37.746351 45974 layer_factory.hpp:77] Creating layer scale4a_branch2b
I0105 10:27:37.746364 45974 net.cpp:84] Creating Layer scale4a_branch2b
I0105 10:27:37.746372 45974 net.cpp:406] scale4a_branch2b <- res4a_branch2b
I0105 10:27:37.746387 45974 net.cpp:367] scale4a_branch2b -> res4a_branch2b (in-place)
I0105 10:27:37.746455 45974 layer_factory.hpp:77] Creating layer scale4a_branch2b
I0105 10:27:37.746647 45974 net.cpp:122] Setting up scale4a_branch2b
I0105 10:27:37.746665 45974 net.cpp:129] Top shape: 1 256 3 3 (2304)
I0105 10:27:37.746671 45974 net.cpp:137] Memory required for data: 8423428
I0105 10:27:37.746685 45974 layer_factory.hpp:77] Creating layer res4a_branch2b_relu
I0105 10:27:37.746697 45974 net.cpp:84] Creating Layer res4a_branch2b_relu
I0105 10:27:37.746706 45974 net.cpp:406] res4a_branch2b_relu <- res4a_branch2b
I0105 10:27:37.746716 45974 net.cpp:367] res4a_branch2b_relu -> res4a_branch2b (in-place)
I0105 10:27:37.746727 45974 net.cpp:122] Setting up res4a_branch2b_relu
I0105 10:27:37.746738 45974 net.cpp:129] Top shape: 1 256 3 3 (2304)
I0105 10:27:37.746745 45974 net.cpp:137] Memory required for data: 8432644
I0105 10:27:37.746753 45974 layer_factory.hpp:77] Creating layer res4a_branch2c
I0105 10:27:37.746770 45974 net.cpp:84] Creating Layer res4a_branch2c
I0105 10:27:37.746779 45974 net.cpp:406] res4a_branch2c <- res4a_branch2b
I0105 10:27:37.746790 45974 net.cpp:380] res4a_branch2c -> res4a_branch2c
I0105 10:27:37.749251 45974 net.cpp:122] Setting up res4a_branch2c
I0105 10:27:37.749281 45974 net.cpp:129] Top shape: 1 1024 3 3 (9216)
I0105 10:27:37.749290 45974 net.cpp:137] Memory required for data: 8469508
I0105 10:27:37.749303 45974 layer_factory.hpp:77] Creating layer bn4a_branch2c
I0105 10:27:37.749320 45974 net.cpp:84] Creating Layer bn4a_branch2c
I0105 10:27:37.749330 45974 net.cpp:406] bn4a_branch2c <- res4a_branch2c
I0105 10:27:37.749342 45974 net.cpp:367] bn4a_branch2c -> res4a_branch2c (in-place)
I0105 10:27:37.749689 45974 net.cpp:122] Setting up bn4a_branch2c
I0105 10:27:37.749706 45974 net.cpp:129] Top shape: 1 1024 3 3 (9216)
I0105 10:27:37.749713 45974 net.cpp:137] Memory required for data: 8506372
I0105 10:27:37.749730 45974 layer_factory.hpp:77] Creating layer scale4a_branch2c
I0105 10:27:37.749745 45974 net.cpp:84] Creating Layer scale4a_branch2c
I0105 10:27:37.749754 45974 net.cpp:406] scale4a_branch2c <- res4a_branch2c
I0105 10:27:37.749765 45974 net.cpp:367] scale4a_branch2c -> res4a_branch2c (in-place)
I0105 10:27:37.749836 45974 layer_factory.hpp:77] Creating layer scale4a_branch2c
I0105 10:27:37.750043 45974 net.cpp:122] Setting up scale4a_branch2c
I0105 10:27:37.750058 45974 net.cpp:129] Top shape: 1 1024 3 3 (9216)
I0105 10:27:37.750066 45974 net.cpp:137] Memory required for data: 8543236
I0105 10:27:37.750079 45974 layer_factory.hpp:77] Creating layer res4a
I0105 10:27:37.750094 45974 net.cpp:84] Creating Layer res4a
I0105 10:27:37.750103 45974 net.cpp:406] res4a <- res4a_branch1
I0105 10:27:37.750113 45974 net.cpp:406] res4a <- res4a_branch2c
I0105 10:27:37.750124 45974 net.cpp:380] res4a -> res4a
I0105 10:27:37.750171 45974 net.cpp:122] Setting up res4a
I0105 10:27:37.750185 45974 net.cpp:129] Top shape: 1 1024 3 3 (9216)
I0105 10:27:37.750192 45974 net.cpp:137] Memory required for data: 8580100
I0105 10:27:37.750200 45974 layer_factory.hpp:77] Creating layer res4a_relu
I0105 10:27:37.750247 45974 net.cpp:84] Creating Layer res4a_relu
I0105 10:27:37.750257 45974 net.cpp:406] res4a_relu <- res4a
I0105 10:27:37.750268 45974 net.cpp:367] res4a_relu -> res4a (in-place)
I0105 10:27:37.750282 45974 net.cpp:122] Setting up res4a_relu
I0105 10:27:37.750293 45974 net.cpp:129] Top shape: 1 1024 3 3 (9216)
I0105 10:27:37.750300 45974 net.cpp:137] Memory required for data: 8616964
I0105 10:27:37.750309 45974 layer_factory.hpp:77] Creating layer res4a_res4a_relu_0_split
I0105 10:27:37.750320 45974 net.cpp:84] Creating Layer res4a_res4a_relu_0_split
I0105 10:27:37.750327 45974 net.cpp:406] res4a_res4a_relu_0_split <- res4a
I0105 10:27:37.750341 45974 net.cpp:380] res4a_res4a_relu_0_split -> res4a_res4a_relu_0_split_0
I0105 10:27:37.750355 45974 net.cpp:380] res4a_res4a_relu_0_split -> res4a_res4a_relu_0_split_1
I0105 10:27:37.750421 45974 net.cpp:122] Setting up res4a_res4a_relu_0_split
I0105 10:27:37.750433 45974 net.cpp:129] Top shape: 1 1024 3 3 (9216)
I0105 10:27:37.750442 45974 net.cpp:129] Top shape: 1 1024 3 3 (9216)
I0105 10:27:37.750449 45974 net.cpp:137] Memory required for data: 8690692
I0105 10:27:37.750458 45974 layer_factory.hpp:77] Creating layer res4b_branch2a
I0105 10:27:37.750478 45974 net.cpp:84] Creating Layer res4b_branch2a
I0105 10:27:37.750488 45974 net.cpp:406] res4b_branch2a <- res4a_res4a_relu_0_split_0
I0105 10:27:37.750499 45974 net.cpp:380] res4b_branch2a -> res4b_branch2a
I0105 10:27:37.751178 45974 net.cpp:122] Setting up res4b_branch2a
I0105 10:27:37.751196 45974 net.cpp:129] Top shape: 1 256 3 3 (2304)
I0105 10:27:37.751204 45974 net.cpp:137] Memory required for data: 8699908
I0105 10:27:37.751214 45974 layer_factory.hpp:77] Creating layer bn4b_branch2a
I0105 10:27:37.751226 45974 net.cpp:84] Creating Layer bn4b_branch2a
I0105 10:27:37.751235 45974 net.cpp:406] bn4b_branch2a <- res4b_branch2a
I0105 10:27:37.751250 45974 net.cpp:367] bn4b_branch2a -> res4b_branch2a (in-place)
I0105 10:27:37.751581 45974 net.cpp:122] Setting up bn4b_branch2a
I0105 10:27:37.751595 45974 net.cpp:129] Top shape: 1 256 3 3 (2304)
I0105 10:27:37.751603 45974 net.cpp:137] Memory required for data: 8709124
I0105 10:27:37.751621 45974 layer_factory.hpp:77] Creating layer scale4b_branch2a
I0105 10:27:37.751633 45974 net.cpp:84] Creating Layer scale4b_branch2a
I0105 10:27:37.751641 45974 net.cpp:406] scale4b_branch2a <- res4b_branch2a
I0105 10:27:37.751652 45974 net.cpp:367] scale4b_branch2a -> res4b_branch2a (in-place)
I0105 10:27:37.751722 45974 layer_factory.hpp:77] Creating layer scale4b_branch2a
I0105 10:27:37.751912 45974 net.cpp:122] Setting up scale4b_branch2a
I0105 10:27:37.751926 45974 net.cpp:129] Top shape: 1 256 3 3 (2304)
I0105 10:27:37.751933 45974 net.cpp:137] Memory required for data: 8718340
I0105 10:27:37.751946 45974 layer_factory.hpp:77] Creating layer res4b_branch2a_relu
I0105 10:27:37.751960 45974 net.cpp:84] Creating Layer res4b_branch2a_relu
I0105 10:27:37.751968 45974 net.cpp:406] res4b_branch2a_relu <- res4b_branch2a
I0105 10:27:37.751979 45974 net.cpp:367] res4b_branch2a_relu -> res4b_branch2a (in-place)
I0105 10:27:37.751991 45974 net.cpp:122] Setting up res4b_branch2a_relu
I0105 10:27:37.752002 45974 net.cpp:129] Top shape: 1 256 3 3 (2304)
I0105 10:27:37.752008 45974 net.cpp:137] Memory required for data: 8727556
I0105 10:27:37.752017 45974 layer_factory.hpp:77] Creating layer res4b_branch2b
I0105 10:27:37.752032 45974 net.cpp:84] Creating Layer res4b_branch2b
I0105 10:27:37.752040 45974 net.cpp:406] res4b_branch2b <- res4b_branch2a
I0105 10:27:37.752051 45974 net.cpp:380] res4b_branch2b -> res4b_branch2b
I0105 10:27:37.755134 45974 net.cpp:122] Setting up res4b_branch2b
I0105 10:27:37.755165 45974 net.cpp:129] Top shape: 1 256 3 3 (2304)
I0105 10:27:37.755173 45974 net.cpp:137] Memory required for data: 8736772
I0105 10:27:37.755187 45974 layer_factory.hpp:77] Creating layer bn4b_branch2b
I0105 10:27:37.755201 45974 net.cpp:84] Creating Layer bn4b_branch2b
I0105 10:27:37.755211 45974 net.cpp:406] bn4b_branch2b <- res4b_branch2b
I0105 10:27:37.755225 45974 net.cpp:367] bn4b_branch2b -> res4b_branch2b (in-place)
I0105 10:27:37.755573 45974 net.cpp:122] Setting up bn4b_branch2b
I0105 10:27:37.755590 45974 net.cpp:129] Top shape: 1 256 3 3 (2304)
I0105 10:27:37.755599 45974 net.cpp:137] Memory required for data: 8745988
I0105 10:27:37.755615 45974 layer_factory.hpp:77] Creating layer scale4b_branch2b
I0105 10:27:37.755628 45974 net.cpp:84] Creating Layer scale4b_branch2b
I0105 10:27:37.755637 45974 net.cpp:406] scale4b_branch2b <- res4b_branch2b
I0105 10:27:37.755651 45974 net.cpp:367] scale4b_branch2b -> res4b_branch2b (in-place)
I0105 10:27:37.755723 45974 layer_factory.hpp:77] Creating layer scale4b_branch2b
I0105 10:27:37.755918 45974 net.cpp:122] Setting up scale4b_branch2b
I0105 10:27:37.755934 45974 net.cpp:129] Top shape: 1 256 3 3 (2304)
I0105 10:27:37.755940 45974 net.cpp:137] Memory required for data: 8755204
I0105 10:27:37.755954 45974 layer_factory.hpp:77] Creating layer res4b_branch2b_relu
I0105 10:27:37.755965 45974 net.cpp:84] Creating Layer res4b_branch2b_relu
I0105 10:27:37.755973 45974 net.cpp:406] res4b_branch2b_relu <- res4b_branch2b
I0105 10:27:37.755985 45974 net.cpp:367] res4b_branch2b_relu -> res4b_branch2b (in-place)
I0105 10:27:37.755996 45974 net.cpp:122] Setting up res4b_branch2b_relu
I0105 10:27:37.756007 45974 net.cpp:129] Top shape: 1 256 3 3 (2304)
I0105 10:27:37.756014 45974 net.cpp:137] Memory required for data: 8764420
I0105 10:27:37.756022 45974 layer_factory.hpp:77] Creating layer res4b_branch2c
I0105 10:27:37.756039 45974 net.cpp:84] Creating Layer res4b_branch2c
I0105 10:27:37.756047 45974 net.cpp:406] res4b_branch2c <- res4b_branch2b
I0105 10:27:37.756062 45974 net.cpp:380] res4b_branch2c -> res4b_branch2c
I0105 10:27:37.758558 45974 net.cpp:122] Setting up res4b_branch2c
I0105 10:27:37.758595 45974 net.cpp:129] Top shape: 1 1024 3 3 (9216)
I0105 10:27:37.758605 45974 net.cpp:137] Memory required for data: 8801284
I0105 10:27:37.758618 45974 layer_factory.hpp:77] Creating layer bn4b_branch2c
I0105 10:27:37.758635 45974 net.cpp:84] Creating Layer bn4b_branch2c
I0105 10:27:37.758646 45974 net.cpp:406] bn4b_branch2c <- res4b_branch2c
I0105 10:27:37.758659 45974 net.cpp:367] bn4b_branch2c -> res4b_branch2c (in-place)
I0105 10:27:37.759016 45974 net.cpp:122] Setting up bn4b_branch2c
I0105 10:27:37.759032 45974 net.cpp:129] Top shape: 1 1024 3 3 (9216)
I0105 10:27:37.759040 45974 net.cpp:137] Memory required for data: 8838148
I0105 10:27:37.759058 45974 layer_factory.hpp:77] Creating layer scale4b_branch2c
I0105 10:27:37.759073 45974 net.cpp:84] Creating Layer scale4b_branch2c
I0105 10:27:37.759083 45974 net.cpp:406] scale4b_branch2c <- res4b_branch2c
I0105 10:27:37.759093 45974 net.cpp:367] scale4b_branch2c -> res4b_branch2c (in-place)
I0105 10:27:37.759165 45974 layer_factory.hpp:77] Creating layer scale4b_branch2c
I0105 10:27:37.759371 45974 net.cpp:122] Setting up scale4b_branch2c
I0105 10:27:37.759387 45974 net.cpp:129] Top shape: 1 1024 3 3 (9216)
I0105 10:27:37.759393 45974 net.cpp:137] Memory required for data: 8875012
I0105 10:27:37.759407 45974 layer_factory.hpp:77] Creating layer res4b
I0105 10:27:37.759423 45974 net.cpp:84] Creating Layer res4b
I0105 10:27:37.759431 45974 net.cpp:406] res4b <- res4a_res4a_relu_0_split_1
I0105 10:27:37.759441 45974 net.cpp:406] res4b <- res4b_branch2c
I0105 10:27:37.759452 45974 net.cpp:380] res4b -> res4b
I0105 10:27:37.759501 45974 net.cpp:122] Setting up res4b
I0105 10:27:37.759516 45974 net.cpp:129] Top shape: 1 1024 3 3 (9216)
I0105 10:27:37.759523 45974 net.cpp:137] Memory required for data: 8911876
I0105 10:27:37.759531 45974 layer_factory.hpp:77] Creating layer res4b_relu
I0105 10:27:37.759541 45974 net.cpp:84] Creating Layer res4b_relu
I0105 10:27:37.759549 45974 net.cpp:406] res4b_relu <- res4b
I0105 10:27:37.759562 45974 net.cpp:367] res4b_relu -> res4b (in-place)
I0105 10:27:37.759574 45974 net.cpp:122] Setting up res4b_relu
I0105 10:27:37.759585 45974 net.cpp:129] Top shape: 1 1024 3 3 (9216)
I0105 10:27:37.759593 45974 net.cpp:137] Memory required for data: 8948740
I0105 10:27:37.759600 45974 layer_factory.hpp:77] Creating layer res4b_res4b_relu_0_split
I0105 10:27:37.759611 45974 net.cpp:84] Creating Layer res4b_res4b_relu_0_split
I0105 10:27:37.759618 45974 net.cpp:406] res4b_res4b_relu_0_split <- res4b
I0105 10:27:37.759629 45974 net.cpp:380] res4b_res4b_relu_0_split -> res4b_res4b_relu_0_split_0
I0105 10:27:37.759640 45974 net.cpp:380] res4b_res4b_relu_0_split -> res4b_res4b_relu_0_split_1
I0105 10:27:37.759706 45974 net.cpp:122] Setting up res4b_res4b_relu_0_split
I0105 10:27:37.759721 45974 net.cpp:129] Top shape: 1 1024 3 3 (9216)
I0105 10:27:37.759730 45974 net.cpp:129] Top shape: 1 1024 3 3 (9216)
I0105 10:27:37.759737 45974 net.cpp:137] Memory required for data: 9022468
I0105 10:27:37.759744 45974 layer_factory.hpp:77] Creating layer res4c_branch2a
I0105 10:27:37.759758 45974 net.cpp:84] Creating Layer res4c_branch2a
I0105 10:27:37.759766 45974 net.cpp:406] res4c_branch2a <- res4b_res4b_relu_0_split_0
I0105 10:27:37.759778 45974 net.cpp:380] res4c_branch2a -> res4c_branch2a
I0105 10:27:37.760474 45974 net.cpp:122] Setting up res4c_branch2a
I0105 10:27:37.760493 45974 net.cpp:129] Top shape: 1 256 3 3 (2304)
I0105 10:27:37.760500 45974 net.cpp:137] Memory required for data: 9031684
I0105 10:27:37.760529 45974 layer_factory.hpp:77] Creating layer bn4c_branch2a
I0105 10:27:37.760545 45974 net.cpp:84] Creating Layer bn4c_branch2a
I0105 10:27:37.760553 45974 net.cpp:406] bn4c_branch2a <- res4c_branch2a
I0105 10:27:37.760565 45974 net.cpp:367] bn4c_branch2a -> res4c_branch2a (in-place)
I0105 10:27:37.761209 45974 net.cpp:122] Setting up bn4c_branch2a
I0105 10:27:37.761406 45974 net.cpp:129] Top shape: 1 256 3 3 (2304)
I0105 10:27:37.761433 45974 net.cpp:137] Memory required for data: 9040900
I0105 10:27:37.761533 45974 layer_factory.hpp:77] Creating layer scale4c_branch2a
I0105 10:27:37.761634 45974 net.cpp:84] Creating Layer scale4c_branch2a
I0105 10:27:37.761688 45974 net.cpp:406] scale4c_branch2a <- res4c_branch2a
I0105 10:27:37.761732 45974 net.cpp:367] scale4c_branch2a -> res4c_branch2a (in-place)
I0105 10:27:37.762197 45974 layer_factory.hpp:77] Creating layer scale4c_branch2a
I0105 10:27:37.762493 45974 net.cpp:122] Setting up scale4c_branch2a
I0105 10:27:37.762665 45974 net.cpp:129] Top shape: 1 256 3 3 (2304)
I0105 10:27:37.762683 45974 net.cpp:137] Memory required for data: 9050116
I0105 10:27:37.762770 45974 layer_factory.hpp:77] Creating layer res4c_branch2a_relu
I0105 10:27:37.762845 45974 net.cpp:84] Creating Layer res4c_branch2a_relu
I0105 10:27:37.762887 45974 net.cpp:406] res4c_branch2a_relu <- res4c_branch2a
I0105 10:27:37.762990 45974 net.cpp:367] res4c_branch2a_relu -> res4c_branch2a (in-place)
I0105 10:27:37.763098 45974 net.cpp:122] Setting up res4c_branch2a_relu
I0105 10:27:37.763136 45974 net.cpp:129] Top shape: 1 256 3 3 (2304)
I0105 10:27:37.763150 45974 net.cpp:137] Memory required for data: 9059332
I0105 10:27:37.763172 45974 layer_factory.hpp:77] Creating layer res4c_branch2b
I0105 10:27:37.763252 45974 net.cpp:84] Creating Layer res4c_branch2b
I0105 10:27:37.763284 45974 net.cpp:406] res4c_branch2b <- res4c_branch2a
I0105 10:27:37.763352 45974 net.cpp:380] res4c_branch2b -> res4c_branch2b
I0105 10:27:37.774022 45974 net.cpp:122] Setting up res4c_branch2b
I0105 10:27:37.774053 45974 net.cpp:129] Top shape: 1 256 3 3 (2304)
I0105 10:27:37.774061 45974 net.cpp:137] Memory required for data: 9068548
I0105 10:27:37.774075 45974 layer_factory.hpp:77] Creating layer bn4c_branch2b
I0105 10:27:37.774088 45974 net.cpp:84] Creating Layer bn4c_branch2b
I0105 10:27:37.774097 45974 net.cpp:406] bn4c_branch2b <- res4c_branch2b
I0105 10:27:37.774108 45974 net.cpp:367] bn4c_branch2b -> res4c_branch2b (in-place)
I0105 10:27:37.774432 45974 net.cpp:122] Setting up bn4c_branch2b
I0105 10:27:37.774447 45974 net.cpp:129] Top shape: 1 256 3 3 (2304)
I0105 10:27:37.774456 45974 net.cpp:137] Memory required for data: 9077764
I0105 10:27:37.774471 45974 layer_factory.hpp:77] Creating layer scale4c_branch2b
I0105 10:27:37.774482 45974 net.cpp:84] Creating Layer scale4c_branch2b
I0105 10:27:37.774490 45974 net.cpp:406] scale4c_branch2b <- res4c_branch2b
I0105 10:27:37.774502 45974 net.cpp:367] scale4c_branch2b -> res4c_branch2b (in-place)
I0105 10:27:37.774574 45974 layer_factory.hpp:77] Creating layer scale4c_branch2b
I0105 10:27:37.774760 45974 net.cpp:122] Setting up scale4c_branch2b
I0105 10:27:37.774773 45974 net.cpp:129] Top shape: 1 256 3 3 (2304)
I0105 10:27:37.774780 45974 net.cpp:137] Memory required for data: 9086980
I0105 10:27:37.774792 45974 layer_factory.hpp:77] Creating layer res4c_branch2b_relu
I0105 10:27:37.774803 45974 net.cpp:84] Creating Layer res4c_branch2b_relu
I0105 10:27:37.774811 45974 net.cpp:406] res4c_branch2b_relu <- res4c_branch2b
I0105 10:27:37.774823 45974 net.cpp:367] res4c_branch2b_relu -> res4c_branch2b (in-place)
I0105 10:27:37.774835 45974 net.cpp:122] Setting up res4c_branch2b_relu
I0105 10:27:37.774845 45974 net.cpp:129] Top shape: 1 256 3 3 (2304)
I0105 10:27:37.774852 45974 net.cpp:137] Memory required for data: 9096196
I0105 10:27:37.774859 45974 layer_factory.hpp:77] Creating layer res4c_branch2c
I0105 10:27:37.774873 45974 net.cpp:84] Creating Layer res4c_branch2c
I0105 10:27:37.774879 45974 net.cpp:406] res4c_branch2c <- res4c_branch2b
I0105 10:27:37.774899 45974 net.cpp:380] res4c_branch2c -> res4c_branch2c
I0105 10:27:37.777433 45974 net.cpp:122] Setting up res4c_branch2c
I0105 10:27:37.777837 45974 net.cpp:129] Top shape: 1 1024 3 3 (9216)
I0105 10:27:37.777878 45974 net.cpp:137] Memory required for data: 9133060
I0105 10:27:37.777997 45974 layer_factory.hpp:77] Creating layer bn4c_branch2c
I0105 10:27:37.778143 45974 net.cpp:84] Creating Layer bn4c_branch2c
I0105 10:27:37.778220 45974 net.cpp:406] bn4c_branch2c <- res4c_branch2c
I0105 10:27:37.778306 45974 net.cpp:367] bn4c_branch2c -> res4c_branch2c (in-place)
I0105 10:27:37.779345 45974 net.cpp:122] Setting up bn4c_branch2c
I0105 10:27:37.779564 45974 net.cpp:129] Top shape: 1 1024 3 3 (9216)
I0105 10:27:37.779590 45974 net.cpp:137] Memory required for data: 9169924
I0105 10:27:37.779718 45974 layer_factory.hpp:77] Creating layer scale4c_branch2c
I0105 10:27:37.779839 45974 net.cpp:84] Creating Layer scale4c_branch2c
I0105 10:27:37.779878 45974 net.cpp:406] scale4c_branch2c <- res4c_branch2c
I0105 10:27:37.779979 45974 net.cpp:367] scale4c_branch2c -> res4c_branch2c (in-place)
I0105 10:27:37.780241 45974 layer_factory.hpp:77] Creating layer scale4c_branch2c
I0105 10:27:37.780530 45974 net.cpp:122] Setting up scale4c_branch2c
I0105 10:27:37.780751 45974 net.cpp:129] Top shape: 1 1024 3 3 (9216)
I0105 10:27:37.780763 45974 net.cpp:137] Memory required for data: 9206788
I0105 10:27:37.780870 45974 layer_factory.hpp:77] Creating layer res4c
I0105 10:27:37.780992 45974 net.cpp:84] Creating Layer res4c
I0105 10:27:37.781030 45974 net.cpp:406] res4c <- res4b_res4b_relu_0_split_1
I0105 10:27:37.781085 45974 net.cpp:406] res4c <- res4c_branch2c
I0105 10:27:37.781143 45974 net.cpp:380] res4c -> res4c
I0105 10:27:37.781724 45974 net.cpp:122] Setting up res4c
I0105 10:27:37.781767 45974 net.cpp:129] Top shape: 1 1024 3 3 (9216)
I0105 10:27:37.781777 45974 net.cpp:137] Memory required for data: 9243652
I0105 10:27:37.781785 45974 layer_factory.hpp:77] Creating layer res4c_relu
I0105 10:27:37.781795 45974 net.cpp:84] Creating Layer res4c_relu
I0105 10:27:37.781801 45974 net.cpp:406] res4c_relu <- res4c
I0105 10:27:37.781810 45974 net.cpp:367] res4c_relu -> res4c (in-place)
I0105 10:27:37.781821 45974 net.cpp:122] Setting up res4c_relu
I0105 10:27:37.781829 45974 net.cpp:129] Top shape: 1 1024 3 3 (9216)
I0105 10:27:37.781836 45974 net.cpp:137] Memory required for data: 9280516
I0105 10:27:37.781842 45974 layer_factory.hpp:77] Creating layer res4c_res4c_relu_0_split
I0105 10:27:37.781852 45974 net.cpp:84] Creating Layer res4c_res4c_relu_0_split
I0105 10:27:37.781859 45974 net.cpp:406] res4c_res4c_relu_0_split <- res4c
I0105 10:27:37.781869 45974 net.cpp:380] res4c_res4c_relu_0_split -> res4c_res4c_relu_0_split_0
I0105 10:27:37.781882 45974 net.cpp:380] res4c_res4c_relu_0_split -> res4c_res4c_relu_0_split_1
I0105 10:27:37.781953 45974 net.cpp:122] Setting up res4c_res4c_relu_0_split
I0105 10:27:37.782078 45974 net.cpp:129] Top shape: 1 1024 3 3 (9216)
I0105 10:27:37.782093 45974 net.cpp:129] Top shape: 1 1024 3 3 (9216)
I0105 10:27:37.782107 45974 net.cpp:137] Memory required for data: 9354244
I0105 10:27:37.782133 45974 layer_factory.hpp:77] Creating layer res4d_branch2a
I0105 10:27:37.782255 45974 net.cpp:84] Creating Layer res4d_branch2a
I0105 10:27:37.782308 45974 net.cpp:406] res4d_branch2a <- res4c_res4c_relu_0_split_0
I0105 10:27:37.782357 45974 net.cpp:380] res4d_branch2a -> res4d_branch2a
I0105 10:27:37.785020 45974 net.cpp:122] Setting up res4d_branch2a
I0105 10:27:37.785037 45974 net.cpp:129] Top shape: 1 256 3 3 (2304)
I0105 10:27:37.785044 45974 net.cpp:137] Memory required for data: 9363460
I0105 10:27:37.785137 45974 layer_factory.hpp:77] Creating layer bn4d_branch2a
I0105 10:27:37.785225 45974 net.cpp:84] Creating Layer bn4d_branch2a
I0105 10:27:37.785264 45974 net.cpp:406] bn4d_branch2a <- res4d_branch2a
I0105 10:27:37.785372 45974 net.cpp:367] bn4d_branch2a -> res4d_branch2a (in-place)
I0105 10:27:37.786516 45974 net.cpp:122] Setting up bn4d_branch2a
I0105 10:27:37.786531 45974 net.cpp:129] Top shape: 1 256 3 3 (2304)
I0105 10:27:37.786538 45974 net.cpp:137] Memory required for data: 9372676
I0105 10:27:37.786553 45974 layer_factory.hpp:77] Creating layer scale4d_branch2a
I0105 10:27:37.786581 45974 net.cpp:84] Creating Layer scale4d_branch2a
I0105 10:27:37.786589 45974 net.cpp:406] scale4d_branch2a <- res4d_branch2a
I0105 10:27:37.786598 45974 net.cpp:367] scale4d_branch2a -> res4d_branch2a (in-place)
I0105 10:27:37.786801 45974 layer_factory.hpp:77] Creating layer scale4d_branch2a
I0105 10:27:37.788030 45974 net.cpp:122] Setting up scale4d_branch2a
I0105 10:27:37.788050 45974 net.cpp:129] Top shape: 1 256 3 3 (2304)
I0105 10:27:37.788058 45974 net.cpp:137] Memory required for data: 9381892
I0105 10:27:37.788069 45974 layer_factory.hpp:77] Creating layer res4d_branch2a_relu
I0105 10:27:37.788081 45974 net.cpp:84] Creating Layer res4d_branch2a_relu
I0105 10:27:37.788089 45974 net.cpp:406] res4d_branch2a_relu <- res4d_branch2a
I0105 10:27:37.788100 45974 net.cpp:367] res4d_branch2a_relu -> res4d_branch2a (in-place)
I0105 10:27:37.788110 45974 net.cpp:122] Setting up res4d_branch2a_relu
I0105 10:27:37.788118 45974 net.cpp:129] Top shape: 1 256 3 3 (2304)
I0105 10:27:37.788125 45974 net.cpp:137] Memory required for data: 9391108
I0105 10:27:37.788131 45974 layer_factory.hpp:77] Creating layer res4d_branch2b
I0105 10:27:37.788146 45974 net.cpp:84] Creating Layer res4d_branch2b
I0105 10:27:37.788153 45974 net.cpp:406] res4d_branch2b <- res4d_branch2a
I0105 10:27:37.788162 45974 net.cpp:380] res4d_branch2b -> res4d_branch2b
I0105 10:27:37.802172 45974 net.cpp:122] Setting up res4d_branch2b
I0105 10:27:37.802197 45974 net.cpp:129] Top shape: 1 256 3 3 (2304)
I0105 10:27:37.802204 45974 net.cpp:137] Memory required for data: 9400324
I0105 10:27:37.802215 45974 layer_factory.hpp:77] Creating layer bn4d_branch2b
I0105 10:27:37.802227 45974 net.cpp:84] Creating Layer bn4d_branch2b
I0105 10:27:37.802234 45974 net.cpp:406] bn4d_branch2b <- res4d_branch2b
I0105 10:27:37.802247 45974 net.cpp:367] bn4d_branch2b -> res4d_branch2b (in-place)
I0105 10:27:37.803318 45974 net.cpp:122] Setting up bn4d_branch2b
I0105 10:27:37.803481 45974 net.cpp:129] Top shape: 1 256 3 3 (2304)
I0105 10:27:37.803501 45974 net.cpp:137] Memory required for data: 9409540
I0105 10:27:37.803629 45974 layer_factory.hpp:77] Creating layer scale4d_branch2b
I0105 10:27:37.803748 45974 net.cpp:84] Creating Layer scale4d_branch2b
I0105 10:27:37.803792 45974 net.cpp:406] scale4d_branch2b <- res4d_branch2b
I0105 10:27:37.803879 45974 net.cpp:367] scale4d_branch2b -> res4d_branch2b (in-place)
I0105 10:27:37.804419 45974 layer_factory.hpp:77] Creating layer scale4d_branch2b
I0105 10:27:37.805156 45974 net.cpp:122] Setting up scale4d_branch2b
I0105 10:27:37.805169 45974 net.cpp:129] Top shape: 1 256 3 3 (2304)
I0105 10:27:37.805176 45974 net.cpp:137] Memory required for data: 9418756
I0105 10:27:37.805186 45974 layer_factory.hpp:77] Creating layer res4d_branch2b_relu
I0105 10:27:37.805196 45974 net.cpp:84] Creating Layer res4d_branch2b_relu
I0105 10:27:37.805202 45974 net.cpp:406] res4d_branch2b_relu <- res4d_branch2b
I0105 10:27:37.805210 45974 net.cpp:367] res4d_branch2b_relu -> res4d_branch2b (in-place)
I0105 10:27:37.805219 45974 net.cpp:122] Setting up res4d_branch2b_relu
I0105 10:27:37.805228 45974 net.cpp:129] Top shape: 1 256 3 3 (2304)
I0105 10:27:37.805233 45974 net.cpp:137] Memory required for data: 9427972
I0105 10:27:37.805239 45974 layer_factory.hpp:77] Creating layer res4d_branch2c
I0105 10:27:37.805254 45974 net.cpp:84] Creating Layer res4d_branch2c
I0105 10:27:37.805260 45974 net.cpp:406] res4d_branch2c <- res4d_branch2b
I0105 10:27:37.805272 45974 net.cpp:380] res4d_branch2c -> res4d_branch2c
I0105 10:27:37.807363 45974 net.cpp:122] Setting up res4d_branch2c
I0105 10:27:37.807386 45974 net.cpp:129] Top shape: 1 1024 3 3 (9216)
I0105 10:27:37.807394 45974 net.cpp:137] Memory required for data: 9464836
I0105 10:27:37.807404 45974 layer_factory.hpp:77] Creating layer bn4d_branch2c
I0105 10:27:37.807418 45974 net.cpp:84] Creating Layer bn4d_branch2c
I0105 10:27:37.807425 45974 net.cpp:406] bn4d_branch2c <- res4d_branch2c
I0105 10:27:37.807435 45974 net.cpp:367] bn4d_branch2c -> res4d_branch2c (in-place)
I0105 10:27:37.807719 45974 net.cpp:122] Setting up bn4d_branch2c
I0105 10:27:37.807734 45974 net.cpp:129] Top shape: 1 1024 3 3 (9216)
I0105 10:27:37.807739 45974 net.cpp:137] Memory required for data: 9501700
I0105 10:27:37.807752 45974 layer_factory.hpp:77] Creating layer scale4d_branch2c
I0105 10:27:37.807765 45974 net.cpp:84] Creating Layer scale4d_branch2c
I0105 10:27:37.807772 45974 net.cpp:406] scale4d_branch2c <- res4d_branch2c
I0105 10:27:37.807780 45974 net.cpp:367] scale4d_branch2c -> res4d_branch2c (in-place)
I0105 10:27:37.807838 45974 layer_factory.hpp:77] Creating layer scale4d_branch2c
I0105 10:27:37.808007 45974 net.cpp:122] Setting up scale4d_branch2c
I0105 10:27:37.808018 45974 net.cpp:129] Top shape: 1 1024 3 3 (9216)
I0105 10:27:37.808023 45974 net.cpp:137] Memory required for data: 9538564
I0105 10:27:37.808034 45974 layer_factory.hpp:77] Creating layer res4d
I0105 10:27:37.808045 45974 net.cpp:84] Creating Layer res4d
I0105 10:27:37.808053 45974 net.cpp:406] res4d <- res4c_res4c_relu_0_split_1
I0105 10:27:37.808060 45974 net.cpp:406] res4d <- res4d_branch2c
I0105 10:27:37.808069 45974 net.cpp:380] res4d -> res4d
I0105 10:27:37.808107 45974 net.cpp:122] Setting up res4d
I0105 10:27:37.808118 45974 net.cpp:129] Top shape: 1 1024 3 3 (9216)
I0105 10:27:37.808125 45974 net.cpp:137] Memory required for data: 9575428
I0105 10:27:37.808130 45974 layer_factory.hpp:77] Creating layer res4d_relu
I0105 10:27:37.808140 45974 net.cpp:84] Creating Layer res4d_relu
I0105 10:27:37.808145 45974 net.cpp:406] res4d_relu <- res4d
I0105 10:27:37.808156 45974 net.cpp:367] res4d_relu -> res4d (in-place)
I0105 10:27:37.808166 45974 net.cpp:122] Setting up res4d_relu
I0105 10:27:37.808173 45974 net.cpp:129] Top shape: 1 1024 3 3 (9216)
I0105 10:27:37.808179 45974 net.cpp:137] Memory required for data: 9612292
I0105 10:27:37.808185 45974 layer_factory.hpp:77] Creating layer res4d_res4d_relu_0_split
I0105 10:27:37.808194 45974 net.cpp:84] Creating Layer res4d_res4d_relu_0_split
I0105 10:27:37.808199 45974 net.cpp:406] res4d_res4d_relu_0_split <- res4d
I0105 10:27:37.808207 45974 net.cpp:380] res4d_res4d_relu_0_split -> res4d_res4d_relu_0_split_0
I0105 10:27:37.808218 45974 net.cpp:380] res4d_res4d_relu_0_split -> res4d_res4d_relu_0_split_1
I0105 10:27:37.808270 45974 net.cpp:122] Setting up res4d_res4d_relu_0_split
I0105 10:27:37.808280 45974 net.cpp:129] Top shape: 1 1024 3 3 (9216)
I0105 10:27:37.808288 45974 net.cpp:129] Top shape: 1 1024 3 3 (9216)
I0105 10:27:37.808293 45974 net.cpp:137] Memory required for data: 9686020
I0105 10:27:37.808300 45974 layer_factory.hpp:77] Creating layer res4e_branch2a
I0105 10:27:37.808311 45974 net.cpp:84] Creating Layer res4e_branch2a
I0105 10:27:37.808317 45974 net.cpp:406] res4e_branch2a <- res4d_res4d_relu_0_split_0
I0105 10:27:37.808326 45974 net.cpp:380] res4e_branch2a -> res4e_branch2a
I0105 10:27:37.811420 45974 net.cpp:122] Setting up res4e_branch2a
I0105 10:27:37.811436 45974 net.cpp:129] Top shape: 1 256 3 3 (2304)
I0105 10:27:37.811442 45974 net.cpp:137] Memory required for data: 9695236
I0105 10:27:37.811451 45974 layer_factory.hpp:77] Creating layer bn4e_branch2a
I0105 10:27:37.811463 45974 net.cpp:84] Creating Layer bn4e_branch2a
I0105 10:27:37.811498 45974 net.cpp:406] bn4e_branch2a <- res4e_branch2a
I0105 10:27:37.811561 45974 net.cpp:367] bn4e_branch2a -> res4e_branch2a (in-place)
I0105 10:27:37.812908 45974 net.cpp:122] Setting up bn4e_branch2a
I0105 10:27:37.812922 45974 net.cpp:129] Top shape: 1 256 3 3 (2304)
I0105 10:27:37.812927 45974 net.cpp:137] Memory required for data: 9704452
I0105 10:27:37.812940 45974 layer_factory.hpp:77] Creating layer scale4e_branch2a
I0105 10:27:37.812953 45974 net.cpp:84] Creating Layer scale4e_branch2a
I0105 10:27:37.812959 45974 net.cpp:406] scale4e_branch2a <- res4e_branch2a
I0105 10:27:37.812968 45974 net.cpp:367] scale4e_branch2a -> res4e_branch2a (in-place)
I0105 10:27:37.813172 45974 layer_factory.hpp:77] Creating layer scale4e_branch2a
I0105 10:27:37.814396 45974 net.cpp:122] Setting up scale4e_branch2a
I0105 10:27:37.814407 45974 net.cpp:129] Top shape: 1 256 3 3 (2304)
I0105 10:27:37.814414 45974 net.cpp:137] Memory required for data: 9713668
I0105 10:27:37.814424 45974 layer_factory.hpp:77] Creating layer res4e_branch2a_relu
I0105 10:27:37.814432 45974 net.cpp:84] Creating Layer res4e_branch2a_relu
I0105 10:27:37.814440 45974 net.cpp:406] res4e_branch2a_relu <- res4e_branch2a
I0105 10:27:37.814450 45974 net.cpp:367] res4e_branch2a_relu -> res4e_branch2a (in-place)
I0105 10:27:37.814458 45974 net.cpp:122] Setting up res4e_branch2a_relu
I0105 10:27:37.814466 45974 net.cpp:129] Top shape: 1 256 3 3 (2304)
I0105 10:27:37.814472 45974 net.cpp:137] Memory required for data: 9722884
I0105 10:27:37.814478 45974 layer_factory.hpp:77] Creating layer res4e_branch2b
I0105 10:27:37.814489 45974 net.cpp:84] Creating Layer res4e_branch2b
I0105 10:27:37.814496 45974 net.cpp:406] res4e_branch2b <- res4e_branch2a
I0105 10:27:37.814507 45974 net.cpp:380] res4e_branch2b -> res4e_branch2b
I0105 10:27:37.819109 45974 net.cpp:122] Setting up res4e_branch2b
I0105 10:27:37.819133 45974 net.cpp:129] Top shape: 1 256 3 3 (2304)
I0105 10:27:37.819140 45974 net.cpp:137] Memory required for data: 9732100
I0105 10:27:37.819150 45974 layer_factory.hpp:77] Creating layer bn4e_branch2b
I0105 10:27:37.819164 45974 net.cpp:84] Creating Layer bn4e_branch2b
I0105 10:27:37.819171 45974 net.cpp:406] bn4e_branch2b <- res4e_branch2b
I0105 10:27:37.819180 45974 net.cpp:367] bn4e_branch2b -> res4e_branch2b (in-place)
I0105 10:27:37.819443 45974 net.cpp:122] Setting up bn4e_branch2b
I0105 10:27:37.819455 45974 net.cpp:129] Top shape: 1 256 3 3 (2304)
I0105 10:27:37.819461 45974 net.cpp:137] Memory required for data: 9741316
I0105 10:27:37.819474 45974 layer_factory.hpp:77] Creating layer scale4e_branch2b
I0105 10:27:37.819486 45974 net.cpp:84] Creating Layer scale4e_branch2b
I0105 10:27:37.819492 45974 net.cpp:406] scale4e_branch2b <- res4e_branch2b
I0105 10:27:37.819500 45974 net.cpp:367] scale4e_branch2b -> res4e_branch2b (in-place)
I0105 10:27:37.819559 45974 layer_factory.hpp:77] Creating layer scale4e_branch2b
I0105 10:27:37.819710 45974 net.cpp:122] Setting up scale4e_branch2b
I0105 10:27:37.819721 45974 net.cpp:129] Top shape: 1 256 3 3 (2304)
I0105 10:27:37.819727 45974 net.cpp:137] Memory required for data: 9750532
I0105 10:27:37.819737 45974 layer_factory.hpp:77] Creating layer res4e_branch2b_relu
I0105 10:27:37.819746 45974 net.cpp:84] Creating Layer res4e_branch2b_relu
I0105 10:27:37.819752 45974 net.cpp:406] res4e_branch2b_relu <- res4e_branch2b
I0105 10:27:37.819762 45974 net.cpp:367] res4e_branch2b_relu -> res4e_branch2b (in-place)
I0105 10:27:37.819772 45974 net.cpp:122] Setting up res4e_branch2b_relu
I0105 10:27:37.819778 45974 net.cpp:129] Top shape: 1 256 3 3 (2304)
I0105 10:27:37.819784 45974 net.cpp:137] Memory required for data: 9759748
I0105 10:27:37.819790 45974 layer_factory.hpp:77] Creating layer res4e_branch2c
I0105 10:27:37.819803 45974 net.cpp:84] Creating Layer res4e_branch2c
I0105 10:27:37.819810 45974 net.cpp:406] res4e_branch2c <- res4e_branch2b
I0105 10:27:37.819818 45974 net.cpp:380] res4e_branch2c -> res4e_branch2c
I0105 10:27:37.821832 45974 net.cpp:122] Setting up res4e_branch2c
I0105 10:27:37.821857 45974 net.cpp:129] Top shape: 1 1024 3 3 (9216)
I0105 10:27:37.821863 45974 net.cpp:137] Memory required for data: 9796612
I0105 10:27:37.821874 45974 layer_factory.hpp:77] Creating layer bn4e_branch2c
I0105 10:27:37.821885 45974 net.cpp:84] Creating Layer bn4e_branch2c
I0105 10:27:37.821892 45974 net.cpp:406] bn4e_branch2c <- res4e_branch2c
I0105 10:27:37.821902 45974 net.cpp:367] bn4e_branch2c -> res4e_branch2c (in-place)
I0105 10:27:37.822176 45974 net.cpp:122] Setting up bn4e_branch2c
I0105 10:27:37.822190 45974 net.cpp:129] Top shape: 1 1024 3 3 (9216)
I0105 10:27:37.822194 45974 net.cpp:137] Memory required for data: 9833476
I0105 10:27:37.822207 45974 layer_factory.hpp:77] Creating layer scale4e_branch2c
I0105 10:27:37.822217 45974 net.cpp:84] Creating Layer scale4e_branch2c
I0105 10:27:37.822223 45974 net.cpp:406] scale4e_branch2c <- res4e_branch2c
I0105 10:27:37.822232 45974 net.cpp:367] scale4e_branch2c -> res4e_branch2c (in-place)
I0105 10:27:37.822288 45974 layer_factory.hpp:77] Creating layer scale4e_branch2c
I0105 10:27:37.822449 45974 net.cpp:122] Setting up scale4e_branch2c
I0105 10:27:37.822460 45974 net.cpp:129] Top shape: 1 1024 3 3 (9216)
I0105 10:27:37.822466 45974 net.cpp:137] Memory required for data: 9870340
I0105 10:27:37.822476 45974 layer_factory.hpp:77] Creating layer res4e
I0105 10:27:37.822485 45974 net.cpp:84] Creating Layer res4e
I0105 10:27:37.822492 45974 net.cpp:406] res4e <- res4d_res4d_relu_0_split_1
I0105 10:27:37.822500 45974 net.cpp:406] res4e <- res4e_branch2c
I0105 10:27:37.822510 45974 net.cpp:380] res4e -> res4e
I0105 10:27:37.822546 45974 net.cpp:122] Setting up res4e
I0105 10:27:37.822556 45974 net.cpp:129] Top shape: 1 1024 3 3 (9216)
I0105 10:27:37.822561 45974 net.cpp:137] Memory required for data: 9907204
I0105 10:27:37.822567 45974 layer_factory.hpp:77] Creating layer res4e_relu
I0105 10:27:37.822582 45974 net.cpp:84] Creating Layer res4e_relu
I0105 10:27:37.822589 45974 net.cpp:406] res4e_relu <- res4e
I0105 10:27:37.822597 45974 net.cpp:367] res4e_relu -> res4e (in-place)
I0105 10:27:37.822607 45974 net.cpp:122] Setting up res4e_relu
I0105 10:27:37.822614 45974 net.cpp:129] Top shape: 1 1024 3 3 (9216)
I0105 10:27:37.822619 45974 net.cpp:137] Memory required for data: 9944068
I0105 10:27:37.822625 45974 layer_factory.hpp:77] Creating layer res4e_res4e_relu_0_split
I0105 10:27:37.822634 45974 net.cpp:84] Creating Layer res4e_res4e_relu_0_split
I0105 10:27:37.822639 45974 net.cpp:406] res4e_res4e_relu_0_split <- res4e
I0105 10:27:37.822649 45974 net.cpp:380] res4e_res4e_relu_0_split -> res4e_res4e_relu_0_split_0
I0105 10:27:37.822659 45974 net.cpp:380] res4e_res4e_relu_0_split -> res4e_res4e_relu_0_split_1
I0105 10:27:37.822710 45974 net.cpp:122] Setting up res4e_res4e_relu_0_split
I0105 10:27:37.822721 45974 net.cpp:129] Top shape: 1 1024 3 3 (9216)
I0105 10:27:37.822728 45974 net.cpp:129] Top shape: 1 1024 3 3 (9216)
I0105 10:27:37.822733 45974 net.cpp:137] Memory required for data: 10017796
I0105 10:27:37.822738 45974 layer_factory.hpp:77] Creating layer res4f_branch2a
I0105 10:27:37.822749 45974 net.cpp:84] Creating Layer res4f_branch2a
I0105 10:27:37.822757 45974 net.cpp:406] res4f_branch2a <- res4e_res4e_relu_0_split_0
I0105 10:27:37.822768 45974 net.cpp:380] res4f_branch2a -> res4f_branch2a
I0105 10:27:37.823290 45974 net.cpp:122] Setting up res4f_branch2a
I0105 10:27:37.823303 45974 net.cpp:129] Top shape: 1 256 3 3 (2304)
I0105 10:27:37.823309 45974 net.cpp:137] Memory required for data: 10027012
I0105 10:27:37.823318 45974 layer_factory.hpp:77] Creating layer bn4f_branch2a
I0105 10:27:37.823329 45974 net.cpp:84] Creating Layer bn4f_branch2a
I0105 10:27:37.823335 45974 net.cpp:406] bn4f_branch2a <- res4f_branch2a
I0105 10:27:37.823343 45974 net.cpp:367] bn4f_branch2a -> res4f_branch2a (in-place)
I0105 10:27:37.823595 45974 net.cpp:122] Setting up bn4f_branch2a
I0105 10:27:37.823606 45974 net.cpp:129] Top shape: 1 256 3 3 (2304)
I0105 10:27:37.823611 45974 net.cpp:137] Memory required for data: 10036228
I0105 10:27:37.823623 45974 layer_factory.hpp:77] Creating layer scale4f_branch2a
I0105 10:27:37.823634 45974 net.cpp:84] Creating Layer scale4f_branch2a
I0105 10:27:37.823642 45974 net.cpp:406] scale4f_branch2a <- res4f_branch2a
I0105 10:27:37.823648 45974 net.cpp:367] scale4f_branch2a -> res4f_branch2a (in-place)
I0105 10:27:37.823702 45974 layer_factory.hpp:77] Creating layer scale4f_branch2a
I0105 10:27:37.823853 45974 net.cpp:122] Setting up scale4f_branch2a
I0105 10:27:37.823864 45974 net.cpp:129] Top shape: 1 256 3 3 (2304)
I0105 10:27:37.823870 45974 net.cpp:137] Memory required for data: 10045444
I0105 10:27:37.823880 45974 layer_factory.hpp:77] Creating layer res4f_branch2a_relu
I0105 10:27:37.823890 45974 net.cpp:84] Creating Layer res4f_branch2a_relu
I0105 10:27:37.823897 45974 net.cpp:406] res4f_branch2a_relu <- res4f_branch2a
I0105 10:27:37.823904 45974 net.cpp:367] res4f_branch2a_relu -> res4f_branch2a (in-place)
I0105 10:27:37.823913 45974 net.cpp:122] Setting up res4f_branch2a_relu
I0105 10:27:37.823921 45974 net.cpp:129] Top shape: 1 256 3 3 (2304)
I0105 10:27:37.823926 45974 net.cpp:137] Memory required for data: 10054660
I0105 10:27:37.823932 45974 layer_factory.hpp:77] Creating layer res4f_branch2b
I0105 10:27:37.823945 45974 net.cpp:84] Creating Layer res4f_branch2b
I0105 10:27:37.823951 45974 net.cpp:406] res4f_branch2b <- res4f_branch2a
I0105 10:27:37.823959 45974 net.cpp:380] res4f_branch2b -> res4f_branch2b
I0105 10:27:37.826390 45974 net.cpp:122] Setting up res4f_branch2b
I0105 10:27:37.826412 45974 net.cpp:129] Top shape: 1 256 3 3 (2304)
I0105 10:27:37.826418 45974 net.cpp:137] Memory required for data: 10063876
I0105 10:27:37.826428 45974 layer_factory.hpp:77] Creating layer bn4f_branch2b
I0105 10:27:37.826438 45974 net.cpp:84] Creating Layer bn4f_branch2b
I0105 10:27:37.826445 45974 net.cpp:406] bn4f_branch2b <- res4f_branch2b
I0105 10:27:37.826453 45974 net.cpp:367] bn4f_branch2b -> res4f_branch2b (in-place)
I0105 10:27:37.826709 45974 net.cpp:122] Setting up bn4f_branch2b
I0105 10:27:37.826721 45974 net.cpp:129] Top shape: 1 256 3 3 (2304)
I0105 10:27:37.826726 45974 net.cpp:137] Memory required for data: 10073092
I0105 10:27:37.826738 45974 layer_factory.hpp:77] Creating layer scale4f_branch2b
I0105 10:27:37.826748 45974 net.cpp:84] Creating Layer scale4f_branch2b
I0105 10:27:37.826755 45974 net.cpp:406] scale4f_branch2b <- res4f_branch2b
I0105 10:27:37.826762 45974 net.cpp:367] scale4f_branch2b -> res4f_branch2b (in-place)
I0105 10:27:37.826818 45974 layer_factory.hpp:77] Creating layer scale4f_branch2b
I0105 10:27:37.826962 45974 net.cpp:122] Setting up scale4f_branch2b
I0105 10:27:37.826973 45974 net.cpp:129] Top shape: 1 256 3 3 (2304)
I0105 10:27:37.826978 45974 net.cpp:137] Memory required for data: 10082308
I0105 10:27:37.826988 45974 layer_factory.hpp:77] Creating layer res4f_branch2b_relu
I0105 10:27:37.826997 45974 net.cpp:84] Creating Layer res4f_branch2b_relu
I0105 10:27:37.827003 45974 net.cpp:406] res4f_branch2b_relu <- res4f_branch2b
I0105 10:27:37.827013 45974 net.cpp:367] res4f_branch2b_relu -> res4f_branch2b (in-place)
I0105 10:27:37.827021 45974 net.cpp:122] Setting up res4f_branch2b_relu
I0105 10:27:37.827028 45974 net.cpp:129] Top shape: 1 256 3 3 (2304)
I0105 10:27:37.827033 45974 net.cpp:137] Memory required for data: 10091524
I0105 10:27:37.827039 45974 layer_factory.hpp:77] Creating layer res4f_branch2c
I0105 10:27:37.827049 45974 net.cpp:84] Creating Layer res4f_branch2c
I0105 10:27:37.827055 45974 net.cpp:406] res4f_branch2c <- res4f_branch2b
I0105 10:27:37.827065 45974 net.cpp:380] res4f_branch2c -> res4f_branch2c
I0105 10:27:37.828982 45974 net.cpp:122] Setting up res4f_branch2c
I0105 10:27:37.829005 45974 net.cpp:129] Top shape: 1 1024 3 3 (9216)
I0105 10:27:37.829011 45974 net.cpp:137] Memory required for data: 10128388
I0105 10:27:37.829021 45974 layer_factory.hpp:77] Creating layer bn4f_branch2c
I0105 10:27:37.829032 45974 net.cpp:84] Creating Layer bn4f_branch2c
I0105 10:27:37.829038 45974 net.cpp:406] bn4f_branch2c <- res4f_branch2c
I0105 10:27:37.829048 45974 net.cpp:367] bn4f_branch2c -> res4f_branch2c (in-place)
I0105 10:27:37.829311 45974 net.cpp:122] Setting up bn4f_branch2c
I0105 10:27:37.829322 45974 net.cpp:129] Top shape: 1 1024 3 3 (9216)
I0105 10:27:37.829329 45974 net.cpp:137] Memory required for data: 10165252
I0105 10:27:37.829396 45974 layer_factory.hpp:77] Creating layer scale4f_branch2c
I0105 10:27:37.829408 45974 net.cpp:84] Creating Layer scale4f_branch2c
I0105 10:27:37.829414 45974 net.cpp:406] scale4f_branch2c <- res4f_branch2c
I0105 10:27:37.829422 45974 net.cpp:367] scale4f_branch2c -> res4f_branch2c (in-place)
I0105 10:27:37.829480 45974 layer_factory.hpp:77] Creating layer scale4f_branch2c
I0105 10:27:37.829634 45974 net.cpp:122] Setting up scale4f_branch2c
I0105 10:27:37.829645 45974 net.cpp:129] Top shape: 1 1024 3 3 (9216)
I0105 10:27:37.829651 45974 net.cpp:137] Memory required for data: 10202116
I0105 10:27:37.829660 45974 layer_factory.hpp:77] Creating layer res4f
I0105 10:27:37.829671 45974 net.cpp:84] Creating Layer res4f
I0105 10:27:37.829677 45974 net.cpp:406] res4f <- res4e_res4e_relu_0_split_1
I0105 10:27:37.829684 45974 net.cpp:406] res4f <- res4f_branch2c
I0105 10:27:37.829692 45974 net.cpp:380] res4f -> res4f
I0105 10:27:37.829728 45974 net.cpp:122] Setting up res4f
I0105 10:27:37.829737 45974 net.cpp:129] Top shape: 1 1024 3 3 (9216)
I0105 10:27:37.829742 45974 net.cpp:137] Memory required for data: 10238980
I0105 10:27:37.829748 45974 layer_factory.hpp:77] Creating layer res4f_relu
I0105 10:27:37.829756 45974 net.cpp:84] Creating Layer res4f_relu
I0105 10:27:37.829762 45974 net.cpp:406] res4f_relu <- res4f
I0105 10:27:37.829772 45974 net.cpp:367] res4f_relu -> res4f (in-place)
I0105 10:27:37.829782 45974 net.cpp:122] Setting up res4f_relu
I0105 10:27:37.829788 45974 net.cpp:129] Top shape: 1 1024 3 3 (9216)
I0105 10:27:37.829793 45974 net.cpp:137] Memory required for data: 10275844
I0105 10:27:37.829799 45974 layer_factory.hpp:77] Creating layer drop4
I0105 10:27:37.829808 45974 net.cpp:84] Creating Layer drop4
I0105 10:27:37.829813 45974 net.cpp:406] drop4 <- res4f
I0105 10:27:37.829823 45974 net.cpp:367] drop4 -> res4f (in-place)
I0105 10:27:37.829854 45974 net.cpp:122] Setting up drop4
I0105 10:27:37.829862 45974 net.cpp:129] Top shape: 1 1024 3 3 (9216)
I0105 10:27:37.829867 45974 net.cpp:137] Memory required for data: 10312708
I0105 10:27:37.829874 45974 layer_factory.hpp:77] Creating layer res4f_drop4_0_split
I0105 10:27:37.829880 45974 net.cpp:84] Creating Layer res4f_drop4_0_split
I0105 10:27:37.829886 45974 net.cpp:406] res4f_drop4_0_split <- res4f
I0105 10:27:37.829895 45974 net.cpp:380] res4f_drop4_0_split -> res4f_drop4_0_split_0
I0105 10:27:37.829905 45974 net.cpp:380] res4f_drop4_0_split -> res4f_drop4_0_split_1
I0105 10:27:37.829949 45974 net.cpp:122] Setting up res4f_drop4_0_split
I0105 10:27:37.829959 45974 net.cpp:129] Top shape: 1 1024 3 3 (9216)
I0105 10:27:37.829967 45974 net.cpp:129] Top shape: 1 1024 3 3 (9216)
I0105 10:27:37.829970 45974 net.cpp:137] Memory required for data: 10386436
I0105 10:27:37.829977 45974 layer_factory.hpp:77] Creating layer res5a_branch1
I0105 10:27:37.829987 45974 net.cpp:84] Creating Layer res5a_branch1
I0105 10:27:37.829993 45974 net.cpp:406] res5a_branch1 <- res4f_drop4_0_split_0
I0105 10:27:37.830000 45974 net.cpp:380] res5a_branch1 -> res5a_branch1
I0105 10:27:37.836567 45974 net.cpp:122] Setting up res5a_branch1
I0105 10:27:37.836596 45974 net.cpp:129] Top shape: 1 2048 2 2 (8192)
I0105 10:27:37.836602 45974 net.cpp:137] Memory required for data: 10419204
I0105 10:27:37.836612 45974 layer_factory.hpp:77] Creating layer bn5a_branch1
I0105 10:27:37.836624 45974 net.cpp:84] Creating Layer bn5a_branch1
I0105 10:27:37.836632 45974 net.cpp:406] bn5a_branch1 <- res5a_branch1
I0105 10:27:37.836640 45974 net.cpp:367] bn5a_branch1 -> res5a_branch1 (in-place)
I0105 10:27:37.836915 45974 net.cpp:122] Setting up bn5a_branch1
I0105 10:27:37.836926 45974 net.cpp:129] Top shape: 1 2048 2 2 (8192)
I0105 10:27:37.836931 45974 net.cpp:137] Memory required for data: 10451972
I0105 10:27:37.836942 45974 layer_factory.hpp:77] Creating layer scale5a_branch1
I0105 10:27:37.836951 45974 net.cpp:84] Creating Layer scale5a_branch1
I0105 10:27:37.836957 45974 net.cpp:406] scale5a_branch1 <- res5a_branch1
I0105 10:27:37.836966 45974 net.cpp:367] scale5a_branch1 -> res5a_branch1 (in-place)
I0105 10:27:37.837018 45974 layer_factory.hpp:77] Creating layer scale5a_branch1
I0105 10:27:37.837172 45974 net.cpp:122] Setting up scale5a_branch1
I0105 10:27:37.837182 45974 net.cpp:129] Top shape: 1 2048 2 2 (8192)
I0105 10:27:37.837188 45974 net.cpp:137] Memory required for data: 10484740
I0105 10:27:37.837198 45974 layer_factory.hpp:77] Creating layer res5a_branch2a
I0105 10:27:37.837209 45974 net.cpp:84] Creating Layer res5a_branch2a
I0105 10:27:37.837216 45974 net.cpp:406] res5a_branch2a <- res4f_drop4_0_split_1
I0105 10:27:37.837224 45974 net.cpp:380] res5a_branch2a -> res5a_branch2a
I0105 10:27:37.839323 45974 net.cpp:122] Setting up res5a_branch2a
I0105 10:27:37.839344 45974 net.cpp:129] Top shape: 1 512 2 2 (2048)
I0105 10:27:37.839349 45974 net.cpp:137] Memory required for data: 10492932
I0105 10:27:37.839359 45974 layer_factory.hpp:77] Creating layer bn5a_branch2a
I0105 10:27:37.839368 45974 net.cpp:84] Creating Layer bn5a_branch2a
I0105 10:27:37.839375 45974 net.cpp:406] bn5a_branch2a <- res5a_branch2a
I0105 10:27:37.839382 45974 net.cpp:367] bn5a_branch2a -> res5a_branch2a (in-place)
I0105 10:27:37.839632 45974 net.cpp:122] Setting up bn5a_branch2a
I0105 10:27:37.839644 45974 net.cpp:129] Top shape: 1 512 2 2 (2048)
I0105 10:27:37.839649 45974 net.cpp:137] Memory required for data: 10501124
I0105 10:27:37.839663 45974 layer_factory.hpp:77] Creating layer scale5a_branch2a
I0105 10:27:37.839671 45974 net.cpp:84] Creating Layer scale5a_branch2a
I0105 10:27:37.839678 45974 net.cpp:406] scale5a_branch2a <- res5a_branch2a
I0105 10:27:37.839684 45974 net.cpp:367] scale5a_branch2a -> res5a_branch2a (in-place)
I0105 10:27:37.839735 45974 layer_factory.hpp:77] Creating layer scale5a_branch2a
I0105 10:27:37.839879 45974 net.cpp:122] Setting up scale5a_branch2a
I0105 10:27:37.839890 45974 net.cpp:129] Top shape: 1 512 2 2 (2048)
I0105 10:27:37.839895 45974 net.cpp:137] Memory required for data: 10509316
I0105 10:27:37.839903 45974 layer_factory.hpp:77] Creating layer res5a_branch2a_relu
I0105 10:27:37.839913 45974 net.cpp:84] Creating Layer res5a_branch2a_relu
I0105 10:27:37.839920 45974 net.cpp:406] res5a_branch2a_relu <- res5a_branch2a
I0105 10:27:37.839926 45974 net.cpp:367] res5a_branch2a_relu -> res5a_branch2a (in-place)
I0105 10:27:37.839934 45974 net.cpp:122] Setting up res5a_branch2a_relu
I0105 10:27:37.839942 45974 net.cpp:129] Top shape: 1 512 2 2 (2048)
I0105 10:27:37.839946 45974 net.cpp:137] Memory required for data: 10517508
I0105 10:27:37.839952 45974 layer_factory.hpp:77] Creating layer res5a_branch2b
I0105 10:27:37.839964 45974 net.cpp:84] Creating Layer res5a_branch2b
I0105 10:27:37.839969 45974 net.cpp:406] res5a_branch2b <- res5a_branch2a
I0105 10:27:37.839977 45974 net.cpp:380] res5a_branch2b -> res5a_branch2b
I0105 10:27:37.865159 45974 net.cpp:122] Setting up res5a_branch2b
I0105 10:27:37.865191 45974 net.cpp:129] Top shape: 1 512 2 2 (2048)
I0105 10:27:37.865197 45974 net.cpp:137] Memory required for data: 10525700
I0105 10:27:37.865208 45974 layer_factory.hpp:77] Creating layer bn5a_branch2b
I0105 10:27:37.865222 45974 net.cpp:84] Creating Layer bn5a_branch2b
I0105 10:27:37.865231 45974 net.cpp:406] bn5a_branch2b <- res5a_branch2b
I0105 10:27:37.865239 45974 net.cpp:367] bn5a_branch2b -> res5a_branch2b (in-place)
I0105 10:27:37.865501 45974 net.cpp:122] Setting up bn5a_branch2b
I0105 10:27:37.865512 45974 net.cpp:129] Top shape: 1 512 2 2 (2048)
I0105 10:27:37.865519 45974 net.cpp:137] Memory required for data: 10533892
I0105 10:27:37.865530 45974 layer_factory.hpp:77] Creating layer scale5a_branch2b
I0105 10:27:37.865540 45974 net.cpp:84] Creating Layer scale5a_branch2b
I0105 10:27:37.865545 45974 net.cpp:406] scale5a_branch2b <- res5a_branch2b
I0105 10:27:37.865552 45974 net.cpp:367] scale5a_branch2b -> res5a_branch2b (in-place)
I0105 10:27:37.865603 45974 layer_factory.hpp:77] Creating layer scale5a_branch2b
I0105 10:27:37.865748 45974 net.cpp:122] Setting up scale5a_branch2b
I0105 10:27:37.865758 45974 net.cpp:129] Top shape: 1 512 2 2 (2048)
I0105 10:27:37.865763 45974 net.cpp:137] Memory required for data: 10542084
I0105 10:27:37.865773 45974 layer_factory.hpp:77] Creating layer res5a_branch2b_relu
I0105 10:27:37.865782 45974 net.cpp:84] Creating Layer res5a_branch2b_relu
I0105 10:27:37.865787 45974 net.cpp:406] res5a_branch2b_relu <- res5a_branch2b
I0105 10:27:37.865797 45974 net.cpp:367] res5a_branch2b_relu -> res5a_branch2b (in-place)
I0105 10:27:37.865805 45974 net.cpp:122] Setting up res5a_branch2b_relu
I0105 10:27:37.865813 45974 net.cpp:129] Top shape: 1 512 2 2 (2048)
I0105 10:27:37.865816 45974 net.cpp:137] Memory required for data: 10550276
I0105 10:27:37.865823 45974 layer_factory.hpp:77] Creating layer res5a_branch2c
I0105 10:27:37.865833 45974 net.cpp:84] Creating Layer res5a_branch2c
I0105 10:27:37.865839 45974 net.cpp:406] res5a_branch2c <- res5a_branch2b
I0105 10:27:37.865849 45974 net.cpp:380] res5a_branch2c -> res5a_branch2c
I0105 10:27:37.874467 45974 net.cpp:122] Setting up res5a_branch2c
I0105 10:27:37.874636 45974 net.cpp:129] Top shape: 1 2048 2 2 (8192)
I0105 10:27:37.874642 45974 net.cpp:137] Memory required for data: 10583044
I0105 10:27:37.874652 45974 layer_factory.hpp:77] Creating layer bn5a_branch2c
I0105 10:27:37.874662 45974 net.cpp:84] Creating Layer bn5a_branch2c
I0105 10:27:37.874668 45974 net.cpp:406] bn5a_branch2c <- res5a_branch2c
I0105 10:27:37.874680 45974 net.cpp:367] bn5a_branch2c -> res5a_branch2c (in-place)
I0105 10:27:37.875404 45974 net.cpp:122] Setting up bn5a_branch2c
I0105 10:27:37.875628 45974 net.cpp:129] Top shape: 1 2048 2 2 (8192)
I0105 10:27:37.875650 45974 net.cpp:137] Memory required for data: 10615812
I0105 10:27:37.875766 45974 layer_factory.hpp:77] Creating layer scale5a_branch2c
I0105 10:27:37.875893 45974 net.cpp:84] Creating Layer scale5a_branch2c
I0105 10:27:37.875939 45974 net.cpp:406] scale5a_branch2c <- res5a_branch2c
I0105 10:27:37.876071 45974 net.cpp:367] scale5a_branch2c -> res5a_branch2c (in-place)
I0105 10:27:37.876231 45974 layer_factory.hpp:77] Creating layer scale5a_branch2c
I0105 10:27:37.876521 45974 net.cpp:122] Setting up scale5a_branch2c
I0105 10:27:37.876735 45974 net.cpp:129] Top shape: 1 2048 2 2 (8192)
I0105 10:27:37.876750 45974 net.cpp:137] Memory required for data: 10648580
I0105 10:27:37.876823 45974 layer_factory.hpp:77] Creating layer res5a
I0105 10:27:37.876931 45974 net.cpp:84] Creating Layer res5a
I0105 10:27:37.877025 45974 net.cpp:406] res5a <- res5a_branch1
I0105 10:27:37.877068 45974 net.cpp:406] res5a <- res5a_branch2c
I0105 10:27:37.877090 45974 net.cpp:380] res5a -> res5a
I0105 10:27:37.877732 45974 net.cpp:122] Setting up res5a
I0105 10:27:37.877743 45974 net.cpp:129] Top shape: 1 2048 2 2 (8192)
I0105 10:27:37.877748 45974 net.cpp:137] Memory required for data: 10681348
I0105 10:27:37.877753 45974 layer_factory.hpp:77] Creating layer res5a_relu
I0105 10:27:37.877763 45974 net.cpp:84] Creating Layer res5a_relu
I0105 10:27:37.877768 45974 net.cpp:406] res5a_relu <- res5a
I0105 10:27:37.877774 45974 net.cpp:367] res5a_relu -> res5a (in-place)
I0105 10:27:37.877782 45974 net.cpp:122] Setting up res5a_relu
I0105 10:27:37.877790 45974 net.cpp:129] Top shape: 1 2048 2 2 (8192)
I0105 10:27:37.877794 45974 net.cpp:137] Memory required for data: 10714116
I0105 10:27:37.877799 45974 layer_factory.hpp:77] Creating layer res5a_res5a_relu_0_split
I0105 10:27:37.877809 45974 net.cpp:84] Creating Layer res5a_res5a_relu_0_split
I0105 10:27:37.877813 45974 net.cpp:406] res5a_res5a_relu_0_split <- res5a
I0105 10:27:37.877820 45974 net.cpp:380] res5a_res5a_relu_0_split -> res5a_res5a_relu_0_split_0
I0105 10:27:37.877835 45974 net.cpp:380] res5a_res5a_relu_0_split -> res5a_res5a_relu_0_split_1
I0105 10:27:37.877880 45974 net.cpp:122] Setting up res5a_res5a_relu_0_split
I0105 10:27:37.877892 45974 net.cpp:129] Top shape: 1 2048 2 2 (8192)
I0105 10:27:37.877910 45974 net.cpp:129] Top shape: 1 2048 2 2 (8192)
I0105 10:27:37.877928 45974 net.cpp:137] Memory required for data: 10779652
I0105 10:27:37.877954 45974 layer_factory.hpp:77] Creating layer res5b_branch2a
I0105 10:27:37.878118 45974 net.cpp:84] Creating Layer res5b_branch2a
I0105 10:27:37.878141 45974 net.cpp:406] res5b_branch2a <- res5a_res5a_relu_0_split_0
I0105 10:27:37.878232 45974 net.cpp:380] res5b_branch2a -> res5b_branch2a
I0105 10:27:37.895277 45974 net.cpp:122] Setting up res5b_branch2a
I0105 10:27:37.895298 45974 net.cpp:129] Top shape: 1 512 2 2 (2048)
I0105 10:27:37.895304 45974 net.cpp:137] Memory required for data: 10787844
I0105 10:27:37.895313 45974 layer_factory.hpp:77] Creating layer bn5b_branch2a
I0105 10:27:37.895326 45974 net.cpp:84] Creating Layer bn5b_branch2a
I0105 10:27:37.895334 45974 net.cpp:406] bn5b_branch2a <- res5b_branch2a
I0105 10:27:37.895341 45974 net.cpp:367] bn5b_branch2a -> res5b_branch2a (in-place)
I0105 10:27:37.895596 45974 net.cpp:122] Setting up bn5b_branch2a
I0105 10:27:37.895606 45974 net.cpp:129] Top shape: 1 512 2 2 (2048)
I0105 10:27:37.895612 45974 net.cpp:137] Memory required for data: 10796036
I0105 10:27:37.895623 45974 layer_factory.hpp:77] Creating layer scale5b_branch2a
I0105 10:27:37.895633 45974 net.cpp:84] Creating Layer scale5b_branch2a
I0105 10:27:37.895640 45974 net.cpp:406] scale5b_branch2a <- res5b_branch2a
I0105 10:27:37.895648 45974 net.cpp:367] scale5b_branch2a -> res5b_branch2a (in-place)
I0105 10:27:37.895697 45974 layer_factory.hpp:77] Creating layer scale5b_branch2a
I0105 10:27:37.895849 45974 net.cpp:122] Setting up scale5b_branch2a
I0105 10:27:37.895860 45974 net.cpp:129] Top shape: 1 512 2 2 (2048)
I0105 10:27:37.895864 45974 net.cpp:137] Memory required for data: 10804228
I0105 10:27:37.895874 45974 layer_factory.hpp:77] Creating layer res5b_branch2a_relu
I0105 10:27:37.895882 45974 net.cpp:84] Creating Layer res5b_branch2a_relu
I0105 10:27:37.895889 45974 net.cpp:406] res5b_branch2a_relu <- res5b_branch2a
I0105 10:27:37.895897 45974 net.cpp:367] res5b_branch2a_relu -> res5b_branch2a (in-place)
I0105 10:27:37.895905 45974 net.cpp:122] Setting up res5b_branch2a_relu
I0105 10:27:37.895912 45974 net.cpp:129] Top shape: 1 512 2 2 (2048)
I0105 10:27:37.895917 45974 net.cpp:137] Memory required for data: 10812420
I0105 10:27:37.895922 45974 layer_factory.hpp:77] Creating layer res5b_branch2b
I0105 10:27:37.895936 45974 net.cpp:84] Creating Layer res5b_branch2b
I0105 10:27:37.895941 45974 net.cpp:406] res5b_branch2b <- res5b_branch2a
I0105 10:27:37.895949 45974 net.cpp:380] res5b_branch2b -> res5b_branch2b
I0105 10:27:37.904222 45974 net.cpp:122] Setting up res5b_branch2b
I0105 10:27:37.904263 45974 net.cpp:129] Top shape: 1 512 2 2 (2048)
I0105 10:27:37.904269 45974 net.cpp:137] Memory required for data: 10820612
I0105 10:27:37.904283 45974 layer_factory.hpp:77] Creating layer bn5b_branch2b
I0105 10:27:37.904299 45974 net.cpp:84] Creating Layer bn5b_branch2b
I0105 10:27:37.904307 45974 net.cpp:406] bn5b_branch2b <- res5b_branch2b
I0105 10:27:37.904317 45974 net.cpp:367] bn5b_branch2b -> res5b_branch2b (in-place)
I0105 10:27:37.904600 45974 net.cpp:122] Setting up bn5b_branch2b
I0105 10:27:37.904616 45974 net.cpp:129] Top shape: 1 512 2 2 (2048)
I0105 10:27:37.904623 45974 net.cpp:137] Memory required for data: 10828804
I0105 10:27:37.904634 45974 layer_factory.hpp:77] Creating layer scale5b_branch2b
I0105 10:27:37.904647 45974 net.cpp:84] Creating Layer scale5b_branch2b
I0105 10:27:37.904654 45974 net.cpp:406] scale5b_branch2b <- res5b_branch2b
I0105 10:27:37.904660 45974 net.cpp:367] scale5b_branch2b -> res5b_branch2b (in-place)
I0105 10:27:37.904716 45974 layer_factory.hpp:77] Creating layer scale5b_branch2b
I0105 10:27:37.904881 45974 net.cpp:122] Setting up scale5b_branch2b
I0105 10:27:37.904894 45974 net.cpp:129] Top shape: 1 512 2 2 (2048)
I0105 10:27:37.904899 45974 net.cpp:137] Memory required for data: 10836996
I0105 10:27:37.904909 45974 layer_factory.hpp:77] Creating layer res5b_branch2b_relu
I0105 10:27:37.904920 45974 net.cpp:84] Creating Layer res5b_branch2b_relu
I0105 10:27:37.904927 45974 net.cpp:406] res5b_branch2b_relu <- res5b_branch2b
I0105 10:27:37.904933 45974 net.cpp:367] res5b_branch2b_relu -> res5b_branch2b (in-place)
I0105 10:27:37.904942 45974 net.cpp:122] Setting up res5b_branch2b_relu
I0105 10:27:37.904949 45974 net.cpp:129] Top shape: 1 512 2 2 (2048)
I0105 10:27:37.904953 45974 net.cpp:137] Memory required for data: 10845188
I0105 10:27:37.904959 45974 layer_factory.hpp:77] Creating layer res5b_branch2c
I0105 10:27:37.904973 45974 net.cpp:84] Creating Layer res5b_branch2c
I0105 10:27:37.904978 45974 net.cpp:406] res5b_branch2c <- res5b_branch2b
I0105 10:27:37.904985 45974 net.cpp:380] res5b_branch2c -> res5b_branch2c
I0105 10:27:37.908605 45974 net.cpp:122] Setting up res5b_branch2c
I0105 10:27:37.908627 45974 net.cpp:129] Top shape: 1 2048 2 2 (8192)
I0105 10:27:37.908633 45974 net.cpp:137] Memory required for data: 10877956
I0105 10:27:37.908643 45974 layer_factory.hpp:77] Creating layer bn5b_branch2c
I0105 10:27:37.908653 45974 net.cpp:84] Creating Layer bn5b_branch2c
I0105 10:27:37.908659 45974 net.cpp:406] bn5b_branch2c <- res5b_branch2c
I0105 10:27:37.908668 45974 net.cpp:367] bn5b_branch2c -> res5b_branch2c (in-place)
I0105 10:27:37.908927 45974 net.cpp:122] Setting up bn5b_branch2c
I0105 10:27:37.908939 45974 net.cpp:129] Top shape: 1 2048 2 2 (8192)
I0105 10:27:37.908944 45974 net.cpp:137] Memory required for data: 10910724
I0105 10:27:37.908957 45974 layer_factory.hpp:77] Creating layer scale5b_branch2c
I0105 10:27:37.908965 45974 net.cpp:84] Creating Layer scale5b_branch2c
I0105 10:27:37.908970 45974 net.cpp:406] scale5b_branch2c <- res5b_branch2c
I0105 10:27:37.908978 45974 net.cpp:367] scale5b_branch2c -> res5b_branch2c (in-place)
I0105 10:27:37.909034 45974 layer_factory.hpp:77] Creating layer scale5b_branch2c
I0105 10:27:37.909183 45974 net.cpp:122] Setting up scale5b_branch2c
I0105 10:27:37.909193 45974 net.cpp:129] Top shape: 1 2048 2 2 (8192)
I0105 10:27:37.909198 45974 net.cpp:137] Memory required for data: 10943492
I0105 10:27:37.909209 45974 layer_factory.hpp:77] Creating layer res5b
I0105 10:27:37.909217 45974 net.cpp:84] Creating Layer res5b
I0105 10:27:37.909224 45974 net.cpp:406] res5b <- res5a_res5a_relu_0_split_1
I0105 10:27:37.909230 45974 net.cpp:406] res5b <- res5b_branch2c
I0105 10:27:37.909240 45974 net.cpp:380] res5b -> res5b
I0105 10:27:37.909274 45974 net.cpp:122] Setting up res5b
I0105 10:27:37.909284 45974 net.cpp:129] Top shape: 1 2048 2 2 (8192)
I0105 10:27:37.909288 45974 net.cpp:137] Memory required for data: 10976260
I0105 10:27:37.909294 45974 layer_factory.hpp:77] Creating layer res5b_relu
I0105 10:27:37.909304 45974 net.cpp:84] Creating Layer res5b_relu
I0105 10:27:37.909310 45974 net.cpp:406] res5b_relu <- res5b
I0105 10:27:37.909317 45974 net.cpp:367] res5b_relu -> res5b (in-place)
I0105 10:27:37.909327 45974 net.cpp:122] Setting up res5b_relu
I0105 10:27:37.909333 45974 net.cpp:129] Top shape: 1 2048 2 2 (8192)
I0105 10:27:37.909338 45974 net.cpp:137] Memory required for data: 11009028
I0105 10:27:37.909343 45974 layer_factory.hpp:77] Creating layer res5b_res5b_relu_0_split
I0105 10:27:37.909353 45974 net.cpp:84] Creating Layer res5b_res5b_relu_0_split
I0105 10:27:37.909358 45974 net.cpp:406] res5b_res5b_relu_0_split <- res5b
I0105 10:27:37.909365 45974 net.cpp:380] res5b_res5b_relu_0_split -> res5b_res5b_relu_0_split_0
I0105 10:27:37.909373 45974 net.cpp:380] res5b_res5b_relu_0_split -> res5b_res5b_relu_0_split_1
I0105 10:27:37.909418 45974 net.cpp:122] Setting up res5b_res5b_relu_0_split
I0105 10:27:37.909428 45974 net.cpp:129] Top shape: 1 2048 2 2 (8192)
I0105 10:27:37.909435 45974 net.cpp:129] Top shape: 1 2048 2 2 (8192)
I0105 10:27:37.909440 45974 net.cpp:137] Memory required for data: 11074564
I0105 10:27:37.909445 45974 layer_factory.hpp:77] Creating layer res5c_branch2a
I0105 10:27:37.909457 45974 net.cpp:84] Creating Layer res5c_branch2a
I0105 10:27:37.909463 45974 net.cpp:406] res5c_branch2a <- res5b_res5b_relu_0_split_0
I0105 10:27:37.909471 45974 net.cpp:380] res5c_branch2a -> res5c_branch2a
I0105 10:27:37.913137 45974 net.cpp:122] Setting up res5c_branch2a
I0105 10:27:37.913158 45974 net.cpp:129] Top shape: 1 512 2 2 (2048)
I0105 10:27:37.913164 45974 net.cpp:137] Memory required for data: 11082756
I0105 10:27:37.913174 45974 layer_factory.hpp:77] Creating layer bn5c_branch2a
I0105 10:27:37.913184 45974 net.cpp:84] Creating Layer bn5c_branch2a
I0105 10:27:37.913190 45974 net.cpp:406] bn5c_branch2a <- res5c_branch2a
I0105 10:27:37.913202 45974 net.cpp:367] bn5c_branch2a -> res5c_branch2a (in-place)
I0105 10:27:37.913453 45974 net.cpp:122] Setting up bn5c_branch2a
I0105 10:27:37.913465 45974 net.cpp:129] Top shape: 1 512 2 2 (2048)
I0105 10:27:37.913470 45974 net.cpp:137] Memory required for data: 11090948
I0105 10:27:37.913481 45974 layer_factory.hpp:77] Creating layer scale5c_branch2a
I0105 10:27:37.913491 45974 net.cpp:84] Creating Layer scale5c_branch2a
I0105 10:27:37.913496 45974 net.cpp:406] scale5c_branch2a <- res5c_branch2a
I0105 10:27:37.913506 45974 net.cpp:367] scale5c_branch2a -> res5c_branch2a (in-place)
I0105 10:27:37.913554 45974 layer_factory.hpp:77] Creating layer scale5c_branch2a
I0105 10:27:37.913704 45974 net.cpp:122] Setting up scale5c_branch2a
I0105 10:27:37.913715 45974 net.cpp:129] Top shape: 1 512 2 2 (2048)
I0105 10:27:37.913720 45974 net.cpp:137] Memory required for data: 11099140
I0105 10:27:37.913729 45974 layer_factory.hpp:77] Creating layer res5c_branch2a_relu
I0105 10:27:37.913738 45974 net.cpp:84] Creating Layer res5c_branch2a_relu
I0105 10:27:37.913743 45974 net.cpp:406] res5c_branch2a_relu <- res5c_branch2a
I0105 10:27:37.913750 45974 net.cpp:367] res5c_branch2a_relu -> res5c_branch2a (in-place)
I0105 10:27:37.913759 45974 net.cpp:122] Setting up res5c_branch2a_relu
I0105 10:27:37.913766 45974 net.cpp:129] Top shape: 1 512 2 2 (2048)
I0105 10:27:37.913771 45974 net.cpp:137] Memory required for data: 11107332
I0105 10:27:37.913776 45974 layer_factory.hpp:77] Creating layer res5c_branch2b
I0105 10:27:37.913789 45974 net.cpp:84] Creating Layer res5c_branch2b
I0105 10:27:37.913795 45974 net.cpp:406] res5c_branch2b <- res5c_branch2a
I0105 10:27:37.913805 45974 net.cpp:380] res5c_branch2b -> res5c_branch2b
I0105 10:27:37.921228 45974 net.cpp:122] Setting up res5c_branch2b
I0105 10:27:37.921272 45974 net.cpp:129] Top shape: 1 512 2 2 (2048)
I0105 10:27:37.921278 45974 net.cpp:137] Memory required for data: 11115524
I0105 10:27:37.921290 45974 layer_factory.hpp:77] Creating layer bn5c_branch2b
I0105 10:27:37.921308 45974 net.cpp:84] Creating Layer bn5c_branch2b
I0105 10:27:37.921316 45974 net.cpp:406] bn5c_branch2b <- res5c_branch2b
I0105 10:27:37.921326 45974 net.cpp:367] bn5c_branch2b -> res5c_branch2b (in-place)
I0105 10:27:37.922760 45974 net.cpp:122] Setting up bn5c_branch2b
I0105 10:27:37.922771 45974 net.cpp:129] Top shape: 1 512 2 2 (2048)
I0105 10:27:37.922776 45974 net.cpp:137] Memory required for data: 11123716
I0105 10:27:37.922788 45974 layer_factory.hpp:77] Creating layer scale5c_branch2b
I0105 10:27:37.922797 45974 net.cpp:84] Creating Layer scale5c_branch2b
I0105 10:27:37.922803 45974 net.cpp:406] scale5c_branch2b <- res5c_branch2b
I0105 10:27:37.922813 45974 net.cpp:367] scale5c_branch2b -> res5c_branch2b (in-place)
I0105 10:27:37.922863 45974 layer_factory.hpp:77] Creating layer scale5c_branch2b
I0105 10:27:37.923981 45974 net.cpp:122] Setting up scale5c_branch2b
I0105 10:27:37.924268 45974 net.cpp:129] Top shape: 1 512 2 2 (2048)
I0105 10:27:37.924274 45974 net.cpp:137] Memory required for data: 11131908
I0105 10:27:37.924283 45974 layer_factory.hpp:77] Creating layer res5c_branch2b_relu
I0105 10:27:37.924293 45974 net.cpp:84] Creating Layer res5c_branch2b_relu
I0105 10:27:37.924298 45974 net.cpp:406] res5c_branch2b_relu <- res5c_branch2b
I0105 10:27:37.924304 45974 net.cpp:367] res5c_branch2b_relu -> res5c_branch2b (in-place)
I0105 10:27:37.924314 45974 net.cpp:122] Setting up res5c_branch2b_relu
I0105 10:27:37.924320 45974 net.cpp:129] Top shape: 1 512 2 2 (2048)
I0105 10:27:37.924325 45974 net.cpp:137] Memory required for data: 11140100
I0105 10:27:37.924330 45974 layer_factory.hpp:77] Creating layer res5c_branch2c
I0105 10:27:37.924345 45974 net.cpp:84] Creating Layer res5c_branch2c
I0105 10:27:37.924350 45974 net.cpp:406] res5c_branch2c <- res5c_branch2b
I0105 10:27:37.924360 45974 net.cpp:380] res5c_branch2c -> res5c_branch2c
I0105 10:27:37.930514 45974 net.cpp:122] Setting up res5c_branch2c
I0105 10:27:37.930536 45974 net.cpp:129] Top shape: 1 2048 2 2 (8192)
I0105 10:27:37.930542 45974 net.cpp:137] Memory required for data: 11172868
I0105 10:27:37.930552 45974 layer_factory.hpp:77] Creating layer bn5c_branch2c
I0105 10:27:37.930564 45974 net.cpp:84] Creating Layer bn5c_branch2c
I0105 10:27:37.930570 45974 net.cpp:406] bn5c_branch2c <- res5c_branch2c
I0105 10:27:37.930578 45974 net.cpp:367] bn5c_branch2c -> res5c_branch2c (in-place)
I0105 10:27:37.930837 45974 net.cpp:122] Setting up bn5c_branch2c
I0105 10:27:37.930850 45974 net.cpp:129] Top shape: 1 2048 2 2 (8192)
I0105 10:27:37.930855 45974 net.cpp:137] Memory required for data: 11205636
I0105 10:27:37.930866 45974 layer_factory.hpp:77] Creating layer scale5c_branch2c
I0105 10:27:37.930877 45974 net.cpp:84] Creating Layer scale5c_branch2c
I0105 10:27:37.930883 45974 net.cpp:406] scale5c_branch2c <- res5c_branch2c
I0105 10:27:37.930891 45974 net.cpp:367] scale5c_branch2c -> res5c_branch2c (in-place)
I0105 10:27:37.930945 45974 layer_factory.hpp:77] Creating layer scale5c_branch2c
I0105 10:27:37.931098 45974 net.cpp:122] Setting up scale5c_branch2c
I0105 10:27:37.931109 45974 net.cpp:129] Top shape: 1 2048 2 2 (8192)
I0105 10:27:37.931114 45974 net.cpp:137] Memory required for data: 11238404
I0105 10:27:37.931123 45974 layer_factory.hpp:77] Creating layer res5c
I0105 10:27:37.931135 45974 net.cpp:84] Creating Layer res5c
I0105 10:27:37.931141 45974 net.cpp:406] res5c <- res5b_res5b_relu_0_split_1
I0105 10:27:37.931152 45974 net.cpp:406] res5c <- res5c_branch2c
I0105 10:27:37.931159 45974 net.cpp:380] res5c -> res5c
I0105 10:27:37.931411 45974 net.cpp:122] Setting up res5c
I0105 10:27:37.931530 45974 net.cpp:129] Top shape: 1 2048 2 2 (8192)
I0105 10:27:37.931548 45974 net.cpp:137] Memory required for data: 11271172
I0105 10:27:37.931561 45974 layer_factory.hpp:77] Creating layer res5c_relu
I0105 10:27:37.931646 45974 net.cpp:84] Creating Layer res5c_relu
I0105 10:27:37.931668 45974 net.cpp:406] res5c_relu <- res5c
I0105 10:27:37.931735 45974 net.cpp:367] res5c_relu -> res5c (in-place)
I0105 10:27:37.931774 45974 net.cpp:122] Setting up res5c_relu
I0105 10:27:37.931815 45974 net.cpp:129] Top shape: 1 2048 2 2 (8192)
I0105 10:27:37.931821 45974 net.cpp:137] Memory required for data: 11303940
I0105 10:27:37.931848 45974 layer_factory.hpp:77] Creating layer drop5
I0105 10:27:37.931901 45974 net.cpp:84] Creating Layer drop5
I0105 10:27:37.931918 45974 net.cpp:406] drop5 <- res5c
I0105 10:27:37.931960 45974 net.cpp:367] drop5 -> res5c (in-place)
I0105 10:27:37.932361 45974 net.cpp:122] Setting up drop5
I0105 10:27:37.932493 45974 net.cpp:129] Top shape: 1 2048 2 2 (8192)
I0105 10:27:37.932516 45974 net.cpp:137] Memory required for data: 11336708
I0105 10:27:37.932523 45974 layer_factory.hpp:77] Creating layer pool5
I0105 10:27:37.932567 45974 net.cpp:84] Creating Layer pool5
I0105 10:27:37.932574 45974 net.cpp:406] pool5 <- res5c
I0105 10:27:37.932582 45974 net.cpp:380] pool5 -> pool5
I0105 10:27:37.932617 45974 net.cpp:122] Setting up pool5
I0105 10:27:37.932627 45974 net.cpp:129] Top shape: 1 2048 1 1 (2048)
I0105 10:27:37.932631 45974 net.cpp:137] Memory required for data: 11344900
I0105 10:27:37.932636 45974 layer_factory.hpp:77] Creating layer fc_4
I0105 10:27:37.932646 45974 net.cpp:84] Creating Layer fc_4
I0105 10:27:37.932651 45974 net.cpp:406] fc_4 <- pool5
I0105 10:27:37.932662 45974 net.cpp:380] fc_4 -> fc_4
I0105 10:27:37.933524 45974 net.cpp:122] Setting up fc_4
I0105 10:27:37.933826 45974 net.cpp:129] Top shape: 1 7 (7)
I0105 10:27:37.933849 45974 net.cpp:137] Memory required for data: 11344928
I0105 10:27:37.933948 45974 layer_factory.hpp:77] Creating layer prob
I0105 10:27:37.934072 45974 net.cpp:84] Creating Layer prob
I0105 10:27:37.934115 45974 net.cpp:406] prob <- fc_4
I0105 10:27:37.934123 45974 net.cpp:380] prob -> prob
I0105 10:27:37.934204 45974 net.cpp:122] Setting up prob
I0105 10:27:37.934213 45974 net.cpp:129] Top shape: 1 7 (7)
I0105 10:27:37.934218 45974 net.cpp:137] Memory required for data: 11344956
I0105 10:27:37.934224 45974 net.cpp:200] prob does not need backward computation.
I0105 10:27:37.934229 45974 net.cpp:200] fc_4 does not need backward computation.
I0105 10:27:37.934234 45974 net.cpp:200] pool5 does not need backward computation.
I0105 10:27:37.934239 45974 net.cpp:200] drop5 does not need backward computation.
…
