…
W0106 23:08:57.348397 14052 _caffe.cpp:142] Net('/home/sunny/data/TreeClassification/Models/resnet50_inference_32.prototxt', 1, weights='/home/sunny/data/TreeClassification/Inference/Models/32/resnet50_0.00001_iter_170000.caffemodel')
I0106 23:08:57.352133 14052 net.cpp:51] Initializing net from parameters: 
name: "Deep learning for building density estimation"
state {
  phase: TEST
  level: 0
}
layer {
  name: "data"
  type: "Python"
  top: "data_RGB"
  top: "data_Label"
  python_param {
    module: "MyDataLayer"
    layer: "MyDataLayer"
    param_str: "\'source_dir\': \'/home/sunny/data/TreeClassification/Data/samples_32\',\'target_size_w\': 32,\'target_size_h\': 32,\'batch_size\': 1,\'stage\': \'test\'"
  }
}
layer {
  name: "conv1"
  type: "Convolution"
  bottom: "data_RGB"
  top: "conv1"
  convolution_param {
    num_output: 64
    pad: 3
    kernel_size: 7
    stride: 2
  }
}
layer {
  name: "bn_conv1"
  type: "BatchNorm"
  bottom: "conv1"
  top: "conv1"
  batch_norm_param {
    use_global_stats: true
  }
}
layer {
  name: "scale_conv1"
  type: "Scale"
  bottom: "conv1"
  top: "conv1"
  scale_param {
    bias_term: true
  }
}
layer {
  name: "conv1_relu"
  type: "ReLU"
  bottom: "conv1"
  top: "conv1"
}
layer {
  name: "pool1"
  type: "Pooling"
  bottom: "conv1"
  top: "pool1"
  pooling_param {
    pool: MAX
    kernel_size: 3
    stride: 2
  }
}
layer {
  name: "res2a_branch1"
  type: "Convolution"
  bottom: "pool1"
  top: "res2a_branch1"
  convolution_param {
    num_output: 256
    bias_term: false
    pad: 0
    kernel_size: 1
    stride: 1
  }
}
layer {
  name: "bn2a_branch1"
  type: "BatchNorm"
  bottom: "res2a_branch1"
  top: "res2a_branch1"
  batch_norm_param {
    use_global_stats: true
  }
}
layer {
  name: "scale2a_branch1"
  type: "Scale"
  bottom: "res2a_branch1"
  top: "res2a_branch1"
  scale_param {
    bias_term: true
  }
}
layer {
  name: "res2a_branch2a"
  type: "Convolution"
  bottom: "pool1"
  top: "res2a_branch2a"
  convolution_param {
    num_output: 64
    bias_term: false
    pad: 0
    kernel_size: 1
    stride: 1
  }
}
layer {
  name: "bn2a_branch2a"
  type: "BatchNorm"
  bottom: "res2a_branch2a"
  top: "res2a_branch2a"
  batch_norm_param {
    use_global_stats: true
  }
}
layer {
  name: "scale2a_branch2a"
  type: "Scale"
  bottom: "res2a_branch2a"
  top: "res2a_branch2a"
  scale_param {
    bias_term: true
  }
}
layer {
  name: "res2a_branch2a_relu"
  type: "ReLU"
  bottom: "res2a_branch2a"
  top: "res2a_branch2a"
}
layer {
  name: "res2a_branch2b"
  type: "Convolution"
  bottom: "res2a_branch2a"
  top: "res2a_branch2b"
  convolution_param {
    num_output: 64
    bias_term: false
    pad: 1
    kernel_size: 3
    stride: 1
  }
}
layer {
  name: "bn2a_branch2b"
  type: "BatchNorm"
  bottom: "res2a_branch2b"
  top: "res2a_branch2b"
  batch_norm_param {
    use_global_stats: true
  }
}
layer {
  name: "scale2a_branch2b"
  type: "Scale"
  bottom: "res2a_branch2b"
  top: "res2a_branch2b"
  scale_param {
    bias_term: true
  }
}
layer {
  name: "res2a_branch2b_relu"
  type: "ReLU"
  bottom: "res2a_branch2b"
  top: "res2a_branch2b"
}
layer {
  name: "res2a_branch2c"
  type: "Convolution"
  bottom: "res2a_branch2b"
  top: "res2a_branch2c"
  convolution_param {
    num_output: 256
    bias_term: false
    pad: 0
    kernel_size: 1
    stride: 1
  }
}
layer {
  name: "bn2a_branch2c"
  type: "BatchNorm"
  bottom: "res2a_branch2c"
  top: "res2a_branch2c"
  batch_norm_param {
    use_global_stats: true
  }
}
layer {
  name: "scale2a_branch2c"
  type: "Scale"
  bottom: "res2a_branch2c"
  top: "res2a_branch2c"
  scale_param {
    bias_term: true
  }
}
layer {
  name: "res2a"
  type: "Eltwise"
  bottom: "res2a_branch1"
  bottom: "res2a_branch2c"
  top: "res2a"
}
layer {
  name: "res2a_relu"
  type: "ReLU"
  bottom: "res2a"
  top: "res2a"
}
layer {
  name: "res2b_branch2a"
  type: "Convolution"
  bottom: "res2a"
  top: "res2b_branch2a"
  convolution_param {
    num_output: 64
    bias_term: false
    pad: 0
    kernel_size: 1
    stride: 1
  }
}
layer {
  name: "bn2b_branch2a"
  type: "BatchNorm"
  bottom: "res2b_branch2a"
  top: "res2b_branch2a"
  batch_norm_param {
    use_global_stats: true
  }
}
layer {
  name: "scale2b_branch2a"
  type: "Scale"
  bottom: "res2b_branch2a"
  top: "res2b_branch2a"
  scale_param {
    bias_term: true
  }
}
layer {
  name: "res2b_branch2a_relu"
  type: "ReLU"
  bottom: "res2b_branch2a"
  top: "res2b_branch2a"
}
layer {
  name: "res2b_branch2b"
  type: "Convolution"
  bottom: "res2b_branch2a"
  top: "res2b_branch2b"
  convolution_param {
    num_output: 64
    bias_term: false
    pad: 1
    kernel_size: 3
    stride: 1
  }
}
layer {
  name: "bn2b_branch2b"
  type: "BatchNorm"
  bottom: "res2b_branch2b"
  top: "res2b_branch2b"
  batch_norm_param {
    use_global_stats: true
  }
}
layer {
  name: "scale2b_branch2b"
  type: "Scale"
  bottom: "res2b_branch2b"
  top: "res2b_branch2b"
  scale_param {
    bias_term: true
  }
}
layer {
  name: "res2b_branch2b_relu"
  type: "ReLU"
  bottom: "res2b_branch2b"
  top: "res2b_branch2b"
}
layer {
  name: "res2b_branch2c"
  type: "Convolution"
  bottom: "res2b_branch2b"
  top: "res2b_branch2c"
  convolution_param {
    num_output: 256
    bias_term: false
    pad: 0
    kernel_size: 1
    stride: 1
  }
}
layer {
  name: "bn2b_branch2c"
  type: "BatchNorm"
  bottom: "res2b_branch2c"
  top: "res2b_branch2c"
  batch_norm_param {
    use_global_stats: true
  }
}
layer {
  name: "scale2b_branch2c"
  type: "Scale"
  bottom: "res2b_branch2c"
  top: "res2b_branch2c"
  scale_param {
    bias_term: true
  }
}
layer {
  name: "res2b"
  type: "Eltwise"
  bottom: "res2a"
  bottom: "res2b_branch2c"
  top: "res2b"
}
layer {
  name: "res2b_relu"
  type: "ReLU"
  bottom: "res2b"
  top: "res2b"
}
layer {
  name: "res2c_branch2a"
  type: "Convolution"
  bottom: "res2b"
  top: "res2c_branch2a"
  convolution_param {
    num_output: 64
    bias_term: false
    pad: 0
    kernel_size: 1
    stride: 1
  }
}
layer {
  name: "bn2c_branch2a"
  type: "BatchNorm"
  bottom: "res2c_branch2a"
  top: "res2c_branch2a"
  batch_norm_param {
    use_global_stats: true
  }
}
layer {
  name: "scale2c_branch2a"
  type: "Scale"
  bottom: "res2c_branch2a"
  top: "res2c_branch2a"
  scale_param {
    bias_term: true
  }
}
layer {
  name: "res2c_branch2a_relu"
  type: "ReLU"
  bottom: "res2c_branch2a"
  top: "res2c_branch2a"
}
layer {
  name: "res2c_branch2b"
  type: "Convolution"
  bottom: "res2c_branch2a"
  top: "res2c_branch2b"
  convolution_param {
    num_output: 64
    bias_term: false
    pad: 1
    kernel_size: 3
    stride: 1
  }
}
layer {
  name: "bn2c_branch2b"
  type: "BatchNorm"
  bottom: "res2c_branch2b"
  top: "res2c_branch2b"
  batch_norm_param {
    use_global_stats: true
  }
}
layer {
  name: "scale2c_branch2b"
  type: "Scale"
  bottom: "res2c_branch2b"
  top: "res2c_branch2b"
  scale_param {
    bias_term: true
  }
}
layer {
  name: "res2c_branch2b_relu"
  type: "ReLU"
  bottom: "res2c_branch2b"
  top: "res2c_branch2b"
}
layer {
  name: "res2c_branch2c"
  type: "Convolution"
  bottom: "res2c_branch2b"
  top: "res2c_branch2c"
  convolution_param {
    num_output: 256
    bias_term: false
    pad: 0
    kernel_size: 1
    stride: 1
  }
}
layer {
  name: "bn2c_branch2c"
  type: "BatchNorm"
  bottom: "res2c_branch2c"
  top: "res2c_branch2c"
  batch_norm_param {
    use_global_stats: true
  }
}
layer {
  name: "scale2c_branch2c"
  type: "Scale"
  bottom: "res2c_branch2c"
  top: "res2c_branch2c"
  scale_param {
    bias_term: true
  }
}
layer {
  name: "res2c"
  type: "Eltwise"
  bottom: "res2b"
  bottom: "res2c_branch2c"
  top: "res2c"
}
layer {
  name: "res2c_relu"
  type: "ReLU"
  bottom: "res2c"
  top: "res2c"
}
layer {
  name: "drop2"
  type: "Dropout"
  bottom: "res2c"
  top: "res2c"
  dropout_param {
    dropout_ratio: 0.5
  }
}
layer {
  name: "res3a_branch1"
  type: "Convolution"
  bottom: "res2c"
  top: "res3a_branch1"
  convolution_param {
    num_output: 512
    bias_term: false
    pad: 0
    kernel_size: 1
    stride: 2
  }
}
layer {
  name: "bn3a_branch1"
  type: "BatchNorm"
  bottom: "res3a_branch1"
  top: "res3a_branch1"
  batch_norm_param {
    use_global_stats: true
  }
}
layer {
  name: "scale3a_branch1"
  type: "Scale"
  bottom: "res3a_branch1"
  top: "res3a_branch1"
  scale_param {
    bias_term: true
  }
}
layer {
  name: "res3a_branch2a"
  type: "Convolution"
  bottom: "res2c"
  top: "res3a_branch2a"
  convolution_param {
    num_output: 128
    bias_term: false
    pad: 0
    kernel_size: 1
    stride: 2
  }
}
layer {
  name: "bn3a_branch2a"
  type: "BatchNorm"
  bottom: "res3a_branch2a"
  top: "res3a_branch2a"
  batch_norm_param {
    use_global_stats: true
  }
}
layer {
  name: "scale3a_branch2a"
  type: "Scale"
  bottom: "res3a_branch2a"
  top: "res3a_branch2a"
  scale_param {
    bias_term: true
  }
}
layer {
  name: "res3a_branch2a_relu"
  type: "ReLU"
  bottom: "res3a_branch2a"
  top: "res3a_branch2a"
}
layer {
  name: "res3a_branch2b"
  type: "Convolution"
  bottom: "res3a_branch2a"
  top: "res3a_branch2b"
  convolution_param {
    num_output: 128
    bias_term: false
    pad: 1
    kernel_size: 3
    stride: 1
  }
}
layer {
  name: "bn3a_branch2b"
  type: "BatchNorm"
  bottom: "res3a_branch2b"
  top: "res3a_branch2b"
  batch_norm_param {
    use_global_stats: true
  }
}
layer {
  name: "scale3a_branch2b"
  type: "Scale"
  bottom: "res3a_branch2b"
  top: "res3a_branch2b"
  scale_param {
    bias_term: true
  }
}
layer {
  name: "res3a_branch2b_relu"
  type: "ReLU"
  bottom: "res3a_branch2b"
  top: "res3a_branch2b"
}
layer {
  name: "res3a_branch2c"
  type: "Convolution"
  bottom: "res3a_branch2b"
  top: "res3a_branch2c"
  convolution_param {
    num_output: 512
    bias_term: false
    pad: 0
    kernel_size: 1
    stride: 1
  }
}
layer {
  name: "bn3a_branch2c"
  type: "BatchNorm"
  bottom: "res3a_branch2c"
  top: "res3a_branch2c"
  batch_norm_param {
    use_global_stats: true
  }
}
layer {
  name: "scale3a_branch2c"
  type: "Scale"
  bottom: "res3a_branch2c"
  top: "res3a_branch2c"
  scale_param {
    bias_term: true
  }
}
layer {
  name: "res3a"
  type: "Eltwise"
  bottom: "res3a_branch1"
  bottom: "res3a_branch2c"
  top: "res3a"
}
layer {
  name: "res3a_relu"
  type: "ReLU"
  bottom: "res3a"
  top: "res3a"
}
layer {
  name: "res3b_branch2a"
  type: "Convolution"
  bottom: "res3a"
  top: "res3b_branch2a"
  convolution_param {
    num_output: 128
    bias_term: false
    pad: 0
    kernel_size: 1
    stride: 1
  }
}
layer {
  name: "bn3b_branch2a"
  type: "BatchNorm"
  bottom: "res3b_branch2a"
  top: "res3b_branch2a"
  batch_norm_param {
    use_global_stats: true
  }
}
layer {
  name: "scale3b_branch2a"
  type: "Scale"
  bottom: "res3b_branch2a"
  top: "res3b_branch2a"
  scale_param {
    bias_term: true
  }
}
layer {
  name: "res3b_branch2a_relu"
  type: "ReLU"
  bottom: "res3b_branch2a"
  top: "res3b_branch2a"
}
layer {
  name: "res3b_branch2b"
  type: "Convolution"
  bottom: "res3b_branch2a"
  top: "res3b_branch2b"
  convolution_param {
    num_output: 128
    bias_term: false
    pad: 1
    kernel_size: 3
    stride: 1
  }
}
layer {
  name: "bn3b_branch2b"
  type: "BatchNorm"
  bottom: "res3b_branch2b"
  top: "res3b_branch2b"
  batch_norm_param {
    use_global_stats: true
  }
}
layer {
  name: "scale3b_branch2b"
  type: "Scale"
  bottom: "res3b_branch2b"
  top: "res3b_branch2b"
  scale_param {
    bias_term: true
  }
}
layer {
  name: "res3b_branch2b_relu"
  type: "ReLU"
  bottom: "res3b_branch2b"
  top: "res3b_branch2b"
}
layer {
  name: "res3b_branch2c"
  type: "Convolution"
  bottom: "res3b_branch2b"
  top: "res3b_branch2c"
  convolution_param {
    num_output: 512
    bias_term: false
    pad: 0
    kernel_size: 1
    stride: 1
  }
}
layer {
  name: "bn3b_branch2c"
  type: "BatchNorm"
  bottom: "res3b_branch2c"
  top: "res3b_branch2c"
  batch_norm_param {
    use_global_stats: true
  }
}
layer {
  name: "scale3b_branch2c"
  type: "Scale"
  bottom: "res3b_branch2c"
  top: "res3b_branch2c"
  scale_param {
    bias_term: true
  }
}
layer {
  name: "res3b"
  type: "Eltwise"
  bottom: "res3a"
  bottom: "res3b_branch2c"
  top: "res3b"
}
layer {
  name: "res3b_relu"
  type: "ReLU"
  bottom: "res3b"
  top: "res3b"
}
layer {
  name: "res3c_branch2a"
  type: "Convolution"
  bottom: "res3b"
  top: "res3c_branch2a"
  convolution_param {
    num_output: 128
    bias_term: false
    pad: 0
    kernel_size: 1
    stride: 1
  }
}
layer {
  name: "bn3c_branch2a"
  type: "BatchNorm"
  bottom: "res3c_branch2a"
  top: "res3c_branch2a"
  batch_norm_param {
    use_global_stats: true
  }
}
layer {
  name: "scale3c_branch2a"
  type: "Scale"
  bottom: "res3c_branch2a"
  top: "res3c_branch2a"
  scale_param {
    bias_term: true
  }
}
layer {
  name: "res3c_branch2a_relu"
  type: "ReLU"
  bottom: "res3c_branch2a"
  top: "res3c_branch2a"
}
layer {
  name: "res3c_branch2b"
  type: "Convolution"
  bottom: "res3c_branch2a"
  top: "res3c_branch2b"
  convolution_param {
    num_output: 128
    bias_term: false
    pad: 1
    kernel_size: 3
    stride: 1
  }
}
layer {
  name: "bn3c_branch2b"
  type: "BatchNorm"
  bottom: "res3c_branch2b"
  top: "res3c_branch2b"
  batch_norm_param {
    use_global_stats: true
  }
}
layer {
  name: "scale3c_branch2b"
  type: "Scale"
  bottom: "res3c_branch2b"
  top: "res3c_branch2b"
  scale_param {
    bias_term: true
  }
}
layer {
  name: "res3c_branch2b_relu"
  type: "ReLU"
  bottom: "res3c_branch2b"
  top: "res3c_branch2b"
}
layer {
  name: "res3c_branch2c"
  type: "Convolution"
  bottom: "res3c_branch2b"
  top: "res3c_branch2c"
  convolution_param {
    num_output: 512
    bias_term: false
    pad: 0
    kernel_size: 1
    stride: 1
  }
}
layer {
  name: "bn3c_branch2c"
  type: "BatchNorm"
  bottom: "res3c_branch2c"
  top: "res3c_branch2c"
  batch_norm_param {
    use_global_stats: true
  }
}
layer {
  name: "scale3c_branch2c"
  type: "Scale"
  bottom: "res3c_branch2c"
  top: "res3c_branch2c"
  scale_param {
    bias_term: true
  }
}
layer {
  name: "res3c"
  type: "Eltwise"
  bottom: "res3b"
  bottom: "res3c_branch2c"
  top: "res3c"
}
layer {
  name: "res3c_relu"
  type: "ReLU"
  bottom: "res3c"
  top: "res3c"
}
layer {
  name: "res3d_branch2a"
  type: "Convolution"
  bottom: "res3c"
  top: "res3d_branch2a"
  convolution_param {
    num_output: 128
    bias_term: false
    pad: 0
    kernel_size: 1
    stride: 1
  }
}
layer {
  name: "bn3d_branch2a"
  type: "BatchNorm"
  bottom: "res3d_branch2a"
  top: "res3d_branch2a"
  batch_norm_param {
    use_global_stats: true
  }
}
layer {
  name: "scale3d_branch2a"
  type: "Scale"
  bottom: "res3d_branch2a"
  top: "res3d_branch2a"
  scale_param {
    bias_term: true
  }
}
layer {
  name: "res3d_branch2a_relu"
  type: "ReLU"
  bottom: "res3d_branch2a"
  top: "res3d_branch2a"
}
layer {
  name: "res3d_branch2b"
  type: "Convolution"
  bottom: "res3d_branch2a"
  top: "res3d_branch2b"
  convolution_param {
    num_output: 128
    bias_term: false
    pad: 1
    kernel_size: 3
    stride: 1
  }
}
layer {
  name: "bn3d_branch2b"
  type: "BatchNorm"
  bottom: "res3d_branch2b"
  top: "res3d_branch2b"
  batch_norm_param {
    use_global_stats: true
  }
}
layer {
  name: "scale3d_branch2b"
  type: "Scale"
  bottom: "res3d_branch2b"
  top: "res3d_branch2b"
  scale_param {
    bias_term: true
  }
}
layer {
  name: "res3d_branch2b_relu"
  type: "ReLU"
  bottom: "res3d_branch2b"
  top: "res3d_branch2b"
}
layer {
  name: "res3d_branch2c"
  type: "Convolution"
  bottom: "res3d_branch2b"
  top: "res3d_branch2c"
  convolution_param {
    num_output: 512
    bias_term: false
    pad: 0
    kernel_size: 1
    stride: 1
  }
}
layer {
  name: "bn3d_branch2c"
  type: "BatchNorm"
  bottom: "res3d_branch2c"
  top: "res3d_branch2c"
  batch_norm_param {
    use_global_stats: true
  }
}
layer {
  name: "scale3d_branch2c"
  type: "Scale"
  bottom: "res3d_branch2c"
  top: "res3d_branch2c"
  scale_param {
    bias_term: true
  }
}
layer {
  name: "res3d"
  type: "Eltwise"
  bottom: "res3c"
  bottom: "res3d_branch2c"
  top: "res3d"
}
layer {
  name: "res3d_relu"
  type: "ReLU"
  bottom: "res3d"
  top: "res3d"
}
layer {
  name: "drop3"
  type: "Dropout"
  bottom: "res3d"
  top: "res3d"
  dropout_param {
    dropout_ratio: 0.5
  }
}
layer {
  name: "res4a_branch1"
  type: "Convolution"
  bottom: "res3d"
  top: "res4a_branch1"
  convolution_param {
    num_output: 1024
    bias_term: false
    pad: 0
    kernel_size: 1
    stride: 2
  }
}
layer {
  name: "bn4a_branch1"
  type: "BatchNorm"
  bottom: "res4a_branch1"
  top: "res4a_branch1"
  batch_norm_param {
    use_global_stats: true
  }
}
layer {
  name: "scale4a_branch1"
  type: "Scale"
  bottom: "res4a_branch1"
  top: "res4a_branch1"
  scale_param {
    bias_term: true
  }
}
layer {
  name: "res4a_branch2a"
  type: "Convolution"
  bottom: "res3d"
  top: "res4a_branch2a"
  convolution_param {
    num_output: 256
    bias_term: false
    pad: 0
    kernel_size: 1
    stride: 2
  }
}
layer {
  name: "bn4a_branch2a"
  type: "BatchNorm"
  bottom: "res4a_branch2a"
  top: "res4a_branch2a"
  batch_norm_param {
    use_global_stats: true
  }
}
layer {
  name: "scale4a_branch2a"
  type: "Scale"
  bottom: "res4a_branch2a"
  top: "res4a_branch2a"
  scale_param {
    bias_term: true
  }
}
layer {
  name: "res4a_branch2a_relu"
  type: "ReLU"
  bottom: "res4a_branch2a"
  top: "res4a_branch2a"
}
layer {
  name: "res4a_branch2b"
  type: "Convolution"
  bottom: "res4a_branch2a"
  top: "res4a_branch2b"
  convolution_param {
    num_output: 256
    bias_term: false
    pad: 1
    kernel_size: 3
    stride: 1
  }
}
layer {
  name: "bn4a_branch2b"
  type: "BatchNorm"
  bottom: "res4a_branch2b"
  top: "res4a_branch2b"
  batch_norm_param {
    use_global_stats: true
  }
}
layer {
  name: "scale4a_branch2b"
  type: "Scale"
  bottom: "res4a_branch2b"
  top: "res4a_branch2b"
  scale_param {
    bias_term: true
  }
}
layer {
  name: "res4a_branch2b_relu"
  type: "ReLU"
  bottom: "res4a_branch2b"
  top: "res4a_branch2b"
}
layer {
  name: "res4a_branch2c"
  type: "Convolution"
  bottom: "res4a_branch2b"
  top: "res4a_branch2c"
  convolution_param {
    num_output: 1024
    bias_term: false
    pad: 0
    kernel_size: 1
    stride: 1
  }
}
layer {
  name: "bn4a_branch2c"
  type: "BatchNorm"
  bottom: "res4a_branch2c"
  top: "res4a_branch2c"
  batch_norm_param {
    use_global_stats: true
  }
}
layer {
  name: "scale4a_branch2c"
  type: "Scale"
  bottom: "res4a_branch2c"
  top: "res4a_branch2c"
  scale_param {
    bias_term: true
  }
}
layer {
  name: "res4a"
  type: "Eltwise"
  bottom: "res4a_branch1"
  bottom: "res4a_branch2c"
  top: "res4a"
}
layer {
  name: "res4a_relu"
  type: "ReLU"
  bottom: "res4a"
  top: "res4a"
}
layer {
  name: "res4b_branch2a"
  type: "Convolution"
  bottom: "res4a"
  top: "res4b_branch2a"
  convolution_param {
    num_output: 256
    bias_term: false
    pad: 0
    kernel_size: 1
    stride: 1
  }
}
layer {
  name: "bn4b_branch2a"
  type: "BatchNorm"
  bottom: "res4b_branch2a"
  top: "res4b_branch2a"
  batch_norm_param {
    use_global_stats: true
  }
}
layer {
  name: "scale4b_branch2a"
  type: "Scale"
  bottom: "res4b_branch2a"
  top: "res4b_branch2a"
  scale_param {
    bias_term: true
  }
}
layer {
  name: "res4b_branch2a_relu"
  type: "ReLU"
  bottom: "res4b_branch2a"
  top: "res4b_branch2a"
}
layer {
  name: "res4b_branch2b"
  type: "Convolution"
  bottom: "res4b_branch2a"
  top: "res4b_branch2b"
  convolution_param {
    num_output: 256
    bias_term: false
    pad: 1
    kernel_size: 3
    stride: 1
  }
}
layer {
  name: "bn4b_branch2b"
  type: "BatchNorm"
  bottom: "res4b_branch2b"
  top: "res4b_branch2b"
  batch_norm_param {
    use_global_stats: true
  }
}
layer {
  name: "scale4b_branch2b"
  type: "Scale"
  bottom: "res4b_branch2b"
  top: "res4b_branch2b"
  scale_param {
    bias_term: true
  }
}
layer {
  name: "res4b_branch2b_relu"
  type: "ReLU"
  bottom: "res4b_branch2b"
  top: "res4b_branch2b"
}
layer {
  name: "res4b_branch2c"
  type: "Convolution"
  bottom: "res4b_branch2b"
  top: "res4b_branch2c"
  convolution_param {
    num_output: 1024
    bias_term: false
    pad: 0
    kernel_size: 1
    stride: 1
  }
}
layer {
  name: "bn4b_branch2c"
  type: "BatchNorm"
  bottom: "res4b_branch2c"
  top: "res4b_branch2c"
  batch_norm_param {
    use_global_stats: true
  }
}
layer {
  name: "scale4b_branch2c"
  type: "Scale"
  bottom: "res4b_branch2c"
  top: "res4b_branch2c"
  scale_param {
    bias_term: true
  }
}
layer {
  name: "res4b"
  type: "Eltwise"
  bottom: "res4a"
  bottom: "res4b_branch2c"
  top: "res4b"
}
layer {
  name: "res4b_relu"
  type: "ReLU"
  bottom: "res4b"
  top: "res4b"
}
layer {
  name: "res4c_branch2a"
  type: "Convolution"
  bottom: "res4b"
  top: "res4c_branch2a"
  convolution_param {
    num_output: 256
    bias_term: false
    pad: 0
    kernel_size: 1
    stride: 1
  }
}
layer {
  name: "bn4c_branch2a"
  type: "BatchNorm"
  bottom: "res4c_branch2a"
  top: "res4c_branch2a"
  batch_norm_param {
    use_global_stats: true
  }
}
layer {
  name: "scale4c_branch2a"
  type: "Scale"
  bottom: "res4c_branch2a"
  top: "res4c_branch2a"
  scale_param {
    bias_term: true
  }
}
layer {
  name: "res4c_branch2a_relu"
  type: "ReLU"
  bottom: "res4c_branch2a"
  top: "res4c_branch2a"
}
layer {
  name: "res4c_branch2b"
  type: "Convolution"
  bottom: "res4c_branch2a"
  top: "res4c_branch2b"
  convolution_param {
    num_output: 256
    bias_term: false
    pad: 1
    kernel_size: 3
    stride: 1
  }
}
layer {
  name: "bn4c_branch2b"
  type: "BatchNorm"
  bottom: "res4c_branch2b"
  top: "res4c_branch2b"
  batch_norm_param {
    use_global_stats: true
  }
}
layer {
  name: "scale4c_branch2b"
  type: "Scale"
  bottom: "res4c_branch2b"
  top: "res4c_branch2b"
  scale_param {
    bias_term: true
  }
}
layer {
  name: "res4c_branch2b_relu"
  type: "ReLU"
  bottom: "res4c_branch2b"
  top: "res4c_branch2b"
}
layer {
  name: "res4c_branch2c"
  type: "Convolution"
  bottom: "res4c_branch2b"
  top: "res4c_branch2c"
  convolution_param {
    num_output: 1024
    bias_term: false
    pad: 0
    kernel_size: 1
    stride: 1
  }
}
layer {
  name: "bn4c_branch2c"
  type: "BatchNorm"
  bottom: "res4c_branch2c"
  top: "res4c_branch2c"
  batch_norm_param {
    use_global_stats: true
  }
}
layer {
  name: "scale4c_branch2c"
  type: "Scale"
  bottom: "res4c_branch2c"
  top: "res4c_branch2c"
  scale_param {
    bias_term: true
  }
}
layer {
  name: "res4c"
  type: "Eltwise"
  bottom: "res4b"
  bottom: "res4c_branch2c"
  top: "res4c"
}
layer {
  name: "res4c_relu"
  type: "ReLU"
  bottom: "res4c"
  top: "res4c"
}
layer {
  name: "res4d_branch2a"
  type: "Convolution"
  bottom: "res4c"
  top: "res4d_branch2a"
  convolution_param {
    num_output: 256
    bias_term: false
    pad: 0
    kernel_size: 1
    stride: 1
  }
}
layer {
  name: "bn4d_branch2a"
  type: "BatchNorm"
  bottom: "res4d_branch2a"
  top: "res4d_branch2a"
  batch_norm_param {
    use_global_stats: true
  }
}
layer {
  name: "scale4d_branch2a"
  type: "Scale"
  bottom: "res4d_branch2a"
  top: "res4d_branch2a"
  scale_param {
    bias_term: true
  }
}
layer {
  name: "res4d_branch2a_relu"
  type: "ReLU"
  bottom: "res4d_branch2a"
  top: "res4d_branch2a"
}
layer {
  name: "res4d_branch2b"
  type: "Convolution"
  bottom: "res4d_branch2a"
  top: "res4d_branch2b"
  convolution_param {
    num_output: 256
    bias_term: false
    pad: 1
    kernel_size: 3
    stride: 1
  }
}
layer {
  name: "bn4d_branch2b"
  type: "BatchNorm"
  bottom: "res4d_branch2b"
  top: "res4d_branch2b"
  batch_norm_param {
    use_global_stats: true
  }
}
layer {
  name: "scale4d_branch2b"
  type: "Scale"
  bottom: "res4d_branch2b"
  top: "res4d_branch2b"
  scale_param {
    bias_term: true
  }
}
layer {
  name: "res4d_branch2b_relu"
  type: "ReLU"
  bottom: "res4d_branch2b"
  top: "res4d_branch2b"
}
layer {
  name: "res4d_branch2c"
  type: "Convolution"
  bottom: "res4d_branch2b"
  top: "res4d_branch2c"
  convolution_param {
    num_output: 1024
    bias_term: false
    pad: 0
    kernel_size: 1
    stride: 1
  }
}
layer {
  name: "bn4d_branch2c"
  type: "BatchNorm"
  bottom: "res4d_branch2c"
  top: "res4d_branch2c"
  batch_norm_param {
    use_global_stats: true
  }
}
layer {
  name: "scale4d_branch2c"
  type: "Scale"
  bottom: "res4d_branch2c"
  top: "res4d_branch2c"
  scale_param {
    bias_term: true
  }
}
layer {
  name: "res4d"
  type: "Eltwise"
  bottom: "res4c"
  bottom: "res4d_branch2c"
  top: "res4d"
}
layer {
  name: "res4d_relu"
  type: "ReLU"
  bottom: "res4d"
  top: "res4d"
}
layer {
  name: "res4e_branch2a"
  type: "Convolution"
  bottom: "res4d"
  top: "res4e_branch2a"
  convolution_param {
    num_output: 256
    bias_term: false
    pad: 0
    kernel_size: 1
    stride: 1
  }
}
layer {
  name: "bn4e_branch2a"
  type: "BatchNorm"
  bottom: "res4e_branch2a"
  top: "res4e_branch2a"
  batch_norm_param {
    use_global_stats: true
  }
}
layer {
  name: "scale4e_branch2a"
  type: "Scale"
  bottom: "res4e_branch2a"
  top: "res4e_branch2a"
  scale_param {
    bias_term: true
  }
}
layer {
  name: "res4e_branch2a_relu"
  type: "ReLU"
  bottom: "res4e_branch2a"
  top: "res4e_branch2a"
}
layer {
  name: "res4e_branch2b"
  type: "Convolution"
  bottom: "res4e_branch2a"
  top: "res4e_branch2b"
  convolution_param {
    num_output: 256
    bias_term: false
    pad: 1
    kernel_size: 3
    stride: 1
  }
}
layer {
  name: "bn4e_branch2b"
  type: "BatchNorm"
  bottom: "res4e_branch2b"
  top: "res4e_branch2b"
  batch_norm_param {
    use_global_stats: true
  }
}
layer {
  name: "scale4e_branch2b"
  type: "Scale"
  bottom: "res4e_branch2b"
  top: "res4e_branch2b"
  scale_param {
    bias_term: true
  }
}
layer {
  name: "res4e_branch2b_relu"
  type: "ReLU"
  bottom: "res4e_branch2b"
  top: "res4e_branch2b"
}
layer {
  name: "res4e_branch2c"
  type: "Convolution"
  bottom: "res4e_branch2b"
  top: "res4e_branch2c"
  convolution_param {
    num_output: 1024
    bias_term: false
    pad: 0
    kernel_size: 1
    stride: 1
  }
}
layer {
  name: "bn4e_branch2c"
  type: "BatchNorm"
  bottom: "res4e_branch2c"
  top: "res4e_branch2c"
  batch_norm_param {
    use_global_stats: true
  }
}
layer {
  name: "scale4e_branch2c"
  type: "Scale"
  bottom: "res4e_branch2c"
  top: "res4e_branch2c"
  scale_param {
    bias_term: true
  }
}
layer {
  name: "res4e"
  type: "Eltwise"
  bottom: "res4d"
  bottom: "res4e_branch2c"
  top: "res4e"
}
layer {
  name: "res4e_relu"
  type: "ReLU"
  bottom: "res4e"
  top: "res4e"
}
layer {
  name: "res4f_branch2a"
  type: "Convolution"
  bottom: "res4e"
  top: "res4f_branch2a"
  convolution_param {
    num_output: 256
    bias_term: false
    pad: 0
    kernel_size: 1
    stride: 1
  }
}
layer {
  name: "bn4f_branch2a"
  type: "BatchNorm"
  bottom: "res4f_branch2a"
  top: "res4f_branch2a"
  batch_norm_param {
    use_global_stats: true
  }
}
layer {
  name: "scale4f_branch2a"
  type: "Scale"
  bottom: "res4f_branch2a"
  top: "res4f_branch2a"
  scale_param {
    bias_term: true
  }
}
layer {
  name: "res4f_branch2a_relu"
  type: "ReLU"
  bottom: "res4f_branch2a"
  top: "res4f_branch2a"
}
layer {
  name: "res4f_branch2b"
  type: "Convolution"
  bottom: "res4f_branch2a"
  top: "res4f_branch2b"
  convolution_param {
    num_output: 256
    bias_term: false
    pad: 1
    kernel_size: 3
    stride: 1
  }
}
layer {
  name: "bn4f_branch2b"
  type: "BatchNorm"
  bottom: "res4f_branch2b"
  top: "res4f_branch2b"
  batch_norm_param {
    use_global_stats: true
  }
}
layer {
  name: "scale4f_branch2b"
  type: "Scale"
  bottom: "res4f_branch2b"
  top: "res4f_branch2b"
  scale_param {
    bias_term: true
  }
}
layer {
  name: "res4f_branch2b_relu"
  type: "ReLU"
  bottom: "res4f_branch2b"
  top: "res4f_branch2b"
}
layer {
  name: "res4f_branch2c"
  type: "Convolution"
  bottom: "res4f_branch2b"
  top: "res4f_branch2c"
  convolution_param {
    num_output: 1024
    bias_term: false
    pad: 0
    kernel_size: 1
    stride: 1
  }
}
layer {
  name: "bn4f_branch2c"
  type: "BatchNorm"
  bottom: "res4f_branch2c"
  top: "res4f_branch2c"
  batch_norm_param {
    use_global_stats: true
  }
}
layer {
  name: "scale4f_branch2c"
  type: "Scale"
  bottom: "res4f_branch2c"
  top: "res4f_branch2c"
  scale_param {
    bias_term: true
  }
}
layer {
  name: "res4f"
  type: "Eltwise"
  bottom: "res4e"
  bottom: "res4f_branch2c"
  top: "res4f"
}
layer {
  name: "res4f_relu"
  type: "ReLU"
  bottom: "res4f"
  top: "res4f"
}
layer {
  name: "drop4"
  type: "Dropout"
  bottom: "res4f"
  top: "res4f"
  dropout_param {
    dropout_ratio: 0.5
  }
}
layer {
  name: "res5a_branch1"
  type: "Convolution"
  bottom: "res4f"
  top: "res5a_branch1"
  convolution_param {
    num_output: 2048
    bias_term: false
    pad: 0
    kernel_size: 1
    stride: 2
  }
}
layer {
  name: "bn5a_branch1"
  type: "BatchNorm"
  bottom: "res5a_branch1"
  top: "res5a_branch1"
  batch_norm_param {
    use_global_stats: true
  }
}
layer {
  name: "scale5a_branch1"
  type: "Scale"
  bottom: "res5a_branch1"
  top: "res5a_branch1"
  scale_param {
    bias_term: true
  }
}
layer {
  name: "res5a_branch2a"
  type: "Convolution"
  bottom: "res4f"
  top: "res5a_branch2a"
  convolution_param {
    num_output: 512
    bias_term: false
    pad: 0
    kernel_size: 1
    stride: 2
  }
}
layer {
  name: "bn5a_branch2a"
  type: "BatchNorm"
  bottom: "res5a_branch2a"
  top: "res5a_branch2a"
  batch_norm_param {
    use_global_stats: true
  }
}
layer {
  name: "scale5a_branch2a"
  type: "Scale"
  bottom: "res5a_branch2a"
  top: "res5a_branch2a"
  scale_param {
    bias_term: true
  }
}
layer {
  name: "res5a_branch2a_relu"
  type: "ReLU"
  bottom: "res5a_branch2a"
  top: "res5a_branch2a"
}
layer {
  name: "res5a_branch2b"
  type: "Convolution"
  bottom: "res5a_branch2a"
  top: "res5a_branch2b"
  convolution_param {
    num_output: 512
    bias_term: false
    pad: 1
    kernel_size: 3
    stride: 1
  }
}
layer {
  name: "bn5a_branch2b"
  type: "BatchNorm"
  bottom: "res5a_branch2b"
  top: "res5a_branch2b"
  batch_norm_param {
    use_global_stats: true
  }
}
layer {
  name: "scale5a_branch2b"
  type: "Scale"
  bottom: "res5a_branch2b"
  top: "res5a_branch2b"
  scale_param {
    bias_term: true
  }
}
layer {
  name: "re
I0106 23:08:57.352875 14052 layer_factory.hpp:77] Creating layer data
I0106 23:08:57.353937 14052 net.cpp:84] Creating Layer data
I0106 23:08:57.353953 14052 net.cpp:380] data -> data_RGB
I0106 23:08:57.353965 14052 net.cpp:380] data -> data_Label
I0106 23:08:57.367455 14052 net.cpp:122] Setting up data
I0106 23:08:57.367482 14052 net.cpp:129] Top shape: 1 3 32 32 (3072)
I0106 23:08:57.367488 14052 net.cpp:129] Top shape: 1 1 1 1 (1)
I0106 23:08:57.367492 14052 net.cpp:137] Memory required for data: 12292
I0106 23:08:57.367499 14052 layer_factory.hpp:77] Creating layer conv1
I0106 23:08:57.367518 14052 net.cpp:84] Creating Layer conv1
I0106 23:08:57.367525 14052 net.cpp:406] conv1 <- data_RGB
I0106 23:08:57.367533 14052 net.cpp:380] conv1 -> conv1
I0106 23:08:57.368839 14052 net.cpp:122] Setting up conv1
I0106 23:08:57.368857 14052 net.cpp:129] Top shape: 1 64 16 16 (16384)
I0106 23:08:57.368861 14052 net.cpp:137] Memory required for data: 77828
I0106 23:08:57.368876 14052 layer_factory.hpp:77] Creating layer bn_conv1
I0106 23:08:57.368892 14052 net.cpp:84] Creating Layer bn_conv1
I0106 23:08:57.368898 14052 net.cpp:406] bn_conv1 <- conv1
I0106 23:08:57.368907 14052 net.cpp:367] bn_conv1 -> conv1 (in-place)
I0106 23:08:57.369076 14052 net.cpp:122] Setting up bn_conv1
I0106 23:08:57.369086 14052 net.cpp:129] Top shape: 1 64 16 16 (16384)
I0106 23:08:57.369089 14052 net.cpp:137] Memory required for data: 143364
I0106 23:08:57.369101 14052 layer_factory.hpp:77] Creating layer scale_conv1
I0106 23:08:57.369112 14052 net.cpp:84] Creating Layer scale_conv1
I0106 23:08:57.369117 14052 net.cpp:406] scale_conv1 <- conv1
I0106 23:08:57.369122 14052 net.cpp:367] scale_conv1 -> conv1 (in-place)
I0106 23:08:57.369161 14052 layer_factory.hpp:77] Creating layer scale_conv1
I0106 23:08:57.369272 14052 net.cpp:122] Setting up scale_conv1
I0106 23:08:57.369283 14052 net.cpp:129] Top shape: 1 64 16 16 (16384)
I0106 23:08:57.369287 14052 net.cpp:137] Memory required for data: 208900
I0106 23:08:57.369294 14052 layer_factory.hpp:77] Creating layer conv1_relu
I0106 23:08:57.369302 14052 net.cpp:84] Creating Layer conv1_relu
I0106 23:08:57.369307 14052 net.cpp:406] conv1_relu <- conv1
I0106 23:08:57.369315 14052 net.cpp:367] conv1_relu -> conv1 (in-place)
I0106 23:08:57.369323 14052 net.cpp:122] Setting up conv1_relu
I0106 23:08:57.369328 14052 net.cpp:129] Top shape: 1 64 16 16 (16384)
I0106 23:08:57.369333 14052 net.cpp:137] Memory required for data: 274436
I0106 23:08:57.369336 14052 layer_factory.hpp:77] Creating layer pool1
I0106 23:08:57.369343 14052 net.cpp:84] Creating Layer pool1
I0106 23:08:57.369346 14052 net.cpp:406] pool1 <- conv1
I0106 23:08:57.369352 14052 net.cpp:380] pool1 -> pool1
I0106 23:08:57.369386 14052 net.cpp:122] Setting up pool1
I0106 23:08:57.369395 14052 net.cpp:129] Top shape: 1 64 8 8 (4096)
I0106 23:08:57.369400 14052 net.cpp:137] Memory required for data: 290820
I0106 23:08:57.369403 14052 layer_factory.hpp:77] Creating layer pool1_pool1_0_split
I0106 23:08:57.369410 14052 net.cpp:84] Creating Layer pool1_pool1_0_split
I0106 23:08:57.369413 14052 net.cpp:406] pool1_pool1_0_split <- pool1
I0106 23:08:57.369421 14052 net.cpp:380] pool1_pool1_0_split -> pool1_pool1_0_split_0
I0106 23:08:57.369431 14052 net.cpp:380] pool1_pool1_0_split -> pool1_pool1_0_split_1
I0106 23:08:57.369462 14052 net.cpp:122] Setting up pool1_pool1_0_split
I0106 23:08:57.369472 14052 net.cpp:129] Top shape: 1 64 8 8 (4096)
I0106 23:08:57.369477 14052 net.cpp:129] Top shape: 1 64 8 8 (4096)
I0106 23:08:57.369480 14052 net.cpp:137] Memory required for data: 323588
I0106 23:08:57.369484 14052 layer_factory.hpp:77] Creating layer res2a_branch1
I0106 23:08:57.369491 14052 net.cpp:84] Creating Layer res2a_branch1
I0106 23:08:57.369495 14052 net.cpp:406] res2a_branch1 <- pool1_pool1_0_split_0
I0106 23:08:57.369501 14052 net.cpp:380] res2a_branch1 -> res2a_branch1
I0106 23:08:57.369701 14052 net.cpp:122] Setting up res2a_branch1
I0106 23:08:57.369715 14052 net.cpp:129] Top shape: 1 256 8 8 (16384)
I0106 23:08:57.369719 14052 net.cpp:137] Memory required for data: 389124
I0106 23:08:57.369726 14052 layer_factory.hpp:77] Creating layer bn2a_branch1
I0106 23:08:57.369736 14052 net.cpp:84] Creating Layer bn2a_branch1
I0106 23:08:57.369743 14052 net.cpp:406] bn2a_branch1 <- res2a_branch1
I0106 23:08:57.369750 14052 net.cpp:367] bn2a_branch1 -> res2a_branch1 (in-place)
I0106 23:08:57.369911 14052 net.cpp:122] Setting up bn2a_branch1
I0106 23:08:57.369921 14052 net.cpp:129] Top shape: 1 256 8 8 (16384)
I0106 23:08:57.369925 14052 net.cpp:137] Memory required for data: 454660
I0106 23:08:57.369935 14052 layer_factory.hpp:77] Creating layer scale2a_branch1
I0106 23:08:57.369946 14052 net.cpp:84] Creating Layer scale2a_branch1
I0106 23:08:57.369952 14052 net.cpp:406] scale2a_branch1 <- res2a_branch1
I0106 23:08:57.369957 14052 net.cpp:367] scale2a_branch1 -> res2a_branch1 (in-place)
I0106 23:08:57.369994 14052 layer_factory.hpp:77] Creating layer scale2a_branch1
I0106 23:08:57.370090 14052 net.cpp:122] Setting up scale2a_branch1
I0106 23:08:57.370100 14052 net.cpp:129] Top shape: 1 256 8 8 (16384)
I0106 23:08:57.370103 14052 net.cpp:137] Memory required for data: 520196
I0106 23:08:57.370110 14052 layer_factory.hpp:77] Creating layer res2a_branch2a
I0106 23:08:57.370121 14052 net.cpp:84] Creating Layer res2a_branch2a
I0106 23:08:57.370124 14052 net.cpp:406] res2a_branch2a <- pool1_pool1_0_split_1
I0106 23:08:57.370131 14052 net.cpp:380] res2a_branch2a -> res2a_branch2a
I0106 23:08:57.371362 14052 net.cpp:122] Setting up res2a_branch2a
I0106 23:08:57.371378 14052 net.cpp:129] Top shape: 1 64 8 8 (4096)
I0106 23:08:57.371382 14052 net.cpp:137] Memory required for data: 536580
I0106 23:08:57.371389 14052 layer_factory.hpp:77] Creating layer bn2a_branch2a
I0106 23:08:57.371400 14052 net.cpp:84] Creating Layer bn2a_branch2a
I0106 23:08:57.371405 14052 net.cpp:406] bn2a_branch2a <- res2a_branch2a
I0106 23:08:57.371412 14052 net.cpp:367] bn2a_branch2a -> res2a_branch2a (in-place)
I0106 23:08:57.371592 14052 net.cpp:122] Setting up bn2a_branch2a
I0106 23:08:57.371603 14052 net.cpp:129] Top shape: 1 64 8 8 (4096)
I0106 23:08:57.371608 14052 net.cpp:137] Memory required for data: 552964
I0106 23:08:57.371620 14052 layer_factory.hpp:77] Creating layer scale2a_branch2a
I0106 23:08:57.371630 14052 net.cpp:84] Creating Layer scale2a_branch2a
I0106 23:08:57.371634 14052 net.cpp:406] scale2a_branch2a <- res2a_branch2a
I0106 23:08:57.371640 14052 net.cpp:367] scale2a_branch2a -> res2a_branch2a (in-place)
I0106 23:08:57.371680 14052 layer_factory.hpp:77] Creating layer scale2a_branch2a
I0106 23:08:57.371783 14052 net.cpp:122] Setting up scale2a_branch2a
I0106 23:08:57.371791 14052 net.cpp:129] Top shape: 1 64 8 8 (4096)
I0106 23:08:57.371795 14052 net.cpp:137] Memory required for data: 569348
I0106 23:08:57.371803 14052 layer_factory.hpp:77] Creating layer res2a_branch2a_relu
I0106 23:08:57.371810 14052 net.cpp:84] Creating Layer res2a_branch2a_relu
I0106 23:08:57.371814 14052 net.cpp:406] res2a_branch2a_relu <- res2a_branch2a
I0106 23:08:57.371820 14052 net.cpp:367] res2a_branch2a_relu -> res2a_branch2a (in-place)
I0106 23:08:57.371826 14052 net.cpp:122] Setting up res2a_branch2a_relu
I0106 23:08:57.371831 14052 net.cpp:129] Top shape: 1 64 8 8 (4096)
I0106 23:08:57.371834 14052 net.cpp:137] Memory required for data: 585732
I0106 23:08:57.371839 14052 layer_factory.hpp:77] Creating layer res2a_branch2b
I0106 23:08:57.371848 14052 net.cpp:84] Creating Layer res2a_branch2b
I0106 23:08:57.371852 14052 net.cpp:406] res2a_branch2b <- res2a_branch2a
I0106 23:08:57.371858 14052 net.cpp:380] res2a_branch2b -> res2a_branch2b
I0106 23:08:57.373121 14052 net.cpp:122] Setting up res2a_branch2b
I0106 23:08:57.373136 14052 net.cpp:129] Top shape: 1 64 8 8 (4096)
I0106 23:08:57.373140 14052 net.cpp:137] Memory required for data: 602116
I0106 23:08:57.373148 14052 layer_factory.hpp:77] Creating layer bn2a_branch2b
I0106 23:08:57.373157 14052 net.cpp:84] Creating Layer bn2a_branch2b
I0106 23:08:57.373162 14052 net.cpp:406] bn2a_branch2b <- res2a_branch2b
I0106 23:08:57.373168 14052 net.cpp:367] bn2a_branch2b -> res2a_branch2b (in-place)
I0106 23:08:57.373342 14052 net.cpp:122] Setting up bn2a_branch2b
I0106 23:08:57.373353 14052 net.cpp:129] Top shape: 1 64 8 8 (4096)
I0106 23:08:57.373356 14052 net.cpp:137] Memory required for data: 618500
I0106 23:08:57.373365 14052 layer_factory.hpp:77] Creating layer scale2a_branch2b
I0106 23:08:57.373376 14052 net.cpp:84] Creating Layer scale2a_branch2b
I0106 23:08:57.373380 14052 net.cpp:406] scale2a_branch2b <- res2a_branch2b
I0106 23:08:57.373386 14052 net.cpp:367] scale2a_branch2b -> res2a_branch2b (in-place)
I0106 23:08:57.373425 14052 layer_factory.hpp:77] Creating layer scale2a_branch2b
I0106 23:08:57.373536 14052 net.cpp:122] Setting up scale2a_branch2b
I0106 23:08:57.373545 14052 net.cpp:129] Top shape: 1 64 8 8 (4096)
I0106 23:08:57.373549 14052 net.cpp:137] Memory required for data: 634884
I0106 23:08:57.373556 14052 layer_factory.hpp:77] Creating layer res2a_branch2b_relu
I0106 23:08:57.373564 14052 net.cpp:84] Creating Layer res2a_branch2b_relu
I0106 23:08:57.373569 14052 net.cpp:406] res2a_branch2b_relu <- res2a_branch2b
I0106 23:08:57.373574 14052 net.cpp:367] res2a_branch2b_relu -> res2a_branch2b (in-place)
I0106 23:08:57.373580 14052 net.cpp:122] Setting up res2a_branch2b_relu
I0106 23:08:57.373585 14052 net.cpp:129] Top shape: 1 64 8 8 (4096)
I0106 23:08:57.373589 14052 net.cpp:137] Memory required for data: 651268
I0106 23:08:57.373592 14052 layer_factory.hpp:77] Creating layer res2a_branch2c
I0106 23:08:57.373601 14052 net.cpp:84] Creating Layer res2a_branch2c
I0106 23:08:57.373605 14052 net.cpp:406] res2a_branch2c <- res2a_branch2b
I0106 23:08:57.373611 14052 net.cpp:380] res2a_branch2c -> res2a_branch2c
I0106 23:08:57.373793 14052 net.cpp:122] Setting up res2a_branch2c
I0106 23:08:57.373805 14052 net.cpp:129] Top shape: 1 256 8 8 (16384)
I0106 23:08:57.373811 14052 net.cpp:137] Memory required for data: 716804
I0106 23:08:57.373816 14052 layer_factory.hpp:77] Creating layer bn2a_branch2c
I0106 23:08:57.373822 14052 net.cpp:84] Creating Layer bn2a_branch2c
I0106 23:08:57.373826 14052 net.cpp:406] bn2a_branch2c <- res2a_branch2c
I0106 23:08:57.373832 14052 net.cpp:367] bn2a_branch2c -> res2a_branch2c (in-place)
I0106 23:08:57.373998 14052 net.cpp:122] Setting up bn2a_branch2c
I0106 23:08:57.374007 14052 net.cpp:129] Top shape: 1 256 8 8 (16384)
I0106 23:08:57.374011 14052 net.cpp:137] Memory required for data: 782340
I0106 23:08:57.374019 14052 layer_factory.hpp:77] Creating layer scale2a_branch2c
I0106 23:08:57.374025 14052 net.cpp:84] Creating Layer scale2a_branch2c
I0106 23:08:57.374029 14052 net.cpp:406] scale2a_branch2c <- res2a_branch2c
I0106 23:08:57.374035 14052 net.cpp:367] scale2a_branch2c -> res2a_branch2c (in-place)
I0106 23:08:57.374073 14052 layer_factory.hpp:77] Creating layer scale2a_branch2c
I0106 23:08:57.374173 14052 net.cpp:122] Setting up scale2a_branch2c
I0106 23:08:57.374183 14052 net.cpp:129] Top shape: 1 256 8 8 (16384)
I0106 23:08:57.374187 14052 net.cpp:137] Memory required for data: 847876
I0106 23:08:57.374193 14052 layer_factory.hpp:77] Creating layer res2a
I0106 23:08:57.374202 14052 net.cpp:84] Creating Layer res2a
I0106 23:08:57.374207 14052 net.cpp:406] res2a <- res2a_branch1
I0106 23:08:57.374212 14052 net.cpp:406] res2a <- res2a_branch2c
I0106 23:08:57.374219 14052 net.cpp:380] res2a -> res2a
I0106 23:08:57.374243 14052 net.cpp:122] Setting up res2a
I0106 23:08:57.374250 14052 net.cpp:129] Top shape: 1 256 8 8 (16384)
I0106 23:08:57.374254 14052 net.cpp:137] Memory required for data: 913412
I0106 23:08:57.374258 14052 layer_factory.hpp:77] Creating layer res2a_relu
I0106 23:08:57.374265 14052 net.cpp:84] Creating Layer res2a_relu
I0106 23:08:57.374270 14052 net.cpp:406] res2a_relu <- res2a
I0106 23:08:57.374275 14052 net.cpp:367] res2a_relu -> res2a (in-place)
I0106 23:08:57.374281 14052 net.cpp:122] Setting up res2a_relu
I0106 23:08:57.374286 14052 net.cpp:129] Top shape: 1 256 8 8 (16384)
I0106 23:08:57.374290 14052 net.cpp:137] Memory required for data: 978948
I0106 23:08:57.374294 14052 layer_factory.hpp:77] Creating layer res2a_res2a_relu_0_split
I0106 23:08:57.374300 14052 net.cpp:84] Creating Layer res2a_res2a_relu_0_split
I0106 23:08:57.374305 14052 net.cpp:406] res2a_res2a_relu_0_split <- res2a
I0106 23:08:57.374310 14052 net.cpp:380] res2a_res2a_relu_0_split -> res2a_res2a_relu_0_split_0
I0106 23:08:57.374316 14052 net.cpp:380] res2a_res2a_relu_0_split -> res2a_res2a_relu_0_split_1
I0106 23:08:57.374348 14052 net.cpp:122] Setting up res2a_res2a_relu_0_split
I0106 23:08:57.374357 14052 net.cpp:129] Top shape: 1 256 8 8 (16384)
I0106 23:08:57.374362 14052 net.cpp:129] Top shape: 1 256 8 8 (16384)
I0106 23:08:57.374366 14052 net.cpp:137] Memory required for data: 1110020
I0106 23:08:57.374370 14052 layer_factory.hpp:77] Creating layer res2b_branch2a
I0106 23:08:57.374379 14052 net.cpp:84] Creating Layer res2b_branch2a
I0106 23:08:57.374384 14052 net.cpp:406] res2b_branch2a <- res2a_res2a_relu_0_split_0
I0106 23:08:57.374390 14052 net.cpp:380] res2b_branch2a -> res2b_branch2a
I0106 23:08:57.374565 14052 net.cpp:122] Setting up res2b_branch2a
I0106 23:08:57.374577 14052 net.cpp:129] Top shape: 1 64 8 8 (4096)
I0106 23:08:57.374580 14052 net.cpp:137] Memory required for data: 1126404
I0106 23:08:57.374585 14052 layer_factory.hpp:77] Creating layer bn2b_branch2a
I0106 23:08:57.374593 14052 net.cpp:84] Creating Layer bn2b_branch2a
I0106 23:08:57.374596 14052 net.cpp:406] bn2b_branch2a <- res2b_branch2a
I0106 23:08:57.374603 14052 net.cpp:367] bn2b_branch2a -> res2b_branch2a (in-place)
I0106 23:08:57.374771 14052 net.cpp:122] Setting up bn2b_branch2a
I0106 23:08:57.374780 14052 net.cpp:129] Top shape: 1 64 8 8 (4096)
I0106 23:08:57.374784 14052 net.cpp:137] Memory required for data: 1142788
I0106 23:08:57.374796 14052 layer_factory.hpp:77] Creating layer scale2b_branch2a
I0106 23:08:57.374807 14052 net.cpp:84] Creating Layer scale2b_branch2a
I0106 23:08:57.374811 14052 net.cpp:406] scale2b_branch2a <- res2b_branch2a
I0106 23:08:57.374819 14052 net.cpp:367] scale2b_branch2a -> res2b_branch2a (in-place)
I0106 23:08:57.374856 14052 layer_factory.hpp:77] Creating layer scale2b_branch2a
I0106 23:08:57.374964 14052 net.cpp:122] Setting up scale2b_branch2a
I0106 23:08:57.374974 14052 net.cpp:129] Top shape: 1 64 8 8 (4096)
I0106 23:08:57.374977 14052 net.cpp:137] Memory required for data: 1159172
I0106 23:08:57.374984 14052 layer_factory.hpp:77] Creating layer res2b_branch2a_relu
I0106 23:08:57.374989 14052 net.cpp:84] Creating Layer res2b_branch2a_relu
I0106 23:08:57.374994 14052 net.cpp:406] res2b_branch2a_relu <- res2b_branch2a
I0106 23:08:57.375001 14052 net.cpp:367] res2b_branch2a_relu -> res2b_branch2a (in-place)
I0106 23:08:57.375008 14052 net.cpp:122] Setting up res2b_branch2a_relu
I0106 23:08:57.375013 14052 net.cpp:129] Top shape: 1 64 8 8 (4096)
I0106 23:08:57.375017 14052 net.cpp:137] Memory required for data: 1175556
I0106 23:08:57.375020 14052 layer_factory.hpp:77] Creating layer res2b_branch2b
I0106 23:08:57.375027 14052 net.cpp:84] Creating Layer res2b_branch2b
I0106 23:08:57.375031 14052 net.cpp:406] res2b_branch2b <- res2b_branch2a
I0106 23:08:57.375038 14052 net.cpp:380] res2b_branch2b -> res2b_branch2b
I0106 23:08:57.375226 14052 net.cpp:122] Setting up res2b_branch2b
I0106 23:08:57.375236 14052 net.cpp:129] Top shape: 1 64 8 8 (4096)
I0106 23:08:57.375239 14052 net.cpp:137] Memory required for data: 1191940
I0106 23:08:57.375244 14052 layer_factory.hpp:77] Creating layer bn2b_branch2b
I0106 23:08:57.375255 14052 net.cpp:84] Creating Layer bn2b_branch2b
I0106 23:08:57.375259 14052 net.cpp:406] bn2b_branch2b <- res2b_branch2b
I0106 23:08:57.375265 14052 net.cpp:367] bn2b_branch2b -> res2b_branch2b (in-place)
I0106 23:08:57.375437 14052 net.cpp:122] Setting up bn2b_branch2b
I0106 23:08:57.375453 14052 net.cpp:129] Top shape: 1 64 8 8 (4096)
I0106 23:08:57.375458 14052 net.cpp:137] Memory required for data: 1208324
I0106 23:08:57.375465 14052 layer_factory.hpp:77] Creating layer scale2b_branch2b
I0106 23:08:57.375474 14052 net.cpp:84] Creating Layer scale2b_branch2b
I0106 23:08:57.375478 14052 net.cpp:406] scale2b_branch2b <- res2b_branch2b
I0106 23:08:57.375484 14052 net.cpp:367] scale2b_branch2b -> res2b_branch2b (in-place)
I0106 23:08:57.375521 14052 layer_factory.hpp:77] Creating layer scale2b_branch2b
I0106 23:08:57.375630 14052 net.cpp:122] Setting up scale2b_branch2b
I0106 23:08:57.375638 14052 net.cpp:129] Top shape: 1 64 8 8 (4096)
I0106 23:08:57.375643 14052 net.cpp:137] Memory required for data: 1224708
I0106 23:08:57.375648 14052 layer_factory.hpp:77] Creating layer res2b_branch2b_relu
I0106 23:08:57.375656 14052 net.cpp:84] Creating Layer res2b_branch2b_relu
I0106 23:08:57.375661 14052 net.cpp:406] res2b_branch2b_relu <- res2b_branch2b
I0106 23:08:57.375666 14052 net.cpp:367] res2b_branch2b_relu -> res2b_branch2b (in-place)
I0106 23:08:57.375672 14052 net.cpp:122] Setting up res2b_branch2b_relu
I0106 23:08:57.375684 14052 net.cpp:129] Top shape: 1 64 8 8 (4096)
I0106 23:08:57.375689 14052 net.cpp:137] Memory required for data: 1241092
I0106 23:08:57.375692 14052 layer_factory.hpp:77] Creating layer res2b_branch2c
I0106 23:08:57.375705 14052 net.cpp:84] Creating Layer res2b_branch2c
I0106 23:08:57.375708 14052 net.cpp:406] res2b_branch2c <- res2b_branch2b
I0106 23:08:57.375715 14052 net.cpp:380] res2b_branch2c -> res2b_branch2c
I0106 23:08:57.375891 14052 net.cpp:122] Setting up res2b_branch2c
I0106 23:08:57.375902 14052 net.cpp:129] Top shape: 1 256 8 8 (16384)
I0106 23:08:57.375906 14052 net.cpp:137] Memory required for data: 1306628
I0106 23:08:57.375911 14052 layer_factory.hpp:77] Creating layer bn2b_branch2c
I0106 23:08:57.375918 14052 net.cpp:84] Creating Layer bn2b_branch2c
I0106 23:08:57.375922 14052 net.cpp:406] bn2b_branch2c <- res2b_branch2c
I0106 23:08:57.375931 14052 net.cpp:367] bn2b_branch2c -> res2b_branch2c (in-place)
I0106 23:08:57.376096 14052 net.cpp:122] Setting up bn2b_branch2c
I0106 23:08:57.376106 14052 net.cpp:129] Top shape: 1 256 8 8 (16384)
I0106 23:08:57.376111 14052 net.cpp:137] Memory required for data: 1372164
I0106 23:08:57.376118 14052 layer_factory.hpp:77] Creating layer scale2b_branch2c
I0106 23:08:57.376124 14052 net.cpp:84] Creating Layer scale2b_branch2c
I0106 23:08:57.376128 14052 net.cpp:406] scale2b_branch2c <- res2b_branch2c
I0106 23:08:57.376134 14052 net.cpp:367] scale2b_branch2c -> res2b_branch2c (in-place)
I0106 23:08:57.376171 14052 layer_factory.hpp:77] Creating layer scale2b_branch2c
I0106 23:08:57.376268 14052 net.cpp:122] Setting up scale2b_branch2c
I0106 23:08:57.376278 14052 net.cpp:129] Top shape: 1 256 8 8 (16384)
I0106 23:08:57.376281 14052 net.cpp:137] Memory required for data: 1437700
I0106 23:08:57.376288 14052 layer_factory.hpp:77] Creating layer res2b
I0106 23:08:57.376298 14052 net.cpp:84] Creating Layer res2b
I0106 23:08:57.376302 14052 net.cpp:406] res2b <- res2a_res2a_relu_0_split_1
I0106 23:08:57.376308 14052 net.cpp:406] res2b <- res2b_branch2c
I0106 23:08:57.376313 14052 net.cpp:380] res2b -> res2b
I0106 23:08:57.376339 14052 net.cpp:122] Setting up res2b
I0106 23:08:57.376349 14052 net.cpp:129] Top shape: 1 256 8 8 (16384)
I0106 23:08:57.376353 14052 net.cpp:137] Memory required for data: 1503236
I0106 23:08:57.376358 14052 layer_factory.hpp:77] Creating layer res2b_relu
I0106 23:08:57.376363 14052 net.cpp:84] Creating Layer res2b_relu
I0106 23:08:57.376366 14052 net.cpp:406] res2b_relu <- res2b
I0106 23:08:57.376374 14052 net.cpp:367] res2b_relu -> res2b (in-place)
I0106 23:08:57.376380 14052 net.cpp:122] Setting up res2b_relu
I0106 23:08:57.376385 14052 net.cpp:129] Top shape: 1 256 8 8 (16384)
I0106 23:08:57.376389 14052 net.cpp:137] Memory required for data: 1568772
I0106 23:08:57.376394 14052 layer_factory.hpp:77] Creating layer res2b_res2b_relu_0_split
I0106 23:08:57.376399 14052 net.cpp:84] Creating Layer res2b_res2b_relu_0_split
I0106 23:08:57.376404 14052 net.cpp:406] res2b_res2b_relu_0_split <- res2b
I0106 23:08:57.376410 14052 net.cpp:380] res2b_res2b_relu_0_split -> res2b_res2b_relu_0_split_0
I0106 23:08:57.376417 14052 net.cpp:380] res2b_res2b_relu_0_split -> res2b_res2b_relu_0_split_1
I0106 23:08:57.376448 14052 net.cpp:122] Setting up res2b_res2b_relu_0_split
I0106 23:08:57.376457 14052 net.cpp:129] Top shape: 1 256 8 8 (16384)
I0106 23:08:57.376462 14052 net.cpp:129] Top shape: 1 256 8 8 (16384)
I0106 23:08:57.376466 14052 net.cpp:137] Memory required for data: 1699844
I0106 23:08:57.376471 14052 layer_factory.hpp:77] Creating layer res2c_branch2a
I0106 23:08:57.376479 14052 net.cpp:84] Creating Layer res2c_branch2a
I0106 23:08:57.376484 14052 net.cpp:406] res2c_branch2a <- res2b_res2b_relu_0_split_0
I0106 23:08:57.376490 14052 net.cpp:380] res2c_branch2a -> res2c_branch2a
I0106 23:08:57.376669 14052 net.cpp:122] Setting up res2c_branch2a
I0106 23:08:57.376679 14052 net.cpp:129] Top shape: 1 64 8 8 (4096)
I0106 23:08:57.376683 14052 net.cpp:137] Memory required for data: 1716228
I0106 23:08:57.376689 14052 layer_factory.hpp:77] Creating layer bn2c_branch2a
I0106 23:08:57.376695 14052 net.cpp:84] Creating Layer bn2c_branch2a
I0106 23:08:57.376699 14052 net.cpp:406] bn2c_branch2a <- res2c_branch2a
I0106 23:08:57.376708 14052 net.cpp:367] bn2c_branch2a -> res2c_branch2a (in-place)
I0106 23:08:57.376880 14052 net.cpp:122] Setting up bn2c_branch2a
I0106 23:08:57.376889 14052 net.cpp:129] Top shape: 1 64 8 8 (4096)
I0106 23:08:57.376893 14052 net.cpp:137] Memory required for data: 1732612
I0106 23:08:57.376900 14052 layer_factory.hpp:77] Creating layer scale2c_branch2a
I0106 23:08:57.376907 14052 net.cpp:84] Creating Layer scale2c_branch2a
I0106 23:08:57.376911 14052 net.cpp:406] scale2c_branch2a <- res2c_branch2a
I0106 23:08:57.376919 14052 net.cpp:367] scale2c_branch2a -> res2c_branch2a (in-place)
I0106 23:08:57.376953 14052 layer_factory.hpp:77] Creating layer scale2c_branch2a
I0106 23:08:57.377058 14052 net.cpp:122] Setting up scale2c_branch2a
I0106 23:08:57.377066 14052 net.cpp:129] Top shape: 1 64 8 8 (4096)
I0106 23:08:57.377070 14052 net.cpp:137] Memory required for data: 1748996
I0106 23:08:57.377076 14052 layer_factory.hpp:77] Creating layer res2c_branch2a_relu
I0106 23:08:57.377086 14052 net.cpp:84] Creating Layer res2c_branch2a_relu
I0106 23:08:57.377090 14052 net.cpp:406] res2c_branch2a_relu <- res2c_branch2a
I0106 23:08:57.377096 14052 net.cpp:367] res2c_branch2a_relu -> res2c_branch2a (in-place)
I0106 23:08:57.377102 14052 net.cpp:122] Setting up res2c_branch2a_relu
I0106 23:08:57.377107 14052 net.cpp:129] Top shape: 1 64 8 8 (4096)
I0106 23:08:57.377111 14052 net.cpp:137] Memory required for data: 1765380
I0106 23:08:57.377115 14052 layer_factory.hpp:77] Creating layer res2c_branch2b
I0106 23:08:57.377125 14052 net.cpp:84] Creating Layer res2c_branch2b
I0106 23:08:57.377128 14052 net.cpp:406] res2c_branch2b <- res2c_branch2a
I0106 23:08:57.377135 14052 net.cpp:380] res2c_branch2b -> res2c_branch2b
I0106 23:08:57.377328 14052 net.cpp:122] Setting up res2c_branch2b
I0106 23:08:57.377339 14052 net.cpp:129] Top shape: 1 64 8 8 (4096)
I0106 23:08:57.377342 14052 net.cpp:137] Memory required for data: 1781764
I0106 23:08:57.377348 14052 layer_factory.hpp:77] Creating layer bn2c_branch2b
I0106 23:08:57.377355 14052 net.cpp:84] Creating Layer bn2c_branch2b
I0106 23:08:57.377359 14052 net.cpp:406] bn2c_branch2b <- res2c_branch2b
I0106 23:08:57.377367 14052 net.cpp:367] bn2c_branch2b -> res2c_branch2b (in-place)
I0106 23:08:57.377545 14052 net.cpp:122] Setting up bn2c_branch2b
I0106 23:08:57.377554 14052 net.cpp:129] Top shape: 1 64 8 8 (4096)
I0106 23:08:57.377558 14052 net.cpp:137] Memory required for data: 1798148
I0106 23:08:57.377566 14052 layer_factory.hpp:77] Creating layer scale2c_branch2b
I0106 23:08:57.377574 14052 net.cpp:84] Creating Layer scale2c_branch2b
I0106 23:08:57.377578 14052 net.cpp:406] scale2c_branch2b <- res2c_branch2b
I0106 23:08:57.377583 14052 net.cpp:367] scale2c_branch2b -> res2c_branch2b (in-place)
I0106 23:08:57.377621 14052 layer_factory.hpp:77] Creating layer scale2c_branch2b
I0106 23:08:57.377728 14052 net.cpp:122] Setting up scale2c_branch2b
I0106 23:08:57.377737 14052 net.cpp:129] Top shape: 1 64 8 8 (4096)
I0106 23:08:57.377741 14052 net.cpp:137] Memory required for data: 1814532
I0106 23:08:57.377748 14052 layer_factory.hpp:77] Creating layer res2c_branch2b_relu
I0106 23:08:57.377755 14052 net.cpp:84] Creating Layer res2c_branch2b_relu
I0106 23:08:57.377760 14052 net.cpp:406] res2c_branch2b_relu <- res2c_branch2b
I0106 23:08:57.377765 14052 net.cpp:367] res2c_branch2b_relu -> res2c_branch2b (in-place)
I0106 23:08:57.377774 14052 net.cpp:122] Setting up res2c_branch2b_relu
I0106 23:08:57.377779 14052 net.cpp:129] Top shape: 1 64 8 8 (4096)
I0106 23:08:57.377782 14052 net.cpp:137] Memory required for data: 1830916
I0106 23:08:57.377786 14052 layer_factory.hpp:77] Creating layer res2c_branch2c
I0106 23:08:57.377792 14052 net.cpp:84] Creating Layer res2c_branch2c
I0106 23:08:57.377796 14052 net.cpp:406] res2c_branch2c <- res2c_branch2b
I0106 23:08:57.377804 14052 net.cpp:380] res2c_branch2c -> res2c_branch2c
I0106 23:08:57.377979 14052 net.cpp:122] Setting up res2c_branch2c
I0106 23:08:57.377990 14052 net.cpp:129] Top shape: 1 256 8 8 (16384)
I0106 23:08:57.377995 14052 net.cpp:137] Memory required for data: 1896452
I0106 23:08:57.378000 14052 layer_factory.hpp:77] Creating layer bn2c_branch2c
I0106 23:08:57.378008 14052 net.cpp:84] Creating Layer bn2c_branch2c
I0106 23:08:57.378012 14052 net.cpp:406] bn2c_branch2c <- res2c_branch2c
I0106 23:08:57.378018 14052 net.cpp:367] bn2c_branch2c -> res2c_branch2c (in-place)
I0106 23:08:57.378185 14052 net.cpp:122] Setting up bn2c_branch2c
I0106 23:08:57.378196 14052 net.cpp:129] Top shape: 1 256 8 8 (16384)
I0106 23:08:57.378198 14052 net.cpp:137] Memory required for data: 1961988
I0106 23:08:57.378216 14052 layer_factory.hpp:77] Creating layer scale2c_branch2c
I0106 23:08:57.378224 14052 net.cpp:84] Creating Layer scale2c_branch2c
I0106 23:08:57.378228 14052 net.cpp:406] scale2c_branch2c <- res2c_branch2c
I0106 23:08:57.378235 14052 net.cpp:367] scale2c_branch2c -> res2c_branch2c (in-place)
I0106 23:08:57.378273 14052 layer_factory.hpp:77] Creating layer scale2c_branch2c
I0106 23:08:57.378376 14052 net.cpp:122] Setting up scale2c_branch2c
I0106 23:08:57.378386 14052 net.cpp:129] Top shape: 1 256 8 8 (16384)
I0106 23:08:57.378389 14052 net.cpp:137] Memory required for data: 2027524
I0106 23:08:57.378396 14052 layer_factory.hpp:77] Creating layer res2c
I0106 23:08:57.378407 14052 net.cpp:84] Creating Layer res2c
I0106 23:08:57.378412 14052 net.cpp:406] res2c <- res2b_res2b_relu_0_split_1
I0106 23:08:57.378417 14052 net.cpp:406] res2c <- res2c_branch2c
I0106 23:08:57.378422 14052 net.cpp:380] res2c -> res2c
I0106 23:08:57.378444 14052 net.cpp:122] Setting up res2c
I0106 23:08:57.378453 14052 net.cpp:129] Top shape: 1 256 8 8 (16384)
I0106 23:08:57.378458 14052 net.cpp:137] Memory required for data: 2093060
I0106 23:08:57.378461 14052 layer_factory.hpp:77] Creating layer res2c_relu
I0106 23:08:57.378468 14052 net.cpp:84] Creating Layer res2c_relu
I0106 23:08:57.378471 14052 net.cpp:406] res2c_relu <- res2c
I0106 23:08:57.378479 14052 net.cpp:367] res2c_relu -> res2c (in-place)
I0106 23:08:57.378485 14052 net.cpp:122] Setting up res2c_relu
I0106 23:08:57.378491 14052 net.cpp:129] Top shape: 1 256 8 8 (16384)
I0106 23:08:57.378495 14052 net.cpp:137] Memory required for data: 2158596
I0106 23:08:57.378499 14052 layer_factory.hpp:77] Creating layer drop2
I0106 23:08:57.378506 14052 net.cpp:84] Creating Layer drop2
I0106 23:08:57.378509 14052 net.cpp:406] drop2 <- res2c
I0106 23:08:57.378515 14052 net.cpp:367] drop2 -> res2c (in-place)
I0106 23:08:57.378535 14052 net.cpp:122] Setting up drop2
I0106 23:08:57.378543 14052 net.cpp:129] Top shape: 1 256 8 8 (16384)
I0106 23:08:57.378547 14052 net.cpp:137] Memory required for data: 2224132
I0106 23:08:57.378551 14052 layer_factory.hpp:77] Creating layer res2c_drop2_0_split
I0106 23:08:57.378556 14052 net.cpp:84] Creating Layer res2c_drop2_0_split
I0106 23:08:57.378561 14052 net.cpp:406] res2c_drop2_0_split <- res2c
I0106 23:08:57.378569 14052 net.cpp:380] res2c_drop2_0_split -> res2c_drop2_0_split_0
I0106 23:08:57.378577 14052 net.cpp:380] res2c_drop2_0_split -> res2c_drop2_0_split_1
I0106 23:08:57.378609 14052 net.cpp:122] Setting up res2c_drop2_0_split
I0106 23:08:57.378618 14052 net.cpp:129] Top shape: 1 256 8 8 (16384)
I0106 23:08:57.378623 14052 net.cpp:129] Top shape: 1 256 8 8 (16384)
I0106 23:08:57.378628 14052 net.cpp:137] Memory required for data: 2355204
I0106 23:08:57.378631 14052 layer_factory.hpp:77] Creating layer res3a_branch1
I0106 23:08:57.378638 14052 net.cpp:84] Creating Layer res3a_branch1
I0106 23:08:57.378643 14052 net.cpp:406] res3a_branch1 <- res2c_drop2_0_split_0
I0106 23:08:57.378649 14052 net.cpp:380] res3a_branch1 -> res3a_branch1
I0106 23:08:57.380022 14052 net.cpp:122] Setting up res3a_branch1
I0106 23:08:57.380038 14052 net.cpp:129] Top shape: 1 512 4 4 (8192)
I0106 23:08:57.380041 14052 net.cpp:137] Memory required for data: 2387972
I0106 23:08:57.380048 14052 layer_factory.hpp:77] Creating layer bn3a_branch1
I0106 23:08:57.380056 14052 net.cpp:84] Creating Layer bn3a_branch1
I0106 23:08:57.380061 14052 net.cpp:406] bn3a_branch1 <- res3a_branch1
I0106 23:08:57.380067 14052 net.cpp:367] bn3a_branch1 -> res3a_branch1 (in-place)
I0106 23:08:57.381323 14052 net.cpp:122] Setting up bn3a_branch1
I0106 23:08:57.381341 14052 net.cpp:129] Top shape: 1 512 4 4 (8192)
I0106 23:08:57.381345 14052 net.cpp:137] Memory required for data: 2420740
I0106 23:08:57.381356 14052 layer_factory.hpp:77] Creating layer scale3a_branch1
I0106 23:08:57.381366 14052 net.cpp:84] Creating Layer scale3a_branch1
I0106 23:08:57.381369 14052 net.cpp:406] scale3a_branch1 <- res3a_branch1
I0106 23:08:57.381376 14052 net.cpp:367] scale3a_branch1 -> res3a_branch1 (in-place)
I0106 23:08:57.381417 14052 layer_factory.hpp:77] Creating layer scale3a_branch1
I0106 23:08:57.381531 14052 net.cpp:122] Setting up scale3a_branch1
I0106 23:08:57.381541 14052 net.cpp:129] Top shape: 1 512 4 4 (8192)
I0106 23:08:57.381544 14052 net.cpp:137] Memory required for data: 2453508
I0106 23:08:57.381551 14052 layer_factory.hpp:77] Creating layer res3a_branch2a
I0106 23:08:57.381561 14052 net.cpp:84] Creating Layer res3a_branch2a
I0106 23:08:57.381567 14052 net.cpp:406] res3a_branch2a <- res2c_drop2_0_split_1
I0106 23:08:57.381573 14052 net.cpp:380] res3a_branch2a -> res3a_branch2a
I0106 23:08:57.381784 14052 net.cpp:122] Setting up res3a_branch2a
I0106 23:08:57.381798 14052 net.cpp:129] Top shape: 1 128 4 4 (2048)
I0106 23:08:57.381801 14052 net.cpp:137] Memory required for data: 2461700
I0106 23:08:57.381808 14052 layer_factory.hpp:77] Creating layer bn3a_branch2a
I0106 23:08:57.381814 14052 net.cpp:84] Creating Layer bn3a_branch2a
I0106 23:08:57.381819 14052 net.cpp:406] bn3a_branch2a <- res3a_branch2a
I0106 23:08:57.381824 14052 net.cpp:367] bn3a_branch2a -> res3a_branch2a (in-place)
I0106 23:08:57.381999 14052 net.cpp:122] Setting up bn3a_branch2a
I0106 23:08:57.382011 14052 net.cpp:129] Top shape: 1 128 4 4 (2048)
I0106 23:08:57.382015 14052 net.cpp:137] Memory required for data: 2469892
I0106 23:08:57.382025 14052 layer_factory.hpp:77] Creating layer scale3a_branch2a
I0106 23:08:57.382030 14052 net.cpp:84] Creating Layer scale3a_branch2a
I0106 23:08:57.382035 14052 net.cpp:406] scale3a_branch2a <- res3a_branch2a
I0106 23:08:57.382040 14052 net.cpp:367] scale3a_branch2a -> res3a_branch2a (in-place)
I0106 23:08:57.382077 14052 layer_factory.hpp:77] Creating layer scale3a_branch2a
I0106 23:08:57.382181 14052 net.cpp:122] Setting up scale3a_branch2a
I0106 23:08:57.382191 14052 net.cpp:129] Top shape: 1 128 4 4 (2048)
I0106 23:08:57.382194 14052 net.cpp:137] Memory required for data: 2478084
I0106 23:08:57.382201 14052 layer_factory.hpp:77] Creating layer res3a_branch2a_relu
I0106 23:08:57.382210 14052 net.cpp:84] Creating Layer res3a_branch2a_relu
I0106 23:08:57.382213 14052 net.cpp:406] res3a_branch2a_relu <- res3a_branch2a
I0106 23:08:57.382220 14052 net.cpp:367] res3a_branch2a_relu -> res3a_branch2a (in-place)
I0106 23:08:57.382225 14052 net.cpp:122] Setting up res3a_branch2a_relu
I0106 23:08:57.382231 14052 net.cpp:129] Top shape: 1 128 4 4 (2048)
I0106 23:08:57.382236 14052 net.cpp:137] Memory required for data: 2486276
I0106 23:08:57.382239 14052 layer_factory.hpp:77] Creating layer res3a_branch2b
I0106 23:08:57.382249 14052 net.cpp:84] Creating Layer res3a_branch2b
I0106 23:08:57.382253 14052 net.cpp:406] res3a_branch2b <- res3a_branch2a
I0106 23:08:57.382259 14052 net.cpp:380] res3a_branch2b -> res3a_branch2b
I0106 23:08:57.382529 14052 net.cpp:122] Setting up res3a_branch2b
I0106 23:08:57.382540 14052 net.cpp:129] Top shape: 1 128 4 4 (2048)
I0106 23:08:57.382544 14052 net.cpp:137] Memory required for data: 2494468
I0106 23:08:57.382551 14052 layer_factory.hpp:77] Creating layer bn3a_branch2b
I0106 23:08:57.382560 14052 net.cpp:84] Creating Layer bn3a_branch2b
I0106 23:08:57.382565 14052 net.cpp:406] bn3a_branch2b <- res3a_branch2b
I0106 23:08:57.382570 14052 net.cpp:367] bn3a_branch2b -> res3a_branch2b (in-place)
I0106 23:08:57.382741 14052 net.cpp:122] Setting up bn3a_branch2b
I0106 23:08:57.382751 14052 net.cpp:129] Top shape: 1 128 4 4 (2048)
I0106 23:08:57.382755 14052 net.cpp:137] Memory required for data: 2502660
I0106 23:08:57.382763 14052 layer_factory.hpp:77] Creating layer scale3a_branch2b
I0106 23:08:57.382769 14052 net.cpp:84] Creating Layer scale3a_branch2b
I0106 23:08:57.382773 14052 net.cpp:406] scale3a_branch2b <- res3a_branch2b
I0106 23:08:57.382781 14052 net.cpp:367] scale3a_branch2b -> res3a_branch2b (in-place)
I0106 23:08:57.382815 14052 layer_factory.hpp:77] Creating layer scale3a_branch2b
I0106 23:08:57.382920 14052 net.cpp:122] Setting up scale3a_branch2b
I0106 23:08:57.382928 14052 net.cpp:129] Top shape: 1 128 4 4 (2048)
I0106 23:08:57.382932 14052 net.cpp:137] Memory required for data: 2510852
I0106 23:08:57.382939 14052 layer_factory.hpp:77] Creating layer res3a_branch2b_relu
I0106 23:08:57.382946 14052 net.cpp:84] Creating Layer res3a_branch2b_relu
I0106 23:08:57.382949 14052 net.cpp:406] res3a_branch2b_relu <- res3a_branch2b
I0106 23:08:57.382956 14052 net.cpp:367] res3a_branch2b_relu -> res3a_branch2b (in-place)
I0106 23:08:57.382963 14052 net.cpp:122] Setting up res3a_branch2b_relu
I0106 23:08:57.382971 14052 net.cpp:129] Top shape: 1 128 4 4 (2048)
I0106 23:08:57.382973 14052 net.cpp:137] Memory required for data: 2519044
I0106 23:08:57.382977 14052 layer_factory.hpp:77] Creating layer res3a_branch2c
I0106 23:08:57.382997 14052 net.cpp:84] Creating Layer res3a_branch2c
I0106 23:08:57.383003 14052 net.cpp:406] res3a_branch2c <- res3a_branch2b
I0106 23:08:57.383009 14052 net.cpp:380] res3a_branch2c -> res3a_branch2c
I0106 23:08:57.383252 14052 net.cpp:122] Setting up res3a_branch2c
I0106 23:08:57.383263 14052 net.cpp:129] Top shape: 1 512 4 4 (8192)
I0106 23:08:57.383267 14052 net.cpp:137] Memory required for data: 2551812
I0106 23:08:57.383273 14052 layer_factory.hpp:77] Creating layer bn3a_branch2c
I0106 23:08:57.383280 14052 net.cpp:84] Creating Layer bn3a_branch2c
I0106 23:08:57.383285 14052 net.cpp:406] bn3a_branch2c <- res3a_branch2c
I0106 23:08:57.383289 14052 net.cpp:367] bn3a_branch2c -> res3a_branch2c (in-place)
I0106 23:08:57.383476 14052 net.cpp:122] Setting up bn3a_branch2c
I0106 23:08:57.383491 14052 net.cpp:129] Top shape: 1 512 4 4 (8192)
I0106 23:08:57.383494 14052 net.cpp:137] Memory required for data: 2584580
I0106 23:08:57.383503 14052 layer_factory.hpp:77] Creating layer scale3a_branch2c
I0106 23:08:57.383509 14052 net.cpp:84] Creating Layer scale3a_branch2c
I0106 23:08:57.383513 14052 net.cpp:406] scale3a_branch2c <- res3a_branch2c
I0106 23:08:57.383519 14052 net.cpp:367] scale3a_branch2c -> res3a_branch2c (in-place)
I0106 23:08:57.383556 14052 layer_factory.hpp:77] Creating layer scale3a_branch2c
I0106 23:08:57.383664 14052 net.cpp:122] Setting up scale3a_branch2c
I0106 23:08:57.383673 14052 net.cpp:129] Top shape: 1 512 4 4 (8192)
I0106 23:08:57.383677 14052 net.cpp:137] Memory required for data: 2617348
I0106 23:08:57.383683 14052 layer_factory.hpp:77] Creating layer res3a
I0106 23:08:57.383692 14052 net.cpp:84] Creating Layer res3a
I0106 23:08:57.383697 14052 net.cpp:406] res3a <- res3a_branch1
I0106 23:08:57.383702 14052 net.cpp:406] res3a <- res3a_branch2c
I0106 23:08:57.383708 14052 net.cpp:380] res3a -> res3a
I0106 23:08:57.383733 14052 net.cpp:122] Setting up res3a
I0106 23:08:57.383741 14052 net.cpp:129] Top shape: 1 512 4 4 (8192)
I0106 23:08:57.383745 14052 net.cpp:137] Memory required for data: 2650116
I0106 23:08:57.383749 14052 layer_factory.hpp:77] Creating layer res3a_relu
I0106 23:08:57.383755 14052 net.cpp:84] Creating Layer res3a_relu
I0106 23:08:57.383759 14052 net.cpp:406] res3a_relu <- res3a
I0106 23:08:57.383767 14052 net.cpp:367] res3a_relu -> res3a (in-place)
I0106 23:08:57.383774 14052 net.cpp:122] Setting up res3a_relu
I0106 23:08:57.383780 14052 net.cpp:129] Top shape: 1 512 4 4 (8192)
I0106 23:08:57.383782 14052 net.cpp:137] Memory required for data: 2682884
I0106 23:08:57.383786 14052 layer_factory.hpp:77] Creating layer res3a_res3a_relu_0_split
I0106 23:08:57.383792 14052 net.cpp:84] Creating Layer res3a_res3a_relu_0_split
I0106 23:08:57.383796 14052 net.cpp:406] res3a_res3a_relu_0_split <- res3a
I0106 23:08:57.383801 14052 net.cpp:380] res3a_res3a_relu_0_split -> res3a_res3a_relu_0_split_0
I0106 23:08:57.383808 14052 net.cpp:380] res3a_res3a_relu_0_split -> res3a_res3a_relu_0_split_1
I0106 23:08:57.383842 14052 net.cpp:122] Setting up res3a_res3a_relu_0_split
I0106 23:08:57.383852 14052 net.cpp:129] Top shape: 1 512 4 4 (8192)
I0106 23:08:57.383857 14052 net.cpp:129] Top shape: 1 512 4 4 (8192)
I0106 23:08:57.383862 14052 net.cpp:137] Memory required for data: 2748420
I0106 23:08:57.383865 14052 layer_factory.hpp:77] Creating layer res3b_branch2a
I0106 23:08:57.383872 14052 net.cpp:84] Creating Layer res3b_branch2a
I0106 23:08:57.383877 14052 net.cpp:406] res3b_branch2a <- res3a_res3a_relu_0_split_0
I0106 23:08:57.383884 14052 net.cpp:380] res3b_branch2a -> res3b_branch2a
I0106 23:08:57.384130 14052 net.cpp:122] Setting up res3b_branch2a
I0106 23:08:57.384148 14052 net.cpp:129] Top shape: 1 128 4 4 (2048)
I0106 23:08:57.384152 14052 net.cpp:137] Memory required for data: 2756612
I0106 23:08:57.384158 14052 layer_factory.hpp:77] Creating layer bn3b_branch2a
I0106 23:08:57.384166 14052 net.cpp:84] Creating Layer bn3b_branch2a
I0106 23:08:57.384169 14052 net.cpp:406] bn3b_branch2a <- res3b_branch2a
I0106 23:08:57.384176 14052 net.cpp:367] bn3b_branch2a -> res3b_branch2a (in-place)
I0106 23:08:57.384348 14052 net.cpp:122] Setting up bn3b_branch2a
I0106 23:08:57.384358 14052 net.cpp:129] Top shape: 1 128 4 4 (2048)
I0106 23:08:57.384362 14052 net.cpp:137] Memory required for data: 2764804
I0106 23:08:57.384371 14052 layer_factory.hpp:77] Creating layer scale3b_branch2a
I0106 23:08:57.384377 14052 net.cpp:84] Creating Layer scale3b_branch2a
I0106 23:08:57.384380 14052 net.cpp:406] scale3b_branch2a <- res3b_branch2a
I0106 23:08:57.384387 14052 net.cpp:367] scale3b_branch2a -> res3b_branch2a (in-place)
I0106 23:08:57.384424 14052 layer_factory.hpp:77] Creating layer scale3b_branch2a
I0106 23:08:57.384529 14052 net.cpp:122] Setting up scale3b_branch2a
I0106 23:08:57.384538 14052 net.cpp:129] Top shape: 1 128 4 4 (2048)
I0106 23:08:57.384542 14052 net.cpp:137] Memory required for data: 2772996
I0106 23:08:57.384549 14052 layer_factory.hpp:77] Creating layer res3b_branch2a_relu
I0106 23:08:57.384554 14052 net.cpp:84] Creating Layer res3b_branch2a_relu
I0106 23:08:57.384559 14052 net.cpp:406] res3b_branch2a_relu <- res3b_branch2a
I0106 23:08:57.384567 14052 net.cpp:367] res3b_branch2a_relu -> res3b_branch2a (in-place)
I0106 23:08:57.384572 14052 net.cpp:122] Setting up res3b_branch2a_relu
I0106 23:08:57.384578 14052 net.cpp:129] Top shape: 1 128 4 4 (2048)
I0106 23:08:57.384582 14052 net.cpp:137] Memory required for data: 2781188
I0106 23:08:57.384586 14052 layer_factory.hpp:77] Creating layer res3b_branch2b
I0106 23:08:57.384593 14052 net.cpp:84] Creating Layer res3b_branch2b
I0106 23:08:57.384596 14052 net.cpp:406] res3b_branch2b <- res3b_branch2a
I0106 23:08:57.384604 14052 net.cpp:380] res3b_branch2b -> res3b_branch2b
I0106 23:08:57.384883 14052 net.cpp:122] Setting up res3b_branch2b
I0106 23:08:57.384894 14052 net.cpp:129] Top shape: 1 128 4 4 (2048)
I0106 23:08:57.384898 14052 net.cpp:137] Memory required for data: 2789380
I0106 23:08:57.384904 14052 layer_factory.hpp:77] Creating layer bn3b_branch2b
I0106 23:08:57.384912 14052 net.cpp:84] Creating Layer bn3b_branch2b
I0106 23:08:57.384917 14052 net.cpp:406] bn3b_branch2b <- res3b_branch2b
I0106 23:08:57.384923 14052 net.cpp:367] bn3b_branch2b -> res3b_branch2b (in-place)
I0106 23:08:57.385097 14052 net.cpp:122] Setting up bn3b_branch2b
I0106 23:08:57.385107 14052 net.cpp:129] Top shape: 1 128 4 4 (2048)
I0106 23:08:57.385110 14052 net.cpp:137] Memory required for data: 2797572
I0106 23:08:57.385118 14052 layer_factory.hpp:77] Creating layer scale3b_branch2b
I0106 23:08:57.385128 14052 net.cpp:84] Creating Layer scale3b_branch2b
I0106 23:08:57.385131 14052 net.cpp:406] scale3b_branch2b <- res3b_branch2b
I0106 23:08:57.385138 14052 net.cpp:367] scale3b_branch2b -> res3b_branch2b (in-place)
I0106 23:08:57.385174 14052 layer_factory.hpp:77] Creating layer scale3b_branch2b
I0106 23:08:57.385277 14052 net.cpp:122] Setting up scale3b_branch2b
I0106 23:08:57.385287 14052 net.cpp:129] Top shape: 1 128 4 4 (2048)
I0106 23:08:57.385290 14052 net.cpp:137] Memory required for data: 2805764
I0106 23:08:57.385298 14052 layer_factory.hpp:77] Creating layer res3b_branch2b_relu
I0106 23:08:57.385303 14052 net.cpp:84] Creating Layer res3b_branch2b_relu
I0106 23:08:57.385308 14052 net.cpp:406] res3b_branch2b_relu <- res3b_branch2b
I0106 23:08:57.385314 14052 net.cpp:367] res3b_branch2b_relu -> res3b_branch2b (in-place)
I0106 23:08:57.385320 14052 net.cpp:122] Setting up res3b_branch2b_relu
I0106 23:08:57.385326 14052 net.cpp:129] Top shape: 1 128 4 4 (2048)
I0106 23:08:57.385330 14052 net.cpp:137] Memory required for data: 2813956
I0106 23:08:57.385334 14052 layer_factory.hpp:77] Creating layer res3b_branch2c
I0106 23:08:57.385342 14052 net.cpp:84] Creating Layer res3b_branch2c
I0106 23:08:57.385346 14052 net.cpp:406] res3b_branch2c <- res3b_branch2b
I0106 23:08:57.385352 14052 net.cpp:380] res3b_branch2c -> res3b_branch2c
I0106 23:08:57.385594 14052 net.cpp:122] Setting up res3b_branch2c
I0106 23:08:57.385605 14052 net.cpp:129] Top shape: 1 512 4 4 (8192)
I0106 23:08:57.385609 14052 net.cpp:137] Memory required for data: 2846724
I0106 23:08:57.385615 14052 layer_factory.hpp:77] Creating layer bn3b_branch2c
I0106 23:08:57.385622 14052 net.cpp:84] Creating Layer bn3b_branch2c
I0106 23:08:57.385625 14052 net.cpp:406] bn3b_branch2c <- res3b_branch2c
I0106 23:08:57.385633 14052 net.cpp:367] bn3b_branch2c -> res3b_branch2c (in-place)
I0106 23:08:57.385815 14052 net.cpp:122] Setting up bn3b_branch2c
I0106 23:08:57.385824 14052 net.cpp:129] Top shape: 1 512 4 4 (8192)
I0106 23:08:57.385828 14052 net.cpp:137] Memory required for data: 2879492
I0106 23:08:57.385836 14052 layer_factory.hpp:77] Creating layer scale3b_branch2c
I0106 23:08:57.385843 14052 net.cpp:84] Creating Layer scale3b_branch2c
I0106 23:08:57.385846 14052 net.cpp:406] scale3b_branch2c <- res3b_branch2c
I0106 23:08:57.385852 14052 net.cpp:367] scale3b_branch2c -> res3b_branch2c (in-place)
I0106 23:08:57.385887 14052 layer_factory.hpp:77] Creating layer scale3b_branch2c
I0106 23:08:57.386001 14052 net.cpp:122] Setting up scale3b_branch2c
I0106 23:08:57.386011 14052 net.cpp:129] Top shape: 1 512 4 4 (8192)
I0106 23:08:57.386015 14052 net.cpp:137] Memory required for data: 2912260
I0106 23:08:57.386021 14052 layer_factory.hpp:77] Creating layer res3b
I0106 23:08:57.386030 14052 net.cpp:84] Creating Layer res3b
I0106 23:08:57.386034 14052 net.cpp:406] res3b <- res3a_res3a_relu_0_split_1
I0106 23:08:57.386040 14052 net.cpp:406] res3b <- res3b_branch2c
I0106 23:08:57.386046 14052 net.cpp:380] res3b -> res3b
I0106 23:08:57.386071 14052 net.cpp:122] Setting up res3b
I0106 23:08:57.386081 14052 net.cpp:129] Top shape: 1 512 4 4 (8192)
I0106 23:08:57.386085 14052 net.cpp:137] Memory required for data: 2945028
I0106 23:08:57.386088 14052 layer_factory.hpp:77] Creating layer res3b_relu
I0106 23:08:57.386095 14052 net.cpp:84] Creating Layer res3b_relu
I0106 23:08:57.386098 14052 net.cpp:406] res3b_relu <- res3b
I0106 23:08:57.386106 14052 net.cpp:367] res3b_relu -> res3b (in-place)
I0106 23:08:57.386112 14052 net.cpp:122] Setting up res3b_relu
I0106 23:08:57.386118 14052 net.cpp:129] Top shape: 1 512 4 4 (8192)
I0106 23:08:57.386121 14052 net.cpp:137] Memory required for data: 2977796
I0106 23:08:57.386126 14052 layer_factory.hpp:77] Creating layer res3b_res3b_relu_0_split
I0106 23:08:57.386132 14052 net.cpp:84] Creating Layer res3b_res3b_relu_0_split
I0106 23:08:57.386135 14052 net.cpp:406] res3b_res3b_relu_0_split <- res3b
I0106 23:08:57.386140 14052 net.cpp:380] res3b_res3b_relu_0_split -> res3b_res3b_relu_0_split_0
I0106 23:08:57.386152 14052 net.cpp:380] res3b_res3b_relu_0_split -> res3b_res3b_relu_0_split_1
I0106 23:08:57.386188 14052 net.cpp:122] Setting up res3b_res3b_relu_0_split
I0106 23:08:57.386196 14052 net.cpp:129] Top shape: 1 512 4 4 (8192)
I0106 23:08:57.386202 14052 net.cpp:129] Top shape: 1 512 4 4 (8192)
I0106 23:08:57.386206 14052 net.cpp:137] Memory required for data: 3043332
I0106 23:08:57.386210 14052 layer_factory.hpp:77] Creating layer res3c_branch2a
I0106 23:08:57.386221 14052 net.cpp:84] Creating Layer res3c_branch2a
I0106 23:08:57.386229 14052 net.cpp:406] res3c_branch2a <- res3b_res3b_relu_0_split_0
I0106 23:08:57.386234 14052 net.cpp:380] res3c_branch2a -> res3c_branch2a
I0106 23:08:57.386485 14052 net.cpp:122] Setting up res3c_branch2a
I0106 23:08:57.386497 14052 net.cpp:129] Top shape: 1 128 4 4 (2048)
I0106 23:08:57.386500 14052 net.cpp:137] Memory required for data: 3051524
I0106 23:08:57.386507 14052 layer_factory.hpp:77] Creating layer bn3c_branch2a
I0106 23:08:57.386512 14052 net.cpp:84] Creating Layer bn3c_branch2a
I0106 23:08:57.386518 14052 net.cpp:406] bn3c_branch2a <- res3c_branch2a
I0106 23:08:57.386524 14052 net.cpp:367] bn3c_branch2a -> res3c_branch2a (in-place)
I0106 23:08:57.386700 14052 net.cpp:122] Setting up bn3c_branch2a
I0106 23:08:57.386709 14052 net.cpp:129] Top shape: 1 128 4 4 (2048)
I0106 23:08:57.386713 14052 net.cpp:137] Memory required for data: 3059716
I0106 23:08:57.386721 14052 layer_factory.hpp:77] Creating layer scale3c_branch2a
I0106 23:08:57.386728 14052 net.cpp:84] Creating Layer scale3c_branch2a
I0106 23:08:57.386732 14052 net.cpp:406] scale3c_branch2a <- res3c_branch2a
I0106 23:08:57.386737 14052 net.cpp:367] scale3c_branch2a -> res3c_branch2a (in-place)
I0106 23:08:57.386775 14052 layer_factory.hpp:77] Creating layer scale3c_branch2a
I0106 23:08:57.386881 14052 net.cpp:122] Setting up scale3c_branch2a
I0106 23:08:57.386891 14052 net.cpp:129] Top shape: 1 128 4 4 (2048)
I0106 23:08:57.386895 14052 net.cpp:137] Memory required for data: 3067908
I0106 23:08:57.386903 14052 layer_factory.hpp:77] Creating layer res3c_branch2a_relu
I0106 23:08:57.386907 14052 net.cpp:84] Creating Layer res3c_branch2a_relu
I0106 23:08:57.386912 14052 net.cpp:406] res3c_branch2a_relu <- res3c_branch2a
I0106 23:08:57.386919 14052 net.cpp:367] res3c_branch2a_relu -> res3c_branch2a (in-place)
I0106 23:08:57.386926 14052 net.cpp:122] Setting up res3c_branch2a_relu
I0106 23:08:57.386931 14052 net.cpp:129] Top shape: 1 128 4 4 (2048)
I0106 23:08:57.386935 14052 net.cpp:137] Memory required for data: 3076100
I0106 23:08:57.386940 14052 layer_factory.hpp:77] Creating layer res3c_branch2b
I0106 23:08:57.386948 14052 net.cpp:84] Creating Layer res3c_branch2b
I0106 23:08:57.386952 14052 net.cpp:406] res3c_branch2b <- res3c_branch2a
I0106 23:08:57.386957 14052 net.cpp:380] res3c_branch2b -> res3c_branch2b
I0106 23:08:57.388379 14052 net.cpp:122] Setting up res3c_branch2b
I0106 23:08:57.388398 14052 net.cpp:129] Top shape: 1 128 4 4 (2048)
I0106 23:08:57.388402 14052 net.cpp:137] Memory required for data: 3084292
I0106 23:08:57.388409 14052 layer_factory.hpp:77] Creating layer bn3c_branch2b
I0106 23:08:57.388418 14052 net.cpp:84] Creating Layer bn3c_branch2b
I0106 23:08:57.388423 14052 net.cpp:406] bn3c_branch2b <- res3c_branch2b
I0106 23:08:57.388432 14052 net.cpp:367] bn3c_branch2b -> res3c_branch2b (in-place)
I0106 23:08:57.388625 14052 net.cpp:122] Setting up bn3c_branch2b
I0106 23:08:57.388638 14052 net.cpp:129] Top shape: 1 128 4 4 (2048)
I0106 23:08:57.388641 14052 net.cpp:137] Memory required for data: 3092484
I0106 23:08:57.388649 14052 layer_factory.hpp:77] Creating layer scale3c_branch2b
I0106 23:08:57.388656 14052 net.cpp:84] Creating Layer scale3c_branch2b
I0106 23:08:57.388660 14052 net.cpp:406] scale3c_branch2b <- res3c_branch2b
I0106 23:08:57.388669 14052 net.cpp:367] scale3c_branch2b -> res3c_branch2b (in-place)
I0106 23:08:57.388705 14052 layer_factory.hpp:77] Creating layer scale3c_branch2b
I0106 23:08:57.388811 14052 net.cpp:122] Setting up scale3c_branch2b
I0106 23:08:57.388823 14052 net.cpp:129] Top shape: 1 128 4 4 (2048)
I0106 23:08:57.388826 14052 net.cpp:137] Memory required for data: 3100676
I0106 23:08:57.388833 14052 layer_factory.hpp:77] Creating layer res3c_branch2b_relu
I0106 23:08:57.388840 14052 net.cpp:84] Creating Layer res3c_branch2b_relu
I0106 23:08:57.388844 14052 net.cpp:406] res3c_branch2b_relu <- res3c_branch2b
I0106 23:08:57.388849 14052 net.cpp:367] res3c_branch2b_relu -> res3c_branch2b (in-place)
I0106 23:08:57.388856 14052 net.cpp:122] Setting up res3c_branch2b_relu
I0106 23:08:57.388861 14052 net.cpp:129] Top shape: 1 128 4 4 (2048)
I0106 23:08:57.388865 14052 net.cpp:137] Memory required for data: 3108868
I0106 23:08:57.388870 14052 layer_factory.hpp:77] Creating layer res3c_branch2c
I0106 23:08:57.388878 14052 net.cpp:84] Creating Layer res3c_branch2c
I0106 23:08:57.388883 14052 net.cpp:406] res3c_branch2c <- res3c_branch2b
I0106 23:08:57.388888 14052 net.cpp:380] res3c_branch2c -> res3c_branch2c
I0106 23:08:57.389148 14052 net.cpp:122] Setting up res3c_branch2c
I0106 23:08:57.389161 14052 net.cpp:129] Top shape: 1 512 4 4 (8192)
I0106 23:08:57.389165 14052 net.cpp:137] Memory required for data: 3141636
I0106 23:08:57.389170 14052 layer_factory.hpp:77] Creating layer bn3c_branch2c
I0106 23:08:57.389178 14052 net.cpp:84] Creating Layer bn3c_branch2c
I0106 23:08:57.389181 14052 net.cpp:406] bn3c_branch2c <- res3c_branch2c
I0106 23:08:57.389187 14052 net.cpp:367] bn3c_branch2c -> res3c_branch2c (in-place)
I0106 23:08:57.389369 14052 net.cpp:122] Setting up bn3c_branch2c
I0106 23:08:57.389381 14052 net.cpp:129] Top shape: 1 512 4 4 (8192)
I0106 23:08:57.389386 14052 net.cpp:137] Memory required for data: 3174404
I0106 23:08:57.389394 14052 layer_factory.hpp:77] Creating layer scale3c_branch2c
I0106 23:08:57.389400 14052 net.cpp:84] Creating Layer scale3c_branch2c
I0106 23:08:57.389405 14052 net.cpp:406] scale3c_branch2c <- res3c_branch2c
I0106 23:08:57.389410 14052 net.cpp:367] scale3c_branch2c -> res3c_branch2c (in-place)
I0106 23:08:57.389446 14052 layer_factory.hpp:77] Creating layer scale3c_branch2c
I0106 23:08:57.389559 14052 net.cpp:122] Setting up scale3c_branch2c
I0106 23:08:57.389569 14052 net.cpp:129] Top shape: 1 512 4 4 (8192)
I0106 23:08:57.389572 14052 net.cpp:137] Memory required for data: 3207172
I0106 23:08:57.389580 14052 layer_factory.hpp:77] Creating layer res3c
I0106 23:08:57.389587 14052 net.cpp:84] Creating Layer res3c
I0106 23:08:57.389592 14052 net.cpp:406] res3c <- res3b_res3b_relu_0_split_1
I0106 23:08:57.389597 14052 net.cpp:406] res3c <- res3c_branch2c
I0106 23:08:57.389605 14052 net.cpp:380] res3c -> res3c
I0106 23:08:57.389628 14052 net.cpp:122] Setting up res3c
I0106 23:08:57.389637 14052 net.cpp:129] Top shape: 1 512 4 4 (8192)
I0106 23:08:57.389642 14052 net.cpp:137] Memory required for data: 3239940
I0106 23:08:57.389645 14052 layer_factory.hpp:77] Creating layer res3c_relu
I0106 23:08:57.389652 14052 net.cpp:84] Creating Layer res3c_relu
I0106 23:08:57.389655 14052 net.cpp:406] res3c_relu <- res3c
I0106 23:08:57.389663 14052 net.cpp:367] res3c_relu -> res3c (in-place)
I0106 23:08:57.389669 14052 net.cpp:122] Setting up res3c_relu
I0106 23:08:57.389675 14052 net.cpp:129] Top shape: 1 512 4 4 (8192)
I0106 23:08:57.389679 14052 net.cpp:137] Memory required for data: 3272708
I0106 23:08:57.389683 14052 layer_factory.hpp:77] Creating layer res3c_res3c_relu_0_split
I0106 23:08:57.389689 14052 net.cpp:84] Creating Layer res3c_res3c_relu_0_split
I0106 23:08:57.389693 14052 net.cpp:406] res3c_res3c_relu_0_split <- res3c
I0106 23:08:57.389698 14052 net.cpp:380] res3c_res3c_relu_0_split -> res3c_res3c_relu_0_split_0
I0106 23:08:57.389705 14052 net.cpp:380] res3c_res3c_relu_0_split -> res3c_res3c_relu_0_split_1
I0106 23:08:57.389740 14052 net.cpp:122] Setting up res3c_res3c_relu_0_split
I0106 23:08:57.389750 14052 net.cpp:129] Top shape: 1 512 4 4 (8192)
I0106 23:08:57.389755 14052 net.cpp:129] Top shape: 1 512 4 4 (8192)
I0106 23:08:57.389758 14052 net.cpp:137] Memory required for data: 3338244
I0106 23:08:57.389762 14052 layer_factory.hpp:77] Creating layer res3d_branch2a
I0106 23:08:57.389775 14052 net.cpp:84] Creating Layer res3d_branch2a
I0106 23:08:57.389780 14052 net.cpp:406] res3d_branch2a <- res3c_res3c_relu_0_split_0
I0106 23:08:57.389786 14052 net.cpp:380] res3d_branch2a -> res3d_branch2a
I0106 23:08:57.391120 14052 net.cpp:122] Setting up res3d_branch2a
I0106 23:08:57.391139 14052 net.cpp:129] Top shape: 1 128 4 4 (2048)
I0106 23:08:57.391144 14052 net.cpp:137] Memory required for data: 3346436
I0106 23:08:57.391151 14052 layer_factory.hpp:77] Creating layer bn3d_branch2a
I0106 23:08:57.391161 14052 net.cpp:84] Creating Layer bn3d_branch2a
I0106 23:08:57.391166 14052 net.cpp:406] bn3d_branch2a <- res3d_branch2a
I0106 23:08:57.391172 14052 net.cpp:367] bn3d_branch2a -> res3d_branch2a (in-place)
I0106 23:08:57.391358 14052 net.cpp:122] Setting up bn3d_branch2a
I0106 23:08:57.391371 14052 net.cpp:129] Top shape: 1 128 4 4 (2048)
I0106 23:08:57.391374 14052 net.cpp:137] Memory required for data: 3354628
I0106 23:08:57.391405 14052 layer_factory.hpp:77] Creating layer scale3d_branch2a
I0106 23:08:57.391412 14052 net.cpp:84] Creating Layer scale3d_branch2a
I0106 23:08:57.391417 14052 net.cpp:406] scale3d_branch2a <- res3d_branch2a
I0106 23:08:57.391422 14052 net.cpp:367] scale3d_branch2a -> res3d_branch2a (in-place)
I0106 23:08:57.391484 14052 layer_factory.hpp:77] Creating layer scale3d_branch2a
I0106 23:08:57.391595 14052 net.cpp:122] Setting up scale3d_branch2a
I0106 23:08:57.391605 14052 net.cpp:129] Top shape: 1 128 4 4 (2048)
I0106 23:08:57.391609 14052 net.cpp:137] Memory required for data: 3362820
I0106 23:08:57.391618 14052 layer_factory.hpp:77] Creating layer res3d_branch2a_relu
I0106 23:08:57.391625 14052 net.cpp:84] Creating Layer res3d_branch2a_relu
I0106 23:08:57.391629 14052 net.cpp:406] res3d_branch2a_relu <- res3d_branch2a
I0106 23:08:57.391635 14052 net.cpp:367] res3d_branch2a_relu -> res3d_branch2a (in-place)
I0106 23:08:57.391641 14052 net.cpp:122] Setting up res3d_branch2a_relu
I0106 23:08:57.391649 14052 net.cpp:129] Top shape: 1 128 4 4 (2048)
I0106 23:08:57.391654 14052 net.cpp:137] Memory required for data: 3371012
I0106 23:08:57.391657 14052 layer_factory.hpp:77] Creating layer res3d_branch2b
I0106 23:08:57.391664 14052 net.cpp:84] Creating Layer res3d_branch2b
I0106 23:08:57.391669 14052 net.cpp:406] res3d_branch2b <- res3d_branch2a
I0106 23:08:57.391676 14052 net.cpp:380] res3d_branch2b -> res3d_branch2b
I0106 23:08:57.391999 14052 net.cpp:122] Setting up res3d_branch2b
I0106 23:08:57.392009 14052 net.cpp:129] Top shape: 1 128 4 4 (2048)
I0106 23:08:57.392014 14052 net.cpp:137] Memory required for data: 3379204
I0106 23:08:57.392019 14052 layer_factory.hpp:77] Creating layer bn3d_branch2b
I0106 23:08:57.392027 14052 net.cpp:84] Creating Layer bn3d_branch2b
I0106 23:08:57.392032 14052 net.cpp:406] bn3d_branch2b <- res3d_branch2b
I0106 23:08:57.392040 14052 net.cpp:367] bn3d_branch2b -> res3d_branch2b (in-place)
I0106 23:08:57.392215 14052 net.cpp:122] Setting up bn3d_branch2b
I0106 23:08:57.392225 14052 net.cpp:129] Top shape: 1 128 4 4 (2048)
I0106 23:08:57.392228 14052 net.cpp:137] Memory required for data: 3387396
I0106 23:08:57.392236 14052 layer_factory.hpp:77] Creating layer scale3d_branch2b
I0106 23:08:57.392242 14052 net.cpp:84] Creating Layer scale3d_branch2b
I0106 23:08:57.392247 14052 net.cpp:406] scale3d_branch2b <- res3d_branch2b
I0106 23:08:57.392254 14052 net.cpp:367] scale3d_branch2b -> res3d_branch2b (in-place)
I0106 23:08:57.392293 14052 layer_factory.hpp:77] Creating layer scale3d_branch2b
I0106 23:08:57.392405 14052 net.cpp:122] Setting up scale3d_branch2b
I0106 23:08:57.392417 14052 net.cpp:129] Top shape: 1 128 4 4 (2048)
I0106 23:08:57.392421 14052 net.cpp:137] Memory required for data: 3395588
I0106 23:08:57.392428 14052 layer_factory.hpp:77] Creating layer res3d_branch2b_relu
I0106 23:08:57.392434 14052 net.cpp:84] Creating Layer res3d_branch2b_relu
I0106 23:08:57.392438 14052 net.cpp:406] res3d_branch2b_relu <- res3d_branch2b
I0106 23:08:57.392446 14052 net.cpp:367] res3d_branch2b_relu -> res3d_branch2b (in-place)
I0106 23:08:57.392452 14052 net.cpp:122] Setting up res3d_branch2b_relu
I0106 23:08:57.392458 14052 net.cpp:129] Top shape: 1 128 4 4 (2048)
I0106 23:08:57.392462 14052 net.cpp:137] Memory required for data: 3403780
I0106 23:08:57.392467 14052 layer_factory.hpp:77] Creating layer res3d_branch2c
I0106 23:08:57.392472 14052 net.cpp:84] Creating Layer res3d_branch2c
I0106 23:08:57.392477 14052 net.cpp:406] res3d_branch2c <- res3d_branch2b
I0106 23:08:57.392484 14052 net.cpp:380] res3d_branch2c -> res3d_branch2c
I0106 23:08:57.392711 14052 net.cpp:122] Setting up res3d_branch2c
I0106 23:08:57.392724 14052 net.cpp:129] Top shape: 1 512 4 4 (8192)
I0106 23:08:57.392727 14052 net.cpp:137] Memory required for data: 3436548
I0106 23:08:57.392732 14052 layer_factory.hpp:77] Creating layer bn3d_branch2c
I0106 23:08:57.392742 14052 net.cpp:84] Creating Layer bn3d_branch2c
I0106 23:08:57.392746 14052 net.cpp:406] bn3d_branch2c <- res3d_branch2c
I0106 23:08:57.392751 14052 net.cpp:367] bn3d_branch2c -> res3d_branch2c (in-place)
I0106 23:08:57.392938 14052 net.cpp:122] Setting up bn3d_branch2c
I0106 23:08:57.392948 14052 net.cpp:129] Top shape: 1 512 4 4 (8192)
I0106 23:08:57.392952 14052 net.cpp:137] Memory required for data: 3469316
I0106 23:08:57.392961 14052 layer_factory.hpp:77] Creating layer scale3d_branch2c
I0106 23:08:57.392966 14052 net.cpp:84] Creating Layer scale3d_branch2c
I0106 23:08:57.392971 14052 net.cpp:406] scale3d_branch2c <- res3d_branch2c
I0106 23:08:57.392976 14052 net.cpp:367] scale3d_branch2c -> res3d_branch2c (in-place)
I0106 23:08:57.393014 14052 layer_factory.hpp:77] Creating layer scale3d_branch2c
I0106 23:08:57.393126 14052 net.cpp:122] Setting up scale3d_branch2c
I0106 23:08:57.393136 14052 net.cpp:129] Top shape: 1 512 4 4 (8192)
I0106 23:08:57.393141 14052 net.cpp:137] Memory required for data: 3502084
I0106 23:08:57.393147 14052 layer_factory.hpp:77] Creating layer res3d
I0106 23:08:57.393153 14052 net.cpp:84] Creating Layer res3d
I0106 23:08:57.393157 14052 net.cpp:406] res3d <- res3c_res3c_relu_0_split_1
I0106 23:08:57.393162 14052 net.cpp:406] res3d <- res3d_branch2c
I0106 23:08:57.393170 14052 net.cpp:380] res3d -> res3d
I0106 23:08:57.393195 14052 net.cpp:122] Setting up res3d
I0106 23:08:57.393204 14052 net.cpp:129] Top shape: 1 512 4 4 (8192)
I0106 23:08:57.393208 14052 net.cpp:137] Memory required for data: 3534852
I0106 23:08:57.393211 14052 layer_factory.hpp:77] Creating layer res3d_relu
I0106 23:08:57.393219 14052 net.cpp:84] Creating Layer res3d_relu
I0106 23:08:57.393224 14052 net.cpp:406] res3d_relu <- res3d
I0106 23:08:57.393229 14052 net.cpp:367] res3d_relu -> res3d (in-place)
I0106 23:08:57.393235 14052 net.cpp:122] Setting up res3d_relu
I0106 23:08:57.393241 14052 net.cpp:129] Top shape: 1 512 4 4 (8192)
I0106 23:08:57.393245 14052 net.cpp:137] Memory required for data: 3567620
I0106 23:08:57.393249 14052 layer_factory.hpp:77] Creating layer drop3
I0106 23:08:57.393257 14052 net.cpp:84] Creating Layer drop3
I0106 23:08:57.393261 14052 net.cpp:406] drop3 <- res3d
I0106 23:08:57.393266 14052 net.cpp:367] drop3 -> res3d (in-place)
I0106 23:08:57.393290 14052 net.cpp:122] Setting up drop3
I0106 23:08:57.393299 14052 net.cpp:129] Top shape: 1 512 4 4 (8192)
I0106 23:08:57.393302 14052 net.cpp:137] Memory required for data: 3600388
I0106 23:08:57.393306 14052 layer_factory.hpp:77] Creating layer res3d_drop3_0_split
I0106 23:08:57.393312 14052 net.cpp:84] Creating Layer res3d_drop3_0_split
I0106 23:08:57.393316 14052 net.cpp:406] res3d_drop3_0_split <- res3d
I0106 23:08:57.393322 14052 net.cpp:380] res3d_drop3_0_split -> res3d_drop3_0_split_0
I0106 23:08:57.393329 14052 net.cpp:380] res3d_drop3_0_split -> res3d_drop3_0_split_1
I0106 23:08:57.393362 14052 net.cpp:122] Setting up res3d_drop3_0_split
I0106 23:08:57.393371 14052 net.cpp:129] Top shape: 1 512 4 4 (8192)
I0106 23:08:57.393378 14052 net.cpp:129] Top shape: 1 512 4 4 (8192)
I0106 23:08:57.393381 14052 net.cpp:137] Memory required for data: 3665924
I0106 23:08:57.393385 14052 layer_factory.hpp:77] Creating layer res4a_branch1
I0106 23:08:57.393393 14052 net.cpp:84] Creating Layer res4a_branch1
I0106 23:08:57.393396 14052 net.cpp:406] res4a_branch1 <- res3d_drop3_0_split_0
I0106 23:08:57.393404 14052 net.cpp:380] res4a_branch1 -> res4a_branch1
I0106 23:08:57.395017 14052 net.cpp:122] Setting up res4a_branch1
I0106 23:08:57.395036 14052 net.cpp:129] Top shape: 1 1024 2 2 (4096)
I0106 23:08:57.395041 14052 net.cpp:137] Memory required for data: 3682308
I0106 23:08:57.395048 14052 layer_factory.hpp:77] Creating layer bn4a_branch1
I0106 23:08:57.395056 14052 net.cpp:84] Creating Layer bn4a_branch1
I0106 23:08:57.395061 14052 net.cpp:406] bn4a_branch1 <- res4a_branch1
I0106 23:08:57.395068 14052 net.cpp:367] bn4a_branch1 -> res4a_branch1 (in-place)
I0106 23:08:57.395262 14052 net.cpp:122] Setting up bn4a_branch1
I0106 23:08:57.395272 14052 net.cpp:129] Top shape: 1 1024 2 2 (4096)
I0106 23:08:57.395277 14052 net.cpp:137] Memory required for data: 3698692
I0106 23:08:57.395285 14052 layer_factory.hpp:77] Creating layer scale4a_branch1
I0106 23:08:57.395292 14052 net.cpp:84] Creating Layer scale4a_branch1
I0106 23:08:57.395296 14052 net.cpp:406] scale4a_branch1 <- res4a_branch1
I0106 23:08:57.395303 14052 net.cpp:367] scale4a_branch1 -> res4a_branch1 (in-place)
I0106 23:08:57.395340 14052 layer_factory.hpp:77] Creating layer scale4a_branch1
I0106 23:08:57.395462 14052 net.cpp:122] Setting up scale4a_branch1
I0106 23:08:57.395475 14052 net.cpp:129] Top shape: 1 1024 2 2 (4096)
I0106 23:08:57.395479 14052 net.cpp:137] Memory required for data: 3715076
I0106 23:08:57.395486 14052 layer_factory.hpp:77] Creating layer res4a_branch2a
I0106 23:08:57.395496 14052 net.cpp:84] Creating Layer res4a_branch2a
I0106 23:08:57.395501 14052 net.cpp:406] res4a_branch2a <- res3d_drop3_0_split_1
I0106 23:08:57.395509 14052 net.cpp:380] res4a_branch2a -> res4a_branch2a
I0106 23:08:57.395822 14052 net.cpp:122] Setting up res4a_branch2a
I0106 23:08:57.395833 14052 net.cpp:129] Top shape: 1 256 2 2 (1024)
I0106 23:08:57.395838 14052 net.cpp:137] Memory required for data: 3719172
I0106 23:08:57.395843 14052 layer_factory.hpp:77] Creating layer bn4a_branch2a
I0106 23:08:57.395851 14052 net.cpp:84] Creating Layer bn4a_branch2a
I0106 23:08:57.395856 14052 net.cpp:406] bn4a_branch2a <- res4a_branch2a
I0106 23:08:57.395861 14052 net.cpp:367] bn4a_branch2a -> res4a_branch2a (in-place)
I0106 23:08:57.396041 14052 net.cpp:122] Setting up bn4a_branch2a
I0106 23:08:57.396051 14052 net.cpp:129] Top shape: 1 256 2 2 (1024)
I0106 23:08:57.396055 14052 net.cpp:137] Memory required for data: 3723268
I0106 23:08:57.396062 14052 layer_factory.hpp:77] Creating layer scale4a_branch2a
I0106 23:08:57.396071 14052 net.cpp:84] Creating Layer scale4a_branch2a
I0106 23:08:57.396075 14052 net.cpp:406] scale4a_branch2a <- res4a_branch2a
I0106 23:08:57.396080 14052 net.cpp:367] scale4a_branch2a -> res4a_branch2a (in-place)
I0106 23:08:57.396121 14052 layer_factory.hpp:77] Creating layer scale4a_branch2a
I0106 23:08:57.396229 14052 net.cpp:122] Setting up scale4a_branch2a
I0106 23:08:57.396239 14052 net.cpp:129] Top shape: 1 256 2 2 (1024)
I0106 23:08:57.396244 14052 net.cpp:137] Memory required for data: 3727364
I0106 23:08:57.396250 14052 layer_factory.hpp:77] Creating layer res4a_branch2a_relu
I0106 23:08:57.396255 14052 net.cpp:84] Creating Layer res4a_branch2a_relu
I0106 23:08:57.396260 14052 net.cpp:406] res4a_branch2a_relu <- res4a_branch2a
I0106 23:08:57.396268 14052 net.cpp:367] res4a_branch2a_relu -> res4a_branch2a (in-place)
I0106 23:08:57.396275 14052 net.cpp:122] Setting up res4a_branch2a_relu
I0106 23:08:57.396281 14052 net.cpp:129] Top shape: 1 256 2 2 (1024)
I0106 23:08:57.396284 14052 net.cpp:137] Memory required for data: 3731460
I0106 23:08:57.396288 14052 layer_factory.hpp:77] Creating layer res4a_branch2b
I0106 23:08:57.396296 14052 net.cpp:84] Creating Layer res4a_branch2b
I0106 23:08:57.396301 14052 net.cpp:406] res4a_branch2b <- res4a_branch2a
I0106 23:08:57.396307 14052 net.cpp:380] res4a_branch2b -> res4a_branch2b
I0106 23:08:57.398088 14052 net.cpp:122] Setting up res4a_branch2b
I0106 23:08:57.398108 14052 net.cpp:129] Top shape: 1 256 2 2 (1024)
I0106 23:08:57.398111 14052 net.cpp:137] Memory required for data: 3735556
I0106 23:08:57.398118 14052 layer_factory.hpp:77] Creating layer bn4a_branch2b
I0106 23:08:57.398128 14052 net.cpp:84] Creating Layer bn4a_branch2b
I0106 23:08:57.398134 14052 net.cpp:406] bn4a_branch2b <- res4a_branch2b
I0106 23:08:57.398140 14052 net.cpp:367] bn4a_branch2b -> res4a_branch2b (in-place)
I0106 23:08:57.398330 14052 net.cpp:122] Setting up bn4a_branch2b
I0106 23:08:57.398341 14052 net.cpp:129] Top shape: 1 256 2 2 (1024)
I0106 23:08:57.398345 14052 net.cpp:137] Memory required for data: 3739652
I0106 23:08:57.398355 14052 layer_factory.hpp:77] Creating layer scale4a_branch2b
I0106 23:08:57.398362 14052 net.cpp:84] Creating Layer scale4a_branch2b
I0106 23:08:57.398367 14052 net.cpp:406] scale4a_branch2b <- res4a_branch2b
I0106 23:08:57.398372 14052 net.cpp:367] scale4a_branch2b -> res4a_branch2b (in-place)
I0106 23:08:57.398412 14052 layer_factory.hpp:77] Creating layer scale4a_branch2b
I0106 23:08:57.398521 14052 net.cpp:122] Setting up scale4a_branch2b
I0106 23:08:57.398531 14052 net.cpp:129] Top shape: 1 256 2 2 (1024)
I0106 23:08:57.398535 14052 net.cpp:137] Memory required for data: 3743748
I0106 23:08:57.398541 14052 layer_factory.hpp:77] Creating layer res4a_branch2b_relu
I0106 23:08:57.398550 14052 net.cpp:84] Creating Layer res4a_branch2b_relu
I0106 23:08:57.398558 14052 net.cpp:406] res4a_branch2b_relu <- res4a_branch2b
I0106 23:08:57.398564 14052 net.cpp:367] res4a_branch2b_relu -> res4a_branch2b (in-place)
I0106 23:08:57.398571 14052 net.cpp:122] Setting up res4a_branch2b_relu
I0106 23:08:57.398576 14052 net.cpp:129] Top shape: 1 256 2 2 (1024)
I0106 23:08:57.398581 14052 net.cpp:137] Memory required for data: 3747844
I0106 23:08:57.398584 14052 layer_factory.hpp:77] Creating layer res4a_branch2c
I0106 23:08:57.398597 14052 net.cpp:84] Creating Layer res4a_branch2c
I0106 23:08:57.398602 14052 net.cpp:406] res4a_branch2c <- res4a_branch2b
I0106 23:08:57.398607 14052 net.cpp:380] res4a_branch2c -> res4a_branch2c
I0106 23:08:57.400035 14052 net.cpp:122] Setting up res4a_branch2c
I0106 23:08:57.400053 14052 net.cpp:129] Top shape: 1 1024 2 2 (4096)
I0106 23:08:57.400058 14052 net.cpp:137] Memory required for data: 3764228
I0106 23:08:57.400064 14052 layer_factory.hpp:77] Creating layer bn4a_branch2c
I0106 23:08:57.400072 14052 net.cpp:84] Creating Layer bn4a_branch2c
I0106 23:08:57.400077 14052 net.cpp:406] bn4a_branch2c <- res4a_branch2c
I0106 23:08:57.400084 14052 net.cpp:367] bn4a_branch2c -> res4a_branch2c (in-place)
I0106 23:08:57.400274 14052 net.cpp:122] Setting up bn4a_branch2c
I0106 23:08:57.400285 14052 net.cpp:129] Top shape: 1 1024 2 2 (4096)
I0106 23:08:57.400288 14052 net.cpp:137] Memory required for data: 3780612
I0106 23:08:57.400296 14052 layer_factory.hpp:77] Creating layer scale4a_branch2c
I0106 23:08:57.400305 14052 net.cpp:84] Creating Layer scale4a_branch2c
I0106 23:08:57.400310 14052 net.cpp:406] scale4a_branch2c <- res4a_branch2c
I0106 23:08:57.400315 14052 net.cpp:367] scale4a_branch2c -> res4a_branch2c (in-place)
I0106 23:08:57.400354 14052 layer_factory.hpp:77] Creating layer scale4a_branch2c
I0106 23:08:57.400467 14052 net.cpp:122] Setting up scale4a_branch2c
I0106 23:08:57.400477 14052 net.cpp:129] Top shape: 1 1024 2 2 (4096)
I0106 23:08:57.400481 14052 net.cpp:137] Memory required for data: 3796996
I0106 23:08:57.400487 14052 layer_factory.hpp:77] Creating layer res4a
I0106 23:08:57.400496 14052 net.cpp:84] Creating Layer res4a
I0106 23:08:57.400501 14052 net.cpp:406] res4a <- res4a_branch1
I0106 23:08:57.400506 14052 net.cpp:406] res4a <- res4a_branch2c
I0106 23:08:57.400511 14052 net.cpp:380] res4a -> res4a
I0106 23:08:57.400537 14052 net.cpp:122] Setting up res4a
I0106 23:08:57.400547 14052 net.cpp:129] Top shape: 1 1024 2 2 (4096)
I0106 23:08:57.400552 14052 net.cpp:137] Memory required for data: 3813380
I0106 23:08:57.400555 14052 layer_factory.hpp:77] Creating layer res4a_relu
I0106 23:08:57.400581 14052 net.cpp:84] Creating Layer res4a_relu
I0106 23:08:57.400588 14052 net.cpp:406] res4a_relu <- res4a
I0106 23:08:57.400593 14052 net.cpp:367] res4a_relu -> res4a (in-place)
I0106 23:08:57.400599 14052 net.cpp:122] Setting up res4a_relu
I0106 23:08:57.400605 14052 net.cpp:129] Top shape: 1 1024 2 2 (4096)
I0106 23:08:57.400609 14052 net.cpp:137] Memory required for data: 3829764
I0106 23:08:57.400614 14052 layer_factory.hpp:77] Creating layer res4a_res4a_relu_0_split
I0106 23:08:57.400620 14052 net.cpp:84] Creating Layer res4a_res4a_relu_0_split
I0106 23:08:57.400624 14052 net.cpp:406] res4a_res4a_relu_0_split <- res4a
I0106 23:08:57.400629 14052 net.cpp:380] res4a_res4a_relu_0_split -> res4a_res4a_relu_0_split_0
I0106 23:08:57.400636 14052 net.cpp:380] res4a_res4a_relu_0_split -> res4a_res4a_relu_0_split_1
I0106 23:08:57.400671 14052 net.cpp:122] Setting up res4a_res4a_relu_0_split
I0106 23:08:57.400679 14052 net.cpp:129] Top shape: 1 1024 2 2 (4096)
I0106 23:08:57.400684 14052 net.cpp:129] Top shape: 1 1024 2 2 (4096)
I0106 23:08:57.400688 14052 net.cpp:137] Memory required for data: 3862532
I0106 23:08:57.400692 14052 layer_factory.hpp:77] Creating layer res4b_branch2a
I0106 23:08:57.400703 14052 net.cpp:84] Creating Layer res4b_branch2a
I0106 23:08:57.400712 14052 net.cpp:406] res4b_branch2a <- res4a_res4a_relu_0_split_0
I0106 23:08:57.400719 14052 net.cpp:380] res4b_branch2a -> res4b_branch2a
I0106 23:08:57.401123 14052 net.cpp:122] Setting up res4b_branch2a
I0106 23:08:57.401134 14052 net.cpp:129] Top shape: 1 256 2 2 (1024)
I0106 23:08:57.401139 14052 net.cpp:137] Memory required for data: 3866628
I0106 23:08:57.401144 14052 layer_factory.hpp:77] Creating layer bn4b_branch2a
I0106 23:08:57.401151 14052 net.cpp:84] Creating Layer bn4b_branch2a
I0106 23:08:57.401156 14052 net.cpp:406] bn4b_branch2a <- res4b_branch2a
I0106 23:08:57.401161 14052 net.cpp:367] bn4b_branch2a -> res4b_branch2a (in-place)
I0106 23:08:57.401343 14052 net.cpp:122] Setting up bn4b_branch2a
I0106 23:08:57.401353 14052 net.cpp:129] Top shape: 1 256 2 2 (1024)
I0106 23:08:57.401357 14052 net.cpp:137] Memory required for data: 3870724
I0106 23:08:57.401365 14052 layer_factory.hpp:77] Creating layer scale4b_branch2a
I0106 23:08:57.401371 14052 net.cpp:84] Creating Layer scale4b_branch2a
I0106 23:08:57.401376 14052 net.cpp:406] scale4b_branch2a <- res4b_branch2a
I0106 23:08:57.401381 14052 net.cpp:367] scale4b_branch2a -> res4b_branch2a (in-place)
I0106 23:08:57.401423 14052 layer_factory.hpp:77] Creating layer scale4b_branch2a
I0106 23:08:57.401528 14052 net.cpp:122] Setting up scale4b_branch2a
I0106 23:08:57.401538 14052 net.cpp:129] Top shape: 1 256 2 2 (1024)
I0106 23:08:57.401541 14052 net.cpp:137] Memory required for data: 3874820
I0106 23:08:57.401548 14052 layer_factory.hpp:77] Creating layer res4b_branch2a_relu
I0106 23:08:57.401556 14052 net.cpp:84] Creating Layer res4b_branch2a_relu
I0106 23:08:57.401559 14052 net.cpp:406] res4b_branch2a_relu <- res4b_branch2a
I0106 23:08:57.401566 14052 net.cpp:367] res4b_branch2a_relu -> res4b_branch2a (in-place)
I0106 23:08:57.401573 14052 net.cpp:122] Setting up res4b_branch2a_relu
I0106 23:08:57.401579 14052 net.cpp:129] Top shape: 1 256 2 2 (1024)
I0106 23:08:57.401583 14052 net.cpp:137] Memory required for data: 3878916
I0106 23:08:57.401587 14052 layer_factory.hpp:77] Creating layer res4b_branch2b
I0106 23:08:57.401593 14052 net.cpp:84] Creating Layer res4b_branch2b
I0106 23:08:57.401597 14052 net.cpp:406] res4b_branch2b <- res4b_branch2a
I0106 23:08:57.401605 14052 net.cpp:380] res4b_branch2b -> res4b_branch2b
I0106 23:08:57.403353 14052 net.cpp:122] Setting up res4b_branch2b
I0106 23:08:57.403370 14052 net.cpp:129] Top shape: 1 256 2 2 (1024)
I0106 23:08:57.403375 14052 net.cpp:137] Memory required for data: 3883012
I0106 23:08:57.403383 14052 layer_factory.hpp:77] Creating layer bn4b_branch2b
I0106 23:08:57.403389 14052 net.cpp:84] Creating Layer bn4b_branch2b
I0106 23:08:57.403394 14052 net.cpp:406] bn4b_branch2b <- res4b_branch2b
I0106 23:08:57.403404 14052 net.cpp:367] bn4b_branch2b -> res4b_branch2b (in-place)
I0106 23:08:57.403604 14052 net.cpp:122] Setting up bn4b_branch2b
I0106 23:08:57.403616 14052 net.cpp:129] Top shape: 1 256 2 2 (1024)
I0106 23:08:57.403620 14052 net.cpp:137] Memory required for data: 3887108
I0106 23:08:57.403630 14052 layer_factory.hpp:77] Creating layer scale4b_branch2b
I0106 23:08:57.403635 14052 net.cpp:84] Creating Layer scale4b_branch2b
I0106 23:08:57.403640 14052 net.cpp:406] scale4b_branch2b <- res4b_branch2b
I0106 23:08:57.403647 14052 net.cpp:367] scale4b_branch2b -> res4b_branch2b (in-place)
I0106 23:08:57.403686 14052 layer_factory.hpp:77] Creating layer scale4b_branch2b
I0106 23:08:57.403793 14052 net.cpp:122] Setting up scale4b_branch2b
I0106 23:08:57.403805 14052 net.cpp:129] Top shape: 1 256 2 2 (1024)
I0106 23:08:57.403810 14052 net.cpp:137] Memory required for data: 3891204
I0106 23:08:57.403817 14052 layer_factory.hpp:77] Creating layer res4b_branch2b_relu
I0106 23:08:57.403823 14052 net.cpp:84] Creating Layer res4b_branch2b_relu
I0106 23:08:57.403828 14052 net.cpp:406] res4b_branch2b_relu <- res4b_branch2b
I0106 23:08:57.403833 14052 net.cpp:367] res4b_branch2b_relu -> res4b_branch2b (in-place)
I0106 23:08:57.403839 14052 net.cpp:122] Setting up res4b_branch2b_relu
I0106 23:08:57.403846 14052 net.cpp:129] Top shape: 1 256 2 2 (1024)
I0106 23:08:57.403851 14052 net.cpp:137] Memory required for data: 3895300
I0106 23:08:57.403853 14052 layer_factory.hpp:77] Creating layer res4b_branch2c
I0106 23:08:57.403863 14052 net.cpp:84] Creating Layer res4b_branch2c
I0106 23:08:57.403867 14052 net.cpp:406] res4b_branch2c <- res4b_branch2b
I0106 23:08:57.403873 14052 net.cpp:380] res4b_branch2c -> res4b_branch2c
I0106 23:08:57.405303 14052 net.cpp:122] Setting up res4b_branch2c
I0106 23:08:57.405321 14052 net.cpp:129] Top shape: 1 1024 2 2 (4096)
I0106 23:08:57.405325 14052 net.cpp:137] Memory required for data: 3911684
I0106 23:08:57.405333 14052 layer_factory.hpp:77] Creating layer bn4b_branch2c
I0106 23:08:57.405342 14052 net.cpp:84] Creating Layer bn4b_branch2c
I0106 23:08:57.405347 14052 net.cpp:406] bn4b_branch2c <- res4b_branch2c
I0106 23:08:57.405354 14052 net.cpp:367] bn4b_branch2c -> res4b_branch2c (in-place)
I0106 23:08:57.405552 14052 net.cpp:122] Setting up bn4b_branch2c
I0106 23:08:57.405563 14052 net.cpp:129] Top shape: 1 1024 2 2 (4096)
I0106 23:08:57.405567 14052 net.cpp:137] Memory required for data: 3928068
I0106 23:08:57.405575 14052 layer_factory.hpp:77] Creating layer scale4b_branch2c
I0106 23:08:57.405582 14052 net.cpp:84] Creating Layer scale4b_branch2c
I0106 23:08:57.405586 14052 net.cpp:406] scale4b_branch2c <- res4b_branch2c
I0106 23:08:57.405594 14052 net.cpp:367] scale4b_branch2c -> res4b_branch2c (in-place)
I0106 23:08:57.405630 14052 layer_factory.hpp:77] Creating layer scale4b_branch2c
I0106 23:08:57.405748 14052 net.cpp:122] Setting up scale4b_branch2c
I0106 23:08:57.405758 14052 net.cpp:129] Top shape: 1 1024 2 2 (4096)
I0106 23:08:57.405762 14052 net.cpp:137] Memory required for data: 3944452
I0106 23:08:57.405769 14052 layer_factory.hpp:77] Creating layer res4b
I0106 23:08:57.405776 14052 net.cpp:84] Creating Layer res4b
I0106 23:08:57.405781 14052 net.cpp:406] res4b <- res4a_res4a_relu_0_split_1
I0106 23:08:57.405786 14052 net.cpp:406] res4b <- res4b_branch2c
I0106 23:08:57.405793 14052 net.cpp:380] res4b -> res4b
I0106 23:08:57.405818 14052 net.cpp:122] Setting up res4b
I0106 23:08:57.405829 14052 net.cpp:129] Top shape: 1 1024 2 2 (4096)
I0106 23:08:57.405833 14052 net.cpp:137] Memory required for data: 3960836
I0106 23:08:57.405838 14052 layer_factory.hpp:77] Creating layer res4b_relu
I0106 23:08:57.405843 14052 net.cpp:84] Creating Layer res4b_relu
I0106 23:08:57.405848 14052 net.cpp:406] res4b_relu <- res4b
I0106 23:08:57.405853 14052 net.cpp:367] res4b_relu -> res4b (in-place)
I0106 23:08:57.405859 14052 net.cpp:122] Setting up res4b_relu
I0106 23:08:57.405865 14052 net.cpp:129] Top shape: 1 1024 2 2 (4096)
I0106 23:08:57.405869 14052 net.cpp:137] Memory required for data: 3977220
I0106 23:08:57.405874 14052 layer_factory.hpp:77] Creating layer res4b_res4b_relu_0_split
I0106 23:08:57.405879 14052 net.cpp:84] Creating Layer res4b_res4b_relu_0_split
I0106 23:08:57.405882 14052 net.cpp:406] res4b_res4b_relu_0_split <- res4b
I0106 23:08:57.405890 14052 net.cpp:380] res4b_res4b_relu_0_split -> res4b_res4b_relu_0_split_0
I0106 23:08:57.405897 14052 net.cpp:380] res4b_res4b_relu_0_split -> res4b_res4b_relu_0_split_1
I0106 23:08:57.405936 14052 net.cpp:122] Setting up res4b_res4b_relu_0_split
I0106 23:08:57.405944 14052 net.cpp:129] Top shape: 1 1024 2 2 (4096)
I0106 23:08:57.405949 14052 net.cpp:129] Top shape: 1 1024 2 2 (4096)
I0106 23:08:57.405953 14052 net.cpp:137] Memory required for data: 4009988
I0106 23:08:57.405957 14052 layer_factory.hpp:77] Creating layer res4c_branch2a
I0106 23:08:57.405966 14052 net.cpp:84] Creating Layer res4c_branch2a
I0106 23:08:57.405969 14052 net.cpp:406] res4c_branch2a <- res4b_res4b_relu_0_split_0
I0106 23:08:57.405975 14052 net.cpp:380] res4c_branch2a -> res4c_branch2a
I0106 23:08:57.406334 14052 net.cpp:122] Setting up res4c_branch2a
I0106 23:08:57.406347 14052 net.cpp:129] Top shape: 1 256 2 2 (1024)
I0106 23:08:57.406350 14052 net.cpp:137] Memory required for data: 4014084
I0106 23:08:57.406356 14052 layer_factory.hpp:77] Creating layer bn4c_branch2a
I0106 23:08:57.406363 14052 net.cpp:84] Creating Layer bn4c_branch2a
I0106 23:08:57.406368 14052 net.cpp:406] bn4c_branch2a <- res4c_branch2a
I0106 23:08:57.406375 14052 net.cpp:367] bn4c_branch2a -> res4c_branch2a (in-place)
I0106 23:08:57.406559 14052 net.cpp:122] Setting up bn4c_branch2a
I0106 23:08:57.406569 14052 net.cpp:129] Top shape: 1 256 2 2 (1024)
I0106 23:08:57.406572 14052 net.cpp:137] Memory required for data: 4018180
I0106 23:08:57.406580 14052 layer_factory.hpp:77] Creating layer scale4c_branch2a
I0106 23:08:57.406587 14052 net.cpp:84] Creating Layer scale4c_branch2a
I0106 23:08:57.406591 14052 net.cpp:406] scale4c_branch2a <- res4c_branch2a
I0106 23:08:57.406599 14052 net.cpp:367] scale4c_branch2a -> res4c_branch2a (in-place)
I0106 23:08:57.406635 14052 layer_factory.hpp:77] Creating layer scale4c_branch2a
I0106 23:08:57.406745 14052 net.cpp:122] Setting up scale4c_branch2a
I0106 23:08:57.406757 14052 net.cpp:129] Top shape: 1 256 2 2 (1024)
I0106 23:08:57.406761 14052 net.cpp:137] Memory required for data: 4022276
I0106 23:08:57.406769 14052 layer_factory.hpp:77] Creating layer res4c_branch2a_relu
I0106 23:08:57.406774 14052 net.cpp:84] Creating Layer res4c_branch2a_relu
I0106 23:08:57.406780 14052 net.cpp:406] res4c_branch2a_relu <- res4c_branch2a
I0106 23:08:57.406785 14052 net.cpp:367] res4c_branch2a_relu -> res4c_branch2a (in-place)
I0106 23:08:57.406790 14052 net.cpp:122] Setting up res4c_branch2a_relu
I0106 23:08:57.406796 14052 net.cpp:129] Top shape: 1 256 2 2 (1024)
I0106 23:08:57.406801 14052 net.cpp:137] Memory required for data: 4026372
I0106 23:08:57.406805 14052 layer_factory.hpp:77] Creating layer res4c_branch2b
I0106 23:08:57.406814 14052 net.cpp:84] Creating Layer res4c_branch2b
I0106 23:08:57.406818 14052 net.cpp:406] res4c_branch2b <- res4c_branch2a
I0106 23:08:57.406826 14052 net.cpp:380] res4c_branch2b -> res4c_branch2b
I0106 23:08:57.408589 14052 net.cpp:122] Setting up res4c_branch2b
I0106 23:08:57.408608 14052 net.cpp:129] Top shape: 1 256 2 2 (1024)
I0106 23:08:57.408613 14052 net.cpp:137] Memory required for data: 4030468
I0106 23:08:57.408620 14052 layer_factory.hpp:77] Creating layer bn4c_branch2b
I0106 23:08:57.408628 14052 net.cpp:84] Creating Layer bn4c_branch2b
I0106 23:08:57.408633 14052 net.cpp:406] bn4c_branch2b <- res4c_branch2b
I0106 23:08:57.408643 14052 net.cpp:367] bn4c_branch2b -> res4c_branch2b (in-place)
I0106 23:08:57.408831 14052 net.cpp:122] Setting up bn4c_branch2b
I0106 23:08:57.408843 14052 net.cpp:129] Top shape: 1 256 2 2 (1024)
I0106 23:08:57.408846 14052 net.cpp:137] Memory required for data: 4034564
I0106 23:08:57.408854 14052 layer_factory.hpp:77] Creating layer scale4c_branch2b
I0106 23:08:57.408860 14052 net.cpp:84] Creating Layer scale4c_branch2b
I0106 23:08:57.408865 14052 net.cpp:406] scale4c_branch2b <- res4c_branch2b
I0106 23:08:57.408870 14052 net.cpp:367] scale4c_branch2b -> res4c_branch2b (in-place)
I0106 23:08:57.408910 14052 layer_factory.hpp:77] Creating layer scale4c_branch2b
I0106 23:08:57.409018 14052 net.cpp:122] Setting up scale4c_branch2b
I0106 23:08:57.409029 14052 net.cpp:129] Top shape: 1 256 2 2 (1024)
I0106 23:08:57.409032 14052 net.cpp:137] Memory required for data: 4038660
I0106 23:08:57.409039 14052 layer_factory.hpp:77] Creating layer res4c_branch2b_relu
I0106 23:08:57.409047 14052 net.cpp:84] Creating Layer res4c_branch2b_relu
I0106 23:08:57.409051 14052 net.cpp:406] res4c_branch2b_relu <- res4c_branch2b
I0106 23:08:57.409057 14052 net.cpp:367] res4c_branch2b_relu -> res4c_branch2b (in-place)
I0106 23:08:57.409063 14052 net.cpp:122] Setting up res4c_branch2b_relu
I0106 23:08:57.409070 14052 net.cpp:129] Top shape: 1 256 2 2 (1024)
I0106 23:08:57.409073 14052 net.cpp:137] Memory required for data: 4042756
I0106 23:08:57.409077 14052 layer_factory.hpp:77] Creating layer res4c_branch2c
I0106 23:08:57.409086 14052 net.cpp:84] Creating Layer res4c_branch2c
I0106 23:08:57.409090 14052 net.cpp:406] res4c_branch2c <- res4c_branch2b
I0106 23:08:57.409096 14052 net.cpp:380] res4c_branch2c -> res4c_branch2c
I0106 23:08:57.410542 14052 net.cpp:122] Setting up res4c_branch2c
I0106 23:08:57.410559 14052 net.cpp:129] Top shape: 1 1024 2 2 (4096)
I0106 23:08:57.410563 14052 net.cpp:137] Memory required for data: 4059140
I0106 23:08:57.410570 14052 layer_factory.hpp:77] Creating layer bn4c_branch2c
I0106 23:08:57.410580 14052 net.cpp:84] Creating Layer bn4c_branch2c
I0106 23:08:57.410586 14052 net.cpp:406] bn4c_branch2c <- res4c_branch2c
I0106 23:08:57.410593 14052 net.cpp:367] bn4c_branch2c -> res4c_branch2c (in-place)
I0106 23:08:57.410792 14052 net.cpp:122] Setting up bn4c_branch2c
I0106 23:08:57.410804 14052 net.cpp:129] Top shape: 1 1024 2 2 (4096)
I0106 23:08:57.410809 14052 net.cpp:137] Memory required for data: 4075524
I0106 23:08:57.410817 14052 layer_factory.hpp:77] Creating layer scale4c_branch2c
I0106 23:08:57.410823 14052 net.cpp:84] Creating Layer scale4c_branch2c
I0106 23:08:57.410828 14052 net.cpp:406] scale4c_branch2c <- res4c_branch2c
I0106 23:08:57.410835 14052 net.cpp:367] scale4c_branch2c -> res4c_branch2c (in-place)
I0106 23:08:57.410873 14052 layer_factory.hpp:77] Creating layer scale4c_branch2c
I0106 23:08:57.410989 14052 net.cpp:122] Setting up scale4c_branch2c
I0106 23:08:57.411000 14052 net.cpp:129] Top shape: 1 1024 2 2 (4096)
I0106 23:08:57.411005 14052 net.cpp:137] Memory required for data: 4091908
I0106 23:08:57.411011 14052 layer_factory.hpp:77] Creating layer res4c
I0106 23:08:57.411018 14052 net.cpp:84] Creating Layer res4c
I0106 23:08:57.411022 14052 net.cpp:406] res4c <- res4b_res4b_relu_0_split_1
I0106 23:08:57.411028 14052 net.cpp:406] res4c <- res4c_branch2c
I0106 23:08:57.411033 14052 net.cpp:380] res4c -> res4c
I0106 23:08:57.411061 14052 net.cpp:122] Setting up res4c
I0106 23:08:57.411069 14052 net.cpp:129] Top shape: 1 1024 2 2 (4096)
I0106 23:08:57.411073 14052 net.cpp:137] Memory required for data: 4108292
I0106 23:08:57.411077 14052 layer_factory.hpp:77] Creating layer res4c_relu
I0106 23:08:57.411085 14052 net.cpp:84] Creating Layer res4c_relu
I0106 23:08:57.411090 14052 net.cpp:406] res4c_relu <- res4c
I0106 23:08:57.411095 14052 net.cpp:367] res4c_relu -> res4c (in-place)
I0106 23:08:57.411101 14052 net.cpp:122] Setting up res4c_relu
I0106 23:08:57.411108 14052 net.cpp:129] Top shape: 1 1024 2 2 (4096)
I0106 23:08:57.411110 14052 net.cpp:137] Memory required for data: 4124676
I0106 23:08:57.411114 14052 layer_factory.hpp:77] Creating layer res4c_res4c_relu_0_split
I0106 23:08:57.411120 14052 net.cpp:84] Creating Layer res4c_res4c_relu_0_split
I0106 23:08:57.411124 14052 net.cpp:406] res4c_res4c_relu_0_split <- res4c
I0106 23:08:57.411131 14052 net.cpp:380] res4c_res4c_relu_0_split -> res4c_res4c_relu_0_split_0
I0106 23:08:57.411139 14052 net.cpp:380] res4c_res4c_relu_0_split -> res4c_res4c_relu_0_split_1
I0106 23:08:57.411176 14052 net.cpp:122] Setting up res4c_res4c_relu_0_split
I0106 23:08:57.411185 14052 net.cpp:129] Top shape: 1 1024 2 2 (4096)
I0106 23:08:57.411191 14052 net.cpp:129] Top shape: 1 1024 2 2 (4096)
I0106 23:08:57.411195 14052 net.cpp:137] Memory required for data: 4157444
I0106 23:08:57.411198 14052 layer_factory.hpp:77] Creating layer res4d_branch2a
I0106 23:08:57.411206 14052 net.cpp:84] Creating Layer res4d_branch2a
I0106 23:08:57.411211 14052 net.cpp:406] res4d_branch2a <- res4c_res4c_relu_0_split_0
I0106 23:08:57.411217 14052 net.cpp:380] res4d_branch2a -> res4d_branch2a
I0106 23:08:57.411612 14052 net.cpp:122] Setting up res4d_branch2a
I0106 23:08:57.411625 14052 net.cpp:129] Top shape: 1 256 2 2 (1024)
I0106 23:08:57.411629 14052 net.cpp:137] Memory required for data: 4161540
I0106 23:08:57.411635 14052 layer_factory.hpp:77] Creating layer bn4d_branch2a
I0106 23:08:57.411643 14052 net.cpp:84] Creating Layer bn4d_branch2a
I0106 23:08:57.411648 14052 net.cpp:406] bn4d_branch2a <- res4d_branch2a
I0106 23:08:57.411654 14052 net.cpp:367] bn4d_branch2a -> res4d_branch2a (in-place)
I0106 23:08:57.411844 14052 net.cpp:122] Setting up bn4d_branch2a
I0106 23:08:57.411854 14052 net.cpp:129] Top shape: 1 256 2 2 (1024)
I0106 23:08:57.411859 14052 net.cpp:137] Memory required for data: 4165636
I0106 23:08:57.411866 14052 layer_factory.hpp:77] Creating layer scale4d_branch2a
I0106 23:08:57.411872 14052 net.cpp:84] Creating Layer scale4d_branch2a
I0106 23:08:57.411876 14052 net.cpp:406] scale4d_branch2a <- res4d_branch2a
I0106 23:08:57.411881 14052 net.cpp:367] scale4d_branch2a -> res4d_branch2a (in-place)
I0106 23:08:57.411921 14052 layer_factory.hpp:77] Creating layer scale4d_branch2a
I0106 23:08:57.412029 14052 net.cpp:122] Setting up scale4d_branch2a
I0106 23:08:57.412039 14052 net.cpp:129] Top shape: 1 256 2 2 (1024)
I0106 23:08:57.412042 14052 net.cpp:137] Memory required for data: 4169732
I0106 23:08:57.412050 14052 layer_factory.hpp:77] Creating layer res4d_branch2a_relu
I0106 23:08:57.412057 14052 net.cpp:84] Creating Layer res4d_branch2a_relu
I0106 23:08:57.412061 14052 net.cpp:406] res4d_branch2a_relu <- res4d_branch2a
I0106 23:08:57.412067 14052 net.cpp:367] res4d_branch2a_relu -> res4d_branch2a (in-place)
I0106 23:08:57.412073 14052 net.cpp:122] Setting up res4d_branch2a_relu
I0106 23:08:57.412078 14052 net.cpp:129] Top shape: 1 256 2 2 (1024)
I0106 23:08:57.412082 14052 net.cpp:137] Memory required for data: 4173828
I0106 23:08:57.412086 14052 layer_factory.hpp:77] Creating layer res4d_branch2b
I0106 23:08:57.412096 14052 net.cpp:84] Creating Layer res4d_branch2b
I0106 23:08:57.412099 14052 net.cpp:406] res4d_branch2b <- res4d_branch2a
I0106 23:08:57.412106 14052 net.cpp:380] res4d_branch2b -> res4d_branch2b
I0106 23:08:57.413916 14052 net.cpp:122] Setting up res4d_branch2b
I0106 23:08:57.413934 14052 net.cpp:129] Top shape: 1 256 2 2 (1024)
I0106 23:08:57.413939 14052 net.cpp:137] Memory required for data: 4177924
I0106 23:08:57.413946 14052 layer_factory.hpp:77] Creating layer bn4d_branch2b
I0106 23:08:57.413956 14052 net.cpp:84] Creating Layer bn4d_branch2b
I0106 23:08:57.413961 14052 net.cpp:406] bn4d_branch2b <- res4d_branch2b
I0106 23:08:57.413969 14052 net.cpp:367] bn4d_branch2b -> res4d_branch2b (in-place)
I0106 23:08:57.414160 14052 net.cpp:122] Setting up bn4d_branch2b
I0106 23:08:57.414170 14052 net.cpp:129] Top shape: 1 256 2 2 (1024)
I0106 23:08:57.414175 14052 net.cpp:137] Memory required for data: 4182020
I0106 23:08:57.414183 14052 layer_factory.hpp:77] Creating layer scale4d_branch2b
I0106 23:08:57.414192 14052 net.cpp:84] Creating Layer scale4d_branch2b
I0106 23:08:57.414196 14052 net.cpp:406] scale4d_branch2b <- res4d_branch2b
I0106 23:08:57.414202 14052 net.cpp:367] scale4d_branch2b -> res4d_branch2b (in-place)
I0106 23:08:57.414243 14052 layer_factory.hpp:77] Creating layer scale4d_branch2b
I0106 23:08:57.414355 14052 net.cpp:122] Setting up scale4d_branch2b
I0106 23:08:57.414366 14052 net.cpp:129] Top shape: 1 256 2 2 (1024)
I0106 23:08:57.414371 14052 net.cpp:137] Memory required for data: 4186116
I0106 23:08:57.414378 14052 layer_factory.hpp:77] Creating layer res4d_branch2b_relu
I0106 23:08:57.414384 14052 net.cpp:84] Creating Layer res4d_branch2b_relu
I0106 23:08:57.414388 14052 net.cpp:406] res4d_branch2b_relu <- res4d_branch2b
I0106 23:08:57.414396 14052 net.cpp:367] res4d_branch2b_relu -> res4d_branch2b (in-place)
I0106 23:08:57.414402 14052 net.cpp:122] Setting up res4d_branch2b_relu
I0106 23:08:57.414408 14052 net.cpp:129] Top shape: 1 256 2 2 (1024)
I0106 23:08:57.414412 14052 net.cpp:137] Memory required for data: 4190212
I0106 23:08:57.414417 14052 layer_factory.hpp:77] Creating layer res4d_branch2c
I0106 23:08:57.414423 14052 net.cpp:84] Creating Layer res4d_branch2c
I0106 23:08:57.414429 14052 net.cpp:406] res4d_branch2c <- res4d_branch2b
I0106 23:08:57.414435 14052 net.cpp:380] res4d_branch2c -> res4d_branch2c
I0106 23:08:57.415874 14052 net.cpp:122] Setting up res4d_branch2c
I0106 23:08:57.415892 14052 net.cpp:129] Top shape: 1 1024 2 2 (4096)
I0106 23:08:57.415897 14052 net.cpp:137] Memory required for data: 4206596
I0106 23:08:57.415904 14052 layer_factory.hpp:77] Creating layer bn4d_branch2c
I0106 23:08:57.415912 14052 net.cpp:84] Creating Layer bn4d_branch2c
I0106 23:08:57.415916 14052 net.cpp:406] bn4d_branch2c <- res4d_branch2c
I0106 23:08:57.415922 14052 net.cpp:367] bn4d_branch2c -> res4d_branch2c (in-place)
I0106 23:08:57.416121 14052 net.cpp:122] Setting up bn4d_branch2c
I0106 23:08:57.416132 14052 net.cpp:129] Top shape: 1 1024 2 2 (4096)
I0106 23:08:57.416136 14052 net.cpp:137] Memory required for data: 4222980
I0106 23:08:57.416144 14052 layer_factory.hpp:77] Creating layer scale4d_branch2c
I0106 23:08:57.416153 14052 net.cpp:84] Creating Layer scale4d_branch2c
I0106 23:08:57.416158 14052 net.cpp:406] scale4d_branch2c <- res4d_branch2c
I0106 23:08:57.416163 14052 net.cpp:367] scale4d_branch2c -> res4d_branch2c (in-place)
I0106 23:08:57.416203 14052 layer_factory.hpp:77] Creating layer scale4d_branch2c
I0106 23:08:57.416321 14052 net.cpp:122] Setting up scale4d_branch2c
I0106 23:08:57.416330 14052 net.cpp:129] Top shape: 1 1024 2 2 (4096)
I0106 23:08:57.416334 14052 net.cpp:137] Memory required for data: 4239364
I0106 23:08:57.416342 14052 layer_factory.hpp:77] Creating layer res4d
I0106 23:08:57.416350 14052 net.cpp:84] Creating Layer res4d
I0106 23:08:57.416355 14052 net.cpp:406] res4d <- res4c_res4c_relu_0_split_1
I0106 23:08:57.416360 14052 net.cpp:406] res4d <- res4d_branch2c
I0106 23:08:57.416366 14052 net.cpp:380] res4d -> res4d
I0106 23:08:57.416393 14052 net.cpp:122] Setting up res4d
I0106 23:08:57.416402 14052 net.cpp:129] Top shape: 1 1024 2 2 (4096)
I0106 23:08:57.416406 14052 net.cpp:137] Memory required for data: 4255748
I0106 23:08:57.416410 14052 layer_factory.hpp:77] Creating layer res4d_relu
I0106 23:08:57.416417 14052 net.cpp:84] Creating Layer res4d_relu
I0106 23:08:57.416421 14052 net.cpp:406] res4d_relu <- res4d
I0106 23:08:57.416431 14052 net.cpp:367] res4d_relu -> res4d (in-place)
I0106 23:08:57.416440 14052 net.cpp:122] Setting up res4d_relu
I0106 23:08:57.416445 14052 net.cpp:129] Top shape: 1 1024 2 2 (4096)
I0106 23:08:57.416448 14052 net.cpp:137] Memory required for data: 4272132
I0106 23:08:57.416452 14052 layer_factory.hpp:77] Creating layer res4d_res4d_relu_0_split
I0106 23:08:57.416458 14052 net.cpp:84] Creating Layer res4d_res4d_relu_0_split
I0106 23:08:57.416462 14052 net.cpp:406] res4d_res4d_relu_0_split <- res4d
I0106 23:08:57.416467 14052 net.cpp:380] res4d_res4d_relu_0_split -> res4d_res4d_relu_0_split_0
I0106 23:08:57.416474 14052 net.cpp:380] res4d_res4d_relu_0_split -> res4d_res4d_relu_0_split_1
I0106 23:08:57.416513 14052 net.cpp:122] Setting up res4d_res4d_relu_0_split
I0106 23:08:57.416522 14052 net.cpp:129] Top shape: 1 1024 2 2 (4096)
I0106 23:08:57.416528 14052 net.cpp:129] Top shape: 1 1024 2 2 (4096)
I0106 23:08:57.416532 14052 net.cpp:137] Memory required for data: 4304900
I0106 23:08:57.416537 14052 layer_factory.hpp:77] Creating layer res4e_branch2a
I0106 23:08:57.416544 14052 net.cpp:84] Creating Layer res4e_branch2a
I0106 23:08:57.416549 14052 net.cpp:406] res4e_branch2a <- res4d_res4d_relu_0_split_0
I0106 23:08:57.416558 14052 net.cpp:380] res4e_branch2a -> res4e_branch2a
I0106 23:08:57.416918 14052 net.cpp:122] Setting up res4e_branch2a
I0106 23:08:57.416929 14052 net.cpp:129] Top shape: 1 256 2 2 (1024)
I0106 23:08:57.416934 14052 net.cpp:137] Memory required for data: 4308996
I0106 23:08:57.416939 14052 layer_factory.hpp:77] Creating layer bn4e_branch2a
I0106 23:08:57.416949 14052 net.cpp:84] Creating Layer bn4e_branch2a
I0106 23:08:57.416954 14052 net.cpp:406] bn4e_branch2a <- res4e_branch2a
I0106 23:08:57.416959 14052 net.cpp:367] bn4e_branch2a -> res4e_branch2a (in-place)
I0106 23:08:57.417145 14052 net.cpp:122] Setting up bn4e_branch2a
I0106 23:08:57.417155 14052 net.cpp:129] Top shape: 1 256 2 2 (1024)
I0106 23:08:57.417158 14052 net.cpp:137] Memory required for data: 4313092
I0106 23:08:57.417166 14052 layer_factory.hpp:77] Creating layer scale4e_branch2a
I0106 23:08:57.417174 14052 net.cpp:84] Creating Layer scale4e_branch2a
I0106 23:08:57.417179 14052 net.cpp:406] scale4e_branch2a <- res4e_branch2a
I0106 23:08:57.417184 14052 net.cpp:367] scale4e_branch2a -> res4e_branch2a (in-place)
I0106 23:08:57.417224 14052 layer_factory.hpp:77] Creating layer scale4e_branch2a
I0106 23:08:57.417335 14052 net.cpp:122] Setting up scale4e_branch2a
I0106 23:08:57.417346 14052 net.cpp:129] Top shape: 1 256 2 2 (1024)
I0106 23:08:57.417349 14052 net.cpp:137] Memory required for data: 4317188
I0106 23:08:57.417356 14052 layer_factory.hpp:77] Creating layer res4e_branch2a_relu
I0106 23:08:57.417362 14052 net.cpp:84] Creating Layer res4e_branch2a_relu
I0106 23:08:57.417366 14052 net.cpp:406] res4e_branch2a_relu <- res4e_branch2a
I0106 23:08:57.417373 14052 net.cpp:367] res4e_branch2a_relu -> res4e_branch2a (in-place)
I0106 23:08:57.417381 14052 net.cpp:122] Setting up res4e_branch2a_relu
I0106 23:08:57.417385 14052 net.cpp:129] Top shape: 1 256 2 2 (1024)
I0106 23:08:57.417389 14052 net.cpp:137] Memory required for data: 4321284
I0106 23:08:57.417393 14052 layer_factory.hpp:77] Creating layer res4e_branch2b
I0106 23:08:57.417402 14052 net.cpp:84] Creating Layer res4e_branch2b
I0106 23:08:57.417407 14052 net.cpp:406] res4e_branch2b <- res4e_branch2a
I0106 23:08:57.417412 14052 net.cpp:380] res4e_branch2b -> res4e_branch2b
I0106 23:08:57.419160 14052 net.cpp:122] Setting up res4e_branch2b
I0106 23:08:57.419178 14052 net.cpp:129] Top shape: 1 256 2 2 (1024)
I0106 23:08:57.419183 14052 net.cpp:137] Memory required for data: 4325380
I0106 23:08:57.419189 14052 layer_factory.hpp:77] Creating layer bn4e_branch2b
I0106 23:08:57.419199 14052 net.cpp:84] Creating Layer bn4e_branch2b
I0106 23:08:57.419206 14052 net.cpp:406] bn4e_branch2b <- res4e_branch2b
I0106 23:08:57.419214 14052 net.cpp:367] bn4e_branch2b -> res4e_branch2b (in-place)
I0106 23:08:57.419407 14052 net.cpp:122] Setting up bn4e_branch2b
I0106 23:08:57.419418 14052 net.cpp:129] Top shape: 1 256 2 2 (1024)
I0106 23:08:57.419422 14052 net.cpp:137] Memory required for data: 4329476
I0106 23:08:57.419431 14052 layer_factory.hpp:77] Creating layer scale4e_branch2b
I0106 23:08:57.419440 14052 net.cpp:84] Creating Layer scale4e_branch2b
I0106 23:08:57.419451 14052 net.cpp:406] scale4e_branch2b <- res4e_branch2b
I0106 23:08:57.419457 14052 net.cpp:367] scale4e_branch2b -> res4e_branch2b (in-place)
I0106 23:08:57.419502 14052 layer_factory.hpp:77] Creating layer scale4e_branch2b
I0106 23:08:57.419621 14052 net.cpp:122] Setting up scale4e_branch2b
I0106 23:08:57.419631 14052 net.cpp:129] Top shape: 1 256 2 2 (1024)
I0106 23:08:57.419636 14052 net.cpp:137] Memory required for data: 4333572
I0106 23:08:57.419642 14052 layer_factory.hpp:77] Creating layer res4e_branch2b_relu
I0106 23:08:57.419648 14052 net.cpp:84] Creating Layer res4e_branch2b_relu
I0106 23:08:57.419652 14052 net.cpp:406] res4e_branch2b_relu <- res4e_branch2b
I0106 23:08:57.419661 14052 net.cpp:367] res4e_branch2b_relu -> res4e_branch2b (in-place)
I0106 23:08:57.419667 14052 net.cpp:122] Setting up res4e_branch2b_relu
I0106 23:08:57.419673 14052 net.cpp:129] Top shape: 1 256 2 2 (1024)
I0106 23:08:57.419677 14052 net.cpp:137] Memory required for data: 4337668
I0106 23:08:57.419680 14052 layer_factory.hpp:77] Creating layer res4e_branch2c
I0106 23:08:57.419689 14052 net.cpp:84] Creating Layer res4e_branch2c
I0106 23:08:57.419694 14052 net.cpp:406] res4e_branch2c <- res4e_branch2b
I0106 23:08:57.419699 14052 net.cpp:380] res4e_branch2c -> res4e_branch2c
I0106 23:08:57.421133 14052 net.cpp:122] Setting up res4e_branch2c
I0106 23:08:57.421151 14052 net.cpp:129] Top shape: 1 1024 2 2 (4096)
I0106 23:08:57.421155 14052 net.cpp:137] Memory required for data: 4354052
I0106 23:08:57.421162 14052 layer_factory.hpp:77] Creating layer bn4e_branch2c
I0106 23:08:57.421170 14052 net.cpp:84] Creating Layer bn4e_branch2c
I0106 23:08:57.421175 14052 net.cpp:406] bn4e_branch2c <- res4e_branch2c
I0106 23:08:57.421181 14052 net.cpp:367] bn4e_branch2c -> res4e_branch2c (in-place)
I0106 23:08:57.421382 14052 net.cpp:122] Setting up bn4e_branch2c
I0106 23:08:57.421396 14052 net.cpp:129] Top shape: 1 1024 2 2 (4096)
I0106 23:08:57.421399 14052 net.cpp:137] Memory required for data: 4370436
I0106 23:08:57.421408 14052 layer_factory.hpp:77] Creating layer scale4e_branch2c
I0106 23:08:57.421417 14052 net.cpp:84] Creating Layer scale4e_branch2c
I0106 23:08:57.421422 14052 net.cpp:406] scale4e_branch2c <- res4e_branch2c
I0106 23:08:57.421427 14052 net.cpp:367] scale4e_branch2c -> res4e_branch2c (in-place)
I0106 23:08:57.421468 14052 layer_factory.hpp:77] Creating layer scale4e_branch2c
I0106 23:08:57.421586 14052 net.cpp:122] Setting up scale4e_branch2c
I0106 23:08:57.421597 14052 net.cpp:129] Top shape: 1 1024 2 2 (4096)
I0106 23:08:57.421600 14052 net.cpp:137] Memory required for data: 4386820
I0106 23:08:57.421607 14052 layer_factory.hpp:77] Creating layer res4e
I0106 23:08:57.421615 14052 net.cpp:84] Creating Layer res4e
I0106 23:08:57.421620 14052 net.cpp:406] res4e <- res4d_res4d_relu_0_split_1
I0106 23:08:57.421625 14052 net.cpp:406] res4e <- res4e_branch2c
I0106 23:08:57.421631 14052 net.cpp:380] res4e -> res4e
I0106 23:08:57.421658 14052 net.cpp:122] Setting up res4e
I0106 23:08:57.421667 14052 net.cpp:129] Top shape: 1 1024 2 2 (4096)
I0106 23:08:57.421671 14052 net.cpp:137] Memory required for data: 4403204
I0106 23:08:57.421675 14052 layer_factory.hpp:77] Creating layer res4e_relu
I0106 23:08:57.421681 14052 net.cpp:84] Creating Layer res4e_relu
I0106 23:08:57.421685 14052 net.cpp:406] res4e_relu <- res4e
I0106 23:08:57.421694 14052 net.cpp:367] res4e_relu -> res4e (in-place)
I0106 23:08:57.421700 14052 net.cpp:122] Setting up res4e_relu
I0106 23:08:57.421705 14052 net.cpp:129] Top shape: 1 1024 2 2 (4096)
I0106 23:08:57.421710 14052 net.cpp:137] Memory required for data: 4419588
I0106 23:08:57.421713 14052 layer_factory.hpp:77] Creating layer res4e_res4e_relu_0_split
I0106 23:08:57.421720 14052 net.cpp:84] Creating Layer res4e_res4e_relu_0_split
I0106 23:08:57.421722 14052 net.cpp:406] res4e_res4e_relu_0_split <- res4e
I0106 23:08:57.421728 14052 net.cpp:380] res4e_res4e_relu_0_split -> res4e_res4e_relu_0_split_0
I0106 23:08:57.421736 14052 net.cpp:380] res4e_res4e_relu_0_split -> res4e_res4e_relu_0_split_1
I0106 23:08:57.421773 14052 net.cpp:122] Setting up res4e_res4e_relu_0_split
I0106 23:08:57.421782 14052 net.cpp:129] Top shape: 1 1024 2 2 (4096)
I0106 23:08:57.421787 14052 net.cpp:129] Top shape: 1 1024 2 2 (4096)
I0106 23:08:57.421792 14052 net.cpp:137] Memory required for data: 4452356
I0106 23:08:57.421795 14052 layer_factory.hpp:77] Creating layer res4f_branch2a
I0106 23:08:57.421803 14052 net.cpp:84] Creating Layer res4f_branch2a
I0106 23:08:57.421808 14052 net.cpp:406] res4f_branch2a <- res4e_res4e_relu_0_split_0
I0106 23:08:57.421814 14052 net.cpp:380] res4f_branch2a -> res4f_branch2a
I0106 23:08:57.422185 14052 net.cpp:122] Setting up res4f_branch2a
I0106 23:08:57.422195 14052 net.cpp:129] Top shape: 1 256 2 2 (1024)
I0106 23:08:57.422199 14052 net.cpp:137] Memory required for data: 4456452
I0106 23:08:57.422205 14052 layer_factory.hpp:77] Creating layer bn4f_branch2a
I0106 23:08:57.422214 14052 net.cpp:84] Creating Layer bn4f_branch2a
I0106 23:08:57.422219 14052 net.cpp:406] bn4f_branch2a <- res4f_branch2a
I0106 23:08:57.422224 14052 net.cpp:367] bn4f_branch2a -> res4f_branch2a (in-place)
I0106 23:08:57.422416 14052 net.cpp:122] Setting up bn4f_branch2a
I0106 23:08:57.422425 14052 net.cpp:129] Top shape: 1 256 2 2 (1024)
I0106 23:08:57.422428 14052 net.cpp:137] Memory required for data: 4460548
I0106 23:08:57.422436 14052 layer_factory.hpp:77] Creating layer scale4f_branch2a
I0106 23:08:57.422443 14052 net.cpp:84] Creating Layer scale4f_branch2a
I0106 23:08:57.422448 14052 net.cpp:406] scale4f_branch2a <- res4f_branch2a
I0106 23:08:57.422453 14052 net.cpp:367] scale4f_branch2a -> res4f_branch2a (in-place)
I0106 23:08:57.422492 14052 layer_factory.hpp:77] Creating layer scale4f_branch2a
I0106 23:08:57.422603 14052 net.cpp:122] Setting up scale4f_branch2a
I0106 23:08:57.422611 14052 net.cpp:129] Top shape: 1 256 2 2 (1024)
I0106 23:08:57.422616 14052 net.cpp:137] Memory required for data: 4464644
I0106 23:08:57.422621 14052 layer_factory.hpp:77] Creating layer res4f_branch2a_relu
I0106 23:08:57.422627 14052 net.cpp:84] Creating Layer res4f_branch2a_relu
I0106 23:08:57.422631 14052 net.cpp:406] res4f_branch2a_relu <- res4f_branch2a
I0106 23:08:57.422638 14052 net.cpp:367] res4f_branch2a_relu -> res4f_branch2a (in-place)
I0106 23:08:57.422646 14052 net.cpp:122] Setting up res4f_branch2a_relu
I0106 23:08:57.422650 14052 net.cpp:129] Top shape: 1 256 2 2 (1024)
I0106 23:08:57.422654 14052 net.cpp:137] Memory required for data: 4468740
I0106 23:08:57.422658 14052 layer_factory.hpp:77] Creating layer res4f_branch2b
I0106 23:08:57.422667 14052 net.cpp:84] Creating Layer res4f_branch2b
I0106 23:08:57.422672 14052 net.cpp:406] res4f_branch2b <- res4f_branch2a
I0106 23:08:57.422677 14052 net.cpp:380] res4f_branch2b -> res4f_branch2b
I0106 23:08:57.424448 14052 net.cpp:122] Setting up res4f_branch2b
I0106 23:08:57.424463 14052 net.cpp:129] Top shape: 1 256 2 2 (1024)
I0106 23:08:57.424466 14052 net.cpp:137] Memory required for data: 4472836
I0106 23:08:57.424474 14052 layer_factory.hpp:77] Creating layer bn4f_branch2b
I0106 23:08:57.424484 14052 net.cpp:84] Creating Layer bn4f_branch2b
I0106 23:08:57.424489 14052 net.cpp:406] bn4f_branch2b <- res4f_branch2b
I0106 23:08:57.424494 14052 net.cpp:367] bn4f_branch2b -> res4f_branch2b (in-place)
I0106 23:08:57.424690 14052 net.cpp:122] Setting up bn4f_branch2b
I0106 23:08:57.424700 14052 net.cpp:129] Top shape: 1 256 2 2 (1024)
I0106 23:08:57.424702 14052 net.cpp:137] Memory required for data: 4476932
I0106 23:08:57.424711 14052 layer_factory.hpp:77] Creating layer scale4f_branch2b
I0106 23:08:57.424720 14052 net.cpp:84] Creating Layer scale4f_branch2b
I0106 23:08:57.424724 14052 net.cpp:406] scale4f_branch2b <- res4f_branch2b
I0106 23:08:57.424729 14052 net.cpp:367] scale4f_branch2b -> res4f_branch2b (in-place)
I0106 23:08:57.424770 14052 layer_factory.hpp:77] Creating layer scale4f_branch2b
I0106 23:08:57.424882 14052 net.cpp:122] Setting up scale4f_branch2b
I0106 23:08:57.424890 14052 net.cpp:129] Top shape: 1 256 2 2 (1024)
I0106 23:08:57.424895 14052 net.cpp:137] Memory required for data: 4481028
I0106 23:08:57.424901 14052 layer_factory.hpp:77] Creating layer res4f_branch2b_relu
I0106 23:08:57.424907 14052 net.cpp:84] Creating Layer res4f_branch2b_relu
I0106 23:08:57.424911 14052 net.cpp:406] res4f_branch2b_relu <- res4f_branch2b
I0106 23:08:57.424919 14052 net.cpp:367] res4f_branch2b_relu -> res4f_branch2b (in-place)
I0106 23:08:57.424926 14052 net.cpp:122] Setting up res4f_branch2b_relu
I0106 23:08:57.424932 14052 net.cpp:129] Top shape: 1 256 2 2 (1024)
I0106 23:08:57.424935 14052 net.cpp:137] Memory required for data: 4485124
I0106 23:08:57.424938 14052 layer_factory.hpp:77] Creating layer res4f_branch2c
I0106 23:08:57.424947 14052 net.cpp:84] Creating Layer res4f_branch2c
I0106 23:08:57.424952 14052 net.cpp:406] res4f_branch2c <- res4f_branch2b
I0106 23:08:57.424957 14052 net.cpp:380] res4f_branch2c -> res4f_branch2c
I0106 23:08:57.426391 14052 net.cpp:122] Setting up res4f_branch2c
I0106 23:08:57.426406 14052 net.cpp:129] Top shape: 1 1024 2 2 (4096)
I0106 23:08:57.426410 14052 net.cpp:137] Memory required for data: 4501508
I0106 23:08:57.426417 14052 layer_factory.hpp:77] Creating layer bn4f_branch2c
I0106 23:08:57.426425 14052 net.cpp:84] Creating Layer bn4f_branch2c
I0106 23:08:57.426429 14052 net.cpp:406] bn4f_branch2c <- res4f_branch2c
I0106 23:08:57.426435 14052 net.cpp:367] bn4f_branch2c -> res4f_branch2c (in-place)
I0106 23:08:57.426643 14052 net.cpp:122] Setting up bn4f_branch2c
I0106 23:08:57.426652 14052 net.cpp:129] Top shape: 1 1024 2 2 (4096)
I0106 23:08:57.426656 14052 net.cpp:137] Memory required for data: 4517892
I0106 23:08:57.426697 14052 layer_factory.hpp:77] Creating layer scale4f_branch2c
I0106 23:08:57.426704 14052 net.cpp:84] Creating Layer scale4f_branch2c
I0106 23:08:57.426708 14052 net.cpp:406] scale4f_branch2c <- res4f_branch2c
I0106 23:08:57.426714 14052 net.cpp:367] scale4f_branch2c -> res4f_branch2c (in-place)
I0106 23:08:57.426755 14052 layer_factory.hpp:77] Creating layer scale4f_branch2c
I0106 23:08:57.426873 14052 net.cpp:122] Setting up scale4f_branch2c
I0106 23:08:57.426882 14052 net.cpp:129] Top shape: 1 1024 2 2 (4096)
I0106 23:08:57.426885 14052 net.cpp:137] Memory required for data: 4534276
I0106 23:08:57.426892 14052 layer_factory.hpp:77] Creating layer res4f
I0106 23:08:57.426898 14052 net.cpp:84] Creating Layer res4f
I0106 23:08:57.426903 14052 net.cpp:406] res4f <- res4e_res4e_relu_0_split_1
I0106 23:08:57.426908 14052 net.cpp:406] res4f <- res4f_branch2c
I0106 23:08:57.426915 14052 net.cpp:380] res4f -> res4f
I0106 23:08:57.426941 14052 net.cpp:122] Setting up res4f
I0106 23:08:57.426949 14052 net.cpp:129] Top shape: 1 1024 2 2 (4096)
I0106 23:08:57.426951 14052 net.cpp:137] Memory required for data: 4550660
I0106 23:08:57.426955 14052 layer_factory.hpp:77] Creating layer res4f_relu
I0106 23:08:57.426964 14052 net.cpp:84] Creating Layer res4f_relu
I0106 23:08:57.426968 14052 net.cpp:406] res4f_relu <- res4f
I0106 23:08:57.426973 14052 net.cpp:367] res4f_relu -> res4f (in-place)
I0106 23:08:57.426980 14052 net.cpp:122] Setting up res4f_relu
I0106 23:08:57.426985 14052 net.cpp:129] Top shape: 1 1024 2 2 (4096)
I0106 23:08:57.426988 14052 net.cpp:137] Memory required for data: 4567044
I0106 23:08:57.426992 14052 layer_factory.hpp:77] Creating layer drop4
I0106 23:08:57.426998 14052 net.cpp:84] Creating Layer drop4
I0106 23:08:57.427002 14052 net.cpp:406] drop4 <- res4f
I0106 23:08:57.427009 14052 net.cpp:367] drop4 -> res4f (in-place)
I0106 23:08:57.427032 14052 net.cpp:122] Setting up drop4
I0106 23:08:57.427039 14052 net.cpp:129] Top shape: 1 1024 2 2 (4096)
I0106 23:08:57.427042 14052 net.cpp:137] Memory required for data: 4583428
I0106 23:08:57.427047 14052 layer_factory.hpp:77] Creating layer res4f_drop4_0_split
I0106 23:08:57.427054 14052 net.cpp:84] Creating Layer res4f_drop4_0_split
I0106 23:08:57.427058 14052 net.cpp:406] res4f_drop4_0_split <- res4f
I0106 23:08:57.427063 14052 net.cpp:380] res4f_drop4_0_split -> res4f_drop4_0_split_0
I0106 23:08:57.427072 14052 net.cpp:380] res4f_drop4_0_split -> res4f_drop4_0_split_1
I0106 23:08:57.427106 14052 net.cpp:122] Setting up res4f_drop4_0_split
I0106 23:08:57.427114 14052 net.cpp:129] Top shape: 1 1024 2 2 (4096)
I0106 23:08:57.427119 14052 net.cpp:129] Top shape: 1 1024 2 2 (4096)
I0106 23:08:57.427124 14052 net.cpp:137] Memory required for data: 4616196
I0106 23:08:57.427126 14052 layer_factory.hpp:77] Creating layer res5a_branch1
I0106 23:08:57.427134 14052 net.cpp:84] Creating Layer res5a_branch1
I0106 23:08:57.427139 14052 net.cpp:406] res5a_branch1 <- res4f_drop4_0_split_0
I0106 23:08:57.427146 14052 net.cpp:380] res5a_branch1 -> res5a_branch1
I0106 23:08:57.432338 14052 net.cpp:122] Setting up res5a_branch1
I0106 23:08:57.432354 14052 net.cpp:129] Top shape: 1 2048 1 1 (2048)
I0106 23:08:57.432358 14052 net.cpp:137] Memory required for data: 4624388
I0106 23:08:57.432365 14052 layer_factory.hpp:77] Creating layer bn5a_branch1
I0106 23:08:57.432374 14052 net.cpp:84] Creating Layer bn5a_branch1
I0106 23:08:57.432379 14052 net.cpp:406] bn5a_branch1 <- res5a_branch1
I0106 23:08:57.432386 14052 net.cpp:367] bn5a_branch1 -> res5a_branch1 (in-place)
I0106 23:08:57.432596 14052 net.cpp:122] Setting up bn5a_branch1
I0106 23:08:57.432606 14052 net.cpp:129] Top shape: 1 2048 1 1 (2048)
I0106 23:08:57.432610 14052 net.cpp:137] Memory required for data: 4632580
I0106 23:08:57.432618 14052 layer_factory.hpp:77] Creating layer scale5a_branch1
I0106 23:08:57.432624 14052 net.cpp:84] Creating Layer scale5a_branch1
I0106 23:08:57.432629 14052 net.cpp:406] scale5a_branch1 <- res5a_branch1
I0106 23:08:57.432634 14052 net.cpp:367] scale5a_branch1 -> res5a_branch1 (in-place)
I0106 23:08:57.432677 14052 layer_factory.hpp:77] Creating layer scale5a_branch1
I0106 23:08:57.432798 14052 net.cpp:122] Setting up scale5a_branch1
I0106 23:08:57.432806 14052 net.cpp:129] Top shape: 1 2048 1 1 (2048)
I0106 23:08:57.432811 14052 net.cpp:137] Memory required for data: 4640772
I0106 23:08:57.432817 14052 layer_factory.hpp:77] Creating layer res5a_branch2a
I0106 23:08:57.432827 14052 net.cpp:84] Creating Layer res5a_branch2a
I0106 23:08:57.432832 14052 net.cpp:406] res5a_branch2a <- res4f_drop4_0_split_1
I0106 23:08:57.432838 14052 net.cpp:380] res5a_branch2a -> res5a_branch2a
I0106 23:08:57.434446 14052 net.cpp:122] Setting up res5a_branch2a
I0106 23:08:57.434460 14052 net.cpp:129] Top shape: 1 512 1 1 (512)
I0106 23:08:57.434463 14052 net.cpp:137] Memory required for data: 4642820
I0106 23:08:57.434470 14052 layer_factory.hpp:77] Creating layer bn5a_branch2a
I0106 23:08:57.434478 14052 net.cpp:84] Creating Layer bn5a_branch2a
I0106 23:08:57.434484 14052 net.cpp:406] bn5a_branch2a <- res5a_branch2a
I0106 23:08:57.434489 14052 net.cpp:367] bn5a_branch2a -> res5a_branch2a (in-place)
I0106 23:08:57.434695 14052 net.cpp:122] Setting up bn5a_branch2a
I0106 23:08:57.434703 14052 net.cpp:129] Top shape: 1 512 1 1 (512)
I0106 23:08:57.434706 14052 net.cpp:137] Memory required for data: 4644868
I0106 23:08:57.434715 14052 layer_factory.hpp:77] Creating layer scale5a_branch2a
I0106 23:08:57.434723 14052 net.cpp:84] Creating Layer scale5a_branch2a
I0106 23:08:57.434727 14052 net.cpp:406] scale5a_branch2a <- res5a_branch2a
I0106 23:08:57.434733 14052 net.cpp:367] scale5a_branch2a -> res5a_branch2a (in-place)
I0106 23:08:57.434772 14052 layer_factory.hpp:77] Creating layer scale5a_branch2a
I0106 23:08:57.434890 14052 net.cpp:122] Setting up scale5a_branch2a
I0106 23:08:57.434897 14052 net.cpp:129] Top shape: 1 512 1 1 (512)
I0106 23:08:57.434900 14052 net.cpp:137] Memory required for data: 4646916
I0106 23:08:57.434907 14052 layer_factory.hpp:77] Creating layer res5a_branch2a_relu
I0106 23:08:57.434916 14052 net.cpp:84] Creating Layer res5a_branch2a_relu
I0106 23:08:57.434921 14052 net.cpp:406] res5a_branch2a_relu <- res5a_branch2a
I0106 23:08:57.434926 14052 net.cpp:367] res5a_branch2a_relu -> res5a_branch2a (in-place)
I0106 23:08:57.434932 14052 net.cpp:122] Setting up res5a_branch2a_relu
I0106 23:08:57.434937 14052 net.cpp:129] Top shape: 1 512 1 1 (512)
I0106 23:08:57.434940 14052 net.cpp:137] Memory required for data: 4648964
I0106 23:08:57.434944 14052 layer_factory.hpp:77] Creating layer res5a_branch2b
I0106 23:08:57.434953 14052 net.cpp:84] Creating Layer res5a_branch2b
I0106 23:08:57.434958 14052 net.cpp:406] res5a_branch2b <- res5a_branch2a
I0106 23:08:57.434963 14052 net.cpp:380] res5a_branch2b -> res5a_branch2b
I0106 23:08:57.444439 14052 net.cpp:122] Setting up res5a_branch2b
I0106 23:08:57.444470 14052 net.cpp:129] Top shape: 1 512 1 1 (512)
I0106 23:08:57.444475 14052 net.cpp:137] Memory required for data: 4651012
I0106 23:08:57.444499 14052 layer_factory.hpp:77] Creating layer bn5a_branch2b
I0106 23:08:57.444551 14052 net.cpp:84] Creating Layer bn5a_branch2b
I0106 23:08:57.444561 14052 net.cpp:406] bn5a_branch2b <- res5a_branch2b
I0106 23:08:57.444572 14052 net.cpp:367] bn5a_branch2b -> res5a_branch2b (in-place)
I0106 23:08:57.444833 14052 net.cpp:122] Setting up bn5a_branch2b
I0106 23:08:57.444841 14052 net.cpp:129] Top shape: 1 512 1 1 (512)
I0106 23:08:57.444844 14052 net.cpp:137] Memory required for data: 4653060
I0106 23:08:57.444859 14052 layer_factory.hpp:77] Creating layer scale5a_branch2b
I0106 23:08:57.444885 14052 net.cpp:84] Creating Layer scale5a_branch2b
I0106 23:08:57.444890 14052 net.cpp:406] scale5a_branch2b <- res5a_branch2b
I0106 23:08:57.444895 14052 net.cpp:367] scale5a_branch2b -> res5a_branch2b (in-place)
I0106 23:08:57.444944 14052 layer_factory.hpp:77] Creating layer scale5a_branch2b
I0106 23:08:57.445077 14052 net.cpp:122] Setting up scale5a_branch2b
I0106 23:08:57.445085 14052 net.cpp:129] Top shape: 1 512 1 1 (512)
I0106 23:08:57.445088 14052 net.cpp:137] Memory required for data: 4655108
I0106 23:08:57.445097 14052 layer_factory.hpp:77] Creating layer res5a_branch2b_relu
I0106 23:08:57.445111 14052 net.cpp:84] Creating Layer res5a_branch2b_relu
I0106 23:08:57.445116 14052 net.cpp:406] res5a_branch2b_relu <- res5a_branch2b
I0106 23:08:57.445122 14052 net.cpp:367] res5a_branch2b_relu -> res5a_branch2b (in-place)
I0106 23:08:57.445127 14052 net.cpp:122] Setting up res5a_branch2b_relu
I0106 23:08:57.445132 14052 net.cpp:129] Top shape: 1 512 1 1 (512)
I0106 23:08:57.445137 14052 net.cpp:137] Memory required for data: 4657156
I0106 23:08:57.445140 14052 layer_factory.hpp:77] Creating layer res5a_branch2c
I0106 23:08:57.445149 14052 net.cpp:84] Creating Layer res5a_branch2c
I0106 23:08:57.445153 14052 net.cpp:406] res5a_branch2c <- res5a_branch2b
I0106 23:08:57.445159 14052 net.cpp:380] res5a_branch2c -> res5a_branch2c
I0106 23:08:57.448015 14052 net.cpp:122] Setting up res5a_branch2c
I0106 23:08:57.448031 14052 net.cpp:129] Top shape: 1 2048 1 1 (2048)
I0106 23:08:57.448035 14052 net.cpp:137] Memory required for data: 4665348
I0106 23:08:57.448042 14052 layer_factory.hpp:77] Creating layer bn5a_branch2c
I0106 23:08:57.448052 14052 net.cpp:84] Creating Layer bn5a_branch2c
I0106 23:08:57.448057 14052 net.cpp:406] bn5a_branch2c <- res5a_branch2c
I0106 23:08:57.448063 14052 net.cpp:367] bn5a_branch2c -> res5a_branch2c (in-place)
I0106 23:08:57.448292 14052 net.cpp:122] Setting up bn5a_branch2c
I0106 23:08:57.448302 14052 net.cpp:129] Top shape: 1 2048 1 1 (2048)
I0106 23:08:57.448305 14052 net.cpp:137] Memory required for data: 4673540
I0106 23:08:57.448314 14052 layer_factory.hpp:77] Creating layer scale5a_branch2c
I0106 23:08:57.448320 14052 net.cpp:84] Creating Layer scale5a_branch2c
I0106 23:08:57.448325 14052 net.cpp:406] scale5a_branch2c <- res5a_branch2c
I0106 23:08:57.448333 14052 net.cpp:367] scale5a_branch2c -> res5a_branch2c (in-place)
I0106 23:08:57.448374 14052 layer_factory.hpp:77] Creating layer scale5a_branch2c
I0106 23:08:57.448493 14052 net.cpp:122] Setting up scale5a_branch2c
I0106 23:08:57.448503 14052 net.cpp:129] Top shape: 1 2048 1 1 (2048)
I0106 23:08:57.448506 14052 net.cpp:137] Memory required for data: 4681732
I0106 23:08:57.448514 14052 layer_factory.hpp:77] Creating layer res5a
I0106 23:08:57.448521 14052 net.cpp:84] Creating Layer res5a
I0106 23:08:57.448526 14052 net.cpp:406] res5a <- res5a_branch1
I0106 23:08:57.448534 14052 net.cpp:406] res5a <- res5a_branch2c
I0106 23:08:57.448539 14052 net.cpp:380] res5a -> res5a
I0106 23:08:57.448575 14052 net.cpp:122] Setting up res5a
I0106 23:08:57.448583 14052 net.cpp:129] Top shape: 1 2048 1 1 (2048)
I0106 23:08:57.448586 14052 net.cpp:137] Memory required for data: 4689924
I0106 23:08:57.448590 14052 layer_factory.hpp:77] Creating layer res5a_relu
I0106 23:08:57.448598 14052 net.cpp:84] Creating Layer res5a_relu
I0106 23:08:57.448602 14052 net.cpp:406] res5a_relu <- res5a
I0106 23:08:57.448608 14052 net.cpp:367] res5a_relu -> res5a (in-place)
I0106 23:08:57.448614 14052 net.cpp:122] Setting up res5a_relu
I0106 23:08:57.448621 14052 net.cpp:129] Top shape: 1 2048 1 1 (2048)
I0106 23:08:57.448623 14052 net.cpp:137] Memory required for data: 4698116
I0106 23:08:57.448627 14052 layer_factory.hpp:77] Creating layer res5a_res5a_relu_0_split
I0106 23:08:57.448633 14052 net.cpp:84] Creating Layer res5a_res5a_relu_0_split
I0106 23:08:57.448637 14052 net.cpp:406] res5a_res5a_relu_0_split <- res5a
I0106 23:08:57.448644 14052 net.cpp:380] res5a_res5a_relu_0_split -> res5a_res5a_relu_0_split_0
I0106 23:08:57.448652 14052 net.cpp:380] res5a_res5a_relu_0_split -> res5a_res5a_relu_0_split_1
I0106 23:08:57.448693 14052 net.cpp:122] Setting up res5a_res5a_relu_0_split
I0106 23:08:57.448701 14052 net.cpp:129] Top shape: 1 2048 1 1 (2048)
I0106 23:08:57.448706 14052 net.cpp:129] Top shape: 1 2048 1 1 (2048)
I0106 23:08:57.448710 14052 net.cpp:137] Memory required for data: 4714500
I0106 23:08:57.448714 14052 layer_factory.hpp:77] Creating layer res5b_branch2a
I0106 23:08:57.448721 14052 net.cpp:84] Creating Layer res5b_branch2a
I0106 23:08:57.448725 14052 net.cpp:406] res5b_branch2a <- res5a_res5a_relu_0_split_0
I0106 23:08:57.448731 14052 net.cpp:380] res5b_branch2a -> res5b_branch2a
I0106 23:08:57.451536 14052 net.cpp:122] Setting up res5b_branch2a
I0106 23:08:57.451550 14052 net.cpp:129] Top shape: 1 512 1 1 (512)
I0106 23:08:57.451555 14052 net.cpp:137] Memory required for data: 4716548
I0106 23:08:57.451563 14052 layer_factory.hpp:77] Creating layer bn5b_branch2a
I0106 23:08:57.451573 14052 net.cpp:84] Creating Layer bn5b_branch2a
I0106 23:08:57.451578 14052 net.cpp:406] bn5b_branch2a <- res5b_branch2a
I0106 23:08:57.451584 14052 net.cpp:367] bn5b_branch2a -> res5b_branch2a (in-place)
I0106 23:08:57.451789 14052 net.cpp:122] Setting up bn5b_branch2a
I0106 23:08:57.451797 14052 net.cpp:129] Top shape: 1 512 1 1 (512)
I0106 23:08:57.451800 14052 net.cpp:137] Memory required for data: 4718596
I0106 23:08:57.451809 14052 layer_factory.hpp:77] Creating layer scale5b_branch2a
I0106 23:08:57.451817 14052 net.cpp:84] Creating Layer scale5b_branch2a
I0106 23:08:57.451822 14052 net.cpp:406] scale5b_branch2a <- res5b_branch2a
I0106 23:08:57.451828 14052 net.cpp:367] scale5b_branch2a -> res5b_branch2a (in-place)
I0106 23:08:57.451867 14052 layer_factory.hpp:77] Creating layer scale5b_branch2a
I0106 23:08:57.451987 14052 net.cpp:122] Setting up scale5b_branch2a
I0106 23:08:57.451994 14052 net.cpp:129] Top shape: 1 512 1 1 (512)
I0106 23:08:57.451997 14052 net.cpp:137] Memory required for data: 4720644
I0106 23:08:57.452004 14052 layer_factory.hpp:77] Creating layer res5b_branch2a_relu
I0106 23:08:57.452010 14052 net.cpp:84] Creating Layer res5b_branch2a_relu
I0106 23:08:57.452015 14052 net.cpp:406] res5b_branch2a_relu <- res5b_branch2a
I0106 23:08:57.452023 14052 net.cpp:367] res5b_branch2a_relu -> res5b_branch2a (in-place)
I0106 23:08:57.452028 14052 net.cpp:122] Setting up res5b_branch2a_relu
I0106 23:08:57.452033 14052 net.cpp:129] Top shape: 1 512 1 1 (512)
I0106 23:08:57.452037 14052 net.cpp:137] Memory required for data: 4722692
I0106 23:08:57.452041 14052 layer_factory.hpp:77] Creating layer res5b_branch2b
I0106 23:08:57.452050 14052 net.cpp:84] Creating Layer res5b_branch2b
I0106 23:08:57.452054 14052 net.cpp:406] res5b_branch2b <- res5b_branch2a
I0106 23:08:57.452060 14052 net.cpp:380] res5b_branch2b -> res5b_branch2b
I0106 23:08:57.457870 14052 net.cpp:122] Setting up res5b_branch2b
I0106 23:08:57.457883 14052 net.cpp:129] Top shape: 1 512 1 1 (512)
I0106 23:08:57.457887 14052 net.cpp:137] Memory required for data: 4724740
I0106 23:08:57.457898 14052 layer_factory.hpp:77] Creating layer bn5b_branch2b
I0106 23:08:57.457908 14052 net.cpp:84] Creating Layer bn5b_branch2b
I0106 23:08:57.457913 14052 net.cpp:406] bn5b_branch2b <- res5b_branch2b
I0106 23:08:57.457919 14052 net.cpp:367] bn5b_branch2b -> res5b_branch2b (in-place)
I0106 23:08:57.458127 14052 net.cpp:122] Setting up bn5b_branch2b
I0106 23:08:57.458134 14052 net.cpp:129] Top shape: 1 512 1 1 (512)
I0106 23:08:57.458137 14052 net.cpp:137] Memory required for data: 4726788
I0106 23:08:57.458147 14052 layer_factory.hpp:77] Creating layer scale5b_branch2b
I0106 23:08:57.458154 14052 net.cpp:84] Creating Layer scale5b_branch2b
I0106 23:08:57.458159 14052 net.cpp:406] scale5b_branch2b <- res5b_branch2b
I0106 23:08:57.458164 14052 net.cpp:367] scale5b_branch2b -> res5b_branch2b (in-place)
I0106 23:08:57.458204 14052 layer_factory.hpp:77] Creating layer scale5b_branch2b
I0106 23:08:57.458323 14052 net.cpp:122] Setting up scale5b_branch2b
I0106 23:08:57.458330 14052 net.cpp:129] Top shape: 1 512 1 1 (512)
I0106 23:08:57.458333 14052 net.cpp:137] Memory required for data: 4728836
I0106 23:08:57.458340 14052 layer_factory.hpp:77] Creating layer res5b_branch2b_relu
I0106 23:08:57.458346 14052 net.cpp:84] Creating Layer res5b_branch2b_relu
I0106 23:08:57.458350 14052 net.cpp:406] res5b_branch2b_relu <- res5b_branch2b
I0106 23:08:57.458357 14052 net.cpp:367] res5b_branch2b_relu -> res5b_branch2b (in-place)
I0106 23:08:57.458364 14052 net.cpp:122] Setting up res5b_branch2b_relu
I0106 23:08:57.458369 14052 net.cpp:129] Top shape: 1 512 1 1 (512)
I0106 23:08:57.458372 14052 net.cpp:137] Memory required for data: 4730884
I0106 23:08:57.458376 14052 layer_factory.hpp:77] Creating layer res5b_branch2c
I0106 23:08:57.458385 14052 net.cpp:84] Creating Layer res5b_branch2c
I0106 23:08:57.458389 14052 net.cpp:406] res5b_branch2c <- res5b_branch2b
I0106 23:08:57.458395 14052 net.cpp:380] res5b_branch2c -> res5b_branch2c
I0106 23:08:57.461197 14052 net.cpp:122] Setting up res5b_branch2c
I0106 23:08:57.461213 14052 net.cpp:129] Top shape: 1 2048 1 1 (2048)
I0106 23:08:57.461217 14052 net.cpp:137] Memory required for data: 4739076
I0106 23:08:57.461226 14052 layer_factory.hpp:77] Creating layer bn5b_branch2c
I0106 23:08:57.461236 14052 net.cpp:84] Creating Layer bn5b_branch2c
I0106 23:08:57.461241 14052 net.cpp:406] bn5b_branch2c <- res5b_branch2c
I0106 23:08:57.461247 14052 net.cpp:367] bn5b_branch2c -> res5b_branch2c (in-place)
I0106 23:08:57.461453 14052 net.cpp:122] Setting up bn5b_branch2c
I0106 23:08:57.461462 14052 net.cpp:129] Top shape: 1 2048 1 1 (2048)
I0106 23:08:57.461467 14052 net.cpp:137] Memory required for data: 4747268
I0106 23:08:57.461474 14052 layer_factory.hpp:77] Creating layer scale5b_branch2c
I0106 23:08:57.461484 14052 net.cpp:84] Creating Layer scale5b_branch2c
I0106 23:08:57.461489 14052 net.cpp:406] scale5b_branch2c <- res5b_branch2c
I0106 23:08:57.461494 14052 net.cpp:367] scale5b_branch2c -> res5b_branch2c (in-place)
I0106 23:08:57.461536 14052 layer_factory.hpp:77] Creating layer scale5b_branch2c
I0106 23:08:57.461658 14052 net.cpp:122] Setting up scale5b_branch2c
I0106 23:08:57.461666 14052 net.cpp:129] Top shape: 1 2048 1 1 (2048)
I0106 23:08:57.461670 14052 net.cpp:137] Memory required for data: 4755460
I0106 23:08:57.461676 14052 layer_factory.hpp:77] Creating layer res5b
I0106 23:08:57.461684 14052 net.cpp:84] Creating Layer res5b
I0106 23:08:57.461689 14052 net.cpp:406] res5b <- res5a_res5a_relu_0_split_1
I0106 23:08:57.461694 14052 net.cpp:406] res5b <- res5b_branch2c
I0106 23:08:57.461700 14052 net.cpp:380] res5b -> res5b
I0106 23:08:57.461727 14052 net.cpp:122] Setting up res5b
I0106 23:08:57.461735 14052 net.cpp:129] Top shape: 1 2048 1 1 (2048)
I0106 23:08:57.461740 14052 net.cpp:137] Memory required for data: 4763652
I0106 23:08:57.461743 14052 layer_factory.hpp:77] Creating layer res5b_relu
I0106 23:08:57.461750 14052 net.cpp:84] Creating Layer res5b_relu
I0106 23:08:57.461753 14052 net.cpp:406] res5b_relu <- res5b
I0106 23:08:57.461760 14052 net.cpp:367] res5b_relu -> res5b (in-place)
I0106 23:08:57.461767 14052 net.cpp:122] Setting up res5b_relu
I0106 23:08:57.461772 14052 net.cpp:129] Top shape: 1 2048 1 1 (2048)
I0106 23:08:57.461776 14052 net.cpp:137] Memory required for data: 4771844
I0106 23:08:57.461781 14052 layer_factory.hpp:77] Creating layer res5b_res5b_relu_0_split
I0106 23:08:57.461788 14052 net.cpp:84] Creating Layer res5b_res5b_relu_0_split
I0106 23:08:57.461791 14052 net.cpp:406] res5b_res5b_relu_0_split <- res5b
I0106 23:08:57.461797 14052 net.cpp:380] res5b_res5b_relu_0_split -> res5b_res5b_relu_0_split_0
I0106 23:08:57.461804 14052 net.cpp:380] res5b_res5b_relu_0_split -> res5b_res5b_relu_0_split_1
I0106 23:08:57.461843 14052 net.cpp:122] Setting up res5b_res5b_relu_0_split
I0106 23:08:57.461850 14052 net.cpp:129] Top shape: 1 2048 1 1 (2048)
I0106 23:08:57.461855 14052 net.cpp:129] Top shape: 1 2048 1 1 (2048)
I0106 23:08:57.461859 14052 net.cpp:137] Memory required for data: 4788228
I0106 23:08:57.461864 14052 layer_factory.hpp:77] Creating layer res5c_branch2a
I0106 23:08:57.461872 14052 net.cpp:84] Creating Layer res5c_branch2a
I0106 23:08:57.461876 14052 net.cpp:406] res5c_branch2a <- res5b_res5b_relu_0_split_0
I0106 23:08:57.461884 14052 net.cpp:380] res5c_branch2a -> res5c_branch2a
I0106 23:08:57.464684 14052 net.cpp:122] Setting up res5c_branch2a
I0106 23:08:57.464697 14052 net.cpp:129] Top shape: 1 512 1 1 (512)
I0106 23:08:57.464701 14052 net.cpp:137] Memory required for data: 4790276
I0106 23:08:57.464709 14052 layer_factory.hpp:77] Creating layer bn5c_branch2a
I0106 23:08:57.464716 14052 net.cpp:84] Creating Layer bn5c_branch2a
I0106 23:08:57.464721 14052 net.cpp:406] bn5c_branch2a <- res5c_branch2a
I0106 23:08:57.464727 14052 net.cpp:367] bn5c_branch2a -> res5c_branch2a (in-place)
I0106 23:08:57.464929 14052 net.cpp:122] Setting up bn5c_branch2a
I0106 23:08:57.464937 14052 net.cpp:129] Top shape: 1 512 1 1 (512)
I0106 23:08:57.464941 14052 net.cpp:137] Memory required for data: 4792324
I0106 23:08:57.464949 14052 layer_factory.hpp:77] Creating layer scale5c_branch2a
I0106 23:08:57.464957 14052 net.cpp:84] Creating Layer scale5c_branch2a
I0106 23:08:57.464962 14052 net.cpp:406] scale5c_branch2a <- res5c_branch2a
I0106 23:08:57.464967 14052 net.cpp:367] scale5c_branch2a -> res5c_branch2a (in-place)
I0106 23:08:57.465008 14052 layer_factory.hpp:77] Creating layer scale5c_branch2a
I0106 23:08:57.465131 14052 net.cpp:122] Setting up scale5c_branch2a
I0106 23:08:57.465139 14052 net.cpp:129] Top shape: 1 512 1 1 (512)
I0106 23:08:57.465143 14052 net.cpp:137] Memory required for data: 4794372
I0106 23:08:57.465153 14052 layer_factory.hpp:77] Creating layer res5c_branch2a_relu
I0106 23:08:57.465162 14052 net.cpp:84] Creating Layer res5c_branch2a_relu
I0106 23:08:57.465167 14052 net.cpp:406] res5c_branch2a_relu <- res5c_branch2a
I0106 23:08:57.465173 14052 net.cpp:367] res5c_branch2a_relu -> res5c_branch2a (in-place)
I0106 23:08:57.465178 14052 net.cpp:122] Setting up res5c_branch2a_relu
I0106 23:08:57.465183 14052 net.cpp:129] Top shape: 1 512 1 1 (512)
I0106 23:08:57.465188 14052 net.cpp:137] Memory required for data: 4796420
I0106 23:08:57.465191 14052 layer_factory.hpp:77] Creating layer res5c_branch2b
I0106 23:08:57.465203 14052 net.cpp:84] Creating Layer res5c_branch2b
I0106 23:08:57.465206 14052 net.cpp:406] res5c_branch2b <- res5c_branch2a
I0106 23:08:57.465212 14052 net.cpp:380] res5c_branch2b -> res5c_branch2b
I0106 23:08:57.470999 14052 net.cpp:122] Setting up res5c_branch2b
I0106 23:08:57.471014 14052 net.cpp:129] Top shape: 1 512 1 1 (512)
I0106 23:08:57.471017 14052 net.cpp:137] Memory required for data: 4798468
I0106 23:08:57.471025 14052 layer_factory.hpp:77] Creating layer bn5c_branch2b
I0106 23:08:57.471032 14052 net.cpp:84] Creating Layer bn5c_branch2b
I0106 23:08:57.471037 14052 net.cpp:406] bn5c_branch2b <- res5c_branch2b
I0106 23:08:57.471046 14052 net.cpp:367] bn5c_branch2b -> res5c_branch2b (in-place)
I0106 23:08:57.471256 14052 net.cpp:122] Setting up bn5c_branch2b
I0106 23:08:57.471264 14052 net.cpp:129] Top shape: 1 512 1 1 (512)
I0106 23:08:57.471268 14052 net.cpp:137] Memory required for data: 4800516
I0106 23:08:57.471276 14052 layer_factory.hpp:77] Creating layer scale5c_branch2b
I0106 23:08:57.471283 14052 net.cpp:84] Creating Layer scale5c_branch2b
I0106 23:08:57.471287 14052 net.cpp:406] scale5c_branch2b <- res5c_branch2b
I0106 23:08:57.471292 14052 net.cpp:367] scale5c_branch2b -> res5c_branch2b (in-place)
I0106 23:08:57.471333 14052 layer_factory.hpp:77] Creating layer scale5c_branch2b
I0106 23:08:57.471462 14052 net.cpp:122] Setting up scale5c_branch2b
I0106 23:08:57.471472 14052 net.cpp:129] Top shape: 1 512 1 1 (512)
I0106 23:08:57.471475 14052 net.cpp:137] Memory required for data: 4802564
I0106 23:08:57.471484 14052 layer_factory.hpp:77] Creating layer res5c_branch2b_relu
I0106 23:08:57.471490 14052 net.cpp:84] Creating Layer res5c_branch2b_relu
I0106 23:08:57.471498 14052 net.cpp:406] res5c_branch2b_relu <- res5c_branch2b
I0106 23:08:57.471503 14052 net.cpp:367] res5c_branch2b_relu -> res5c_branch2b (in-place)
I0106 23:08:57.471509 14052 net.cpp:122] Setting up res5c_branch2b_relu
I0106 23:08:57.471514 14052 net.cpp:129] Top shape: 1 512 1 1 (512)
I0106 23:08:57.471518 14052 net.cpp:137] Memory required for data: 4804612
I0106 23:08:57.471521 14052 layer_factory.hpp:77] Creating layer res5c_branch2c
I0106 23:08:57.471530 14052 net.cpp:84] Creating Layer res5c_branch2c
I0106 23:08:57.471534 14052 net.cpp:406] res5c_branch2c <- res5c_branch2b
I0106 23:08:57.471540 14052 net.cpp:380] res5c_branch2c -> res5c_branch2c
I0106 23:08:57.474349 14052 net.cpp:122] Setting up res5c_branch2c
I0106 23:08:57.474364 14052 net.cpp:129] Top shape: 1 2048 1 1 (2048)
I0106 23:08:57.474369 14052 net.cpp:137] Memory required for data: 4812804
I0106 23:08:57.474376 14052 layer_factory.hpp:77] Creating layer bn5c_branch2c
I0106 23:08:57.474385 14052 net.cpp:84] Creating Layer bn5c_branch2c
I0106 23:08:57.474390 14052 net.cpp:406] bn5c_branch2c <- res5c_branch2c
I0106 23:08:57.474396 14052 net.cpp:367] bn5c_branch2c -> res5c_branch2c (in-place)
I0106 23:08:57.474607 14052 net.cpp:122] Setting up bn5c_branch2c
I0106 23:08:57.474617 14052 net.cpp:129] Top shape: 1 2048 1 1 (2048)
I0106 23:08:57.474620 14052 net.cpp:137] Memory required for data: 4820996
I0106 23:08:57.474629 14052 layer_factory.hpp:77] Creating layer scale5c_branch2c
I0106 23:08:57.474635 14052 net.cpp:84] Creating Layer scale5c_branch2c
I0106 23:08:57.474639 14052 net.cpp:406] scale5c_branch2c <- res5c_branch2c
I0106 23:08:57.474647 14052 net.cpp:367] scale5c_branch2c -> res5c_branch2c (in-place)
I0106 23:08:57.474689 14052 layer_factory.hpp:77] Creating layer scale5c_branch2c
I0106 23:08:57.474814 14052 net.cpp:122] Setting up scale5c_branch2c
I0106 23:08:57.474824 14052 net.cpp:129] Top shape: 1 2048 1 1 (2048)
I0106 23:08:57.474828 14052 net.cpp:137] Memory required for data: 4829188
I0106 23:08:57.474836 14052 layer_factory.hpp:77] Creating layer res5c
I0106 23:08:57.474843 14052 net.cpp:84] Creating Layer res5c
I0106 23:08:57.474848 14052 net.cpp:406] res5c <- res5b_res5b_relu_0_split_1
I0106 23:08:57.474853 14052 net.cpp:406] res5c <- res5c_branch2c
I0106 23:08:57.474858 14052 net.cpp:380] res5c -> res5c
I0106 23:08:57.474885 14052 net.cpp:122] Setting up res5c
I0106 23:08:57.474892 14052 net.cpp:129] Top shape: 1 2048 1 1 (2048)
I0106 23:08:57.474896 14052 net.cpp:137] Memory required for data: 4837380
I0106 23:08:57.474900 14052 layer_factory.hpp:77] Creating layer res5c_relu
I0106 23:08:57.474906 14052 net.cpp:84] Creating Layer res5c_relu
I0106 23:08:57.474912 14052 net.cpp:406] res5c_relu <- res5c
I0106 23:08:57.474920 14052 net.cpp:367] res5c_relu -> res5c (in-place)
I0106 23:08:57.474926 14052 net.cpp:122] Setting up res5c_relu
I0106 23:08:57.474932 14052 net.cpp:129] Top shape: 1 2048 1 1 (2048)
I0106 23:08:57.474936 14052 net.cpp:137] Memory required for data: 4845572
I0106 23:08:57.474939 14052 layer_factory.hpp:77] Creating layer drop5
I0106 23:08:57.474946 14052 net.cpp:84] Creating Layer drop5
I0106 23:08:57.474951 14052 net.cpp:406] drop5 <- res5c
I0106 23:08:57.474956 14052 net.cpp:367] drop5 -> res5c (in-place)
I0106 23:08:57.474982 14052 net.cpp:122] Setting up drop5
I0106 23:08:57.474989 14052 net.cpp:129] Top shape: 1 2048 1 1 (2048)
I0106 23:08:57.474992 14052 net.cpp:137] Memory required for data: 4853764
I0106 23:08:57.474997 14052 layer_factory.hpp:77] Creating layer fc_4
I0106 23:08:57.475014 14052 net.cpp:84] Creating Layer fc_4
I0106 23:08:57.475019 14052 net.cpp:406] fc_4 <- res5c
I0106 23:08:57.475028 14052 net.cpp:380] fc_4 -> fc_4
I0106 23:08:57.475194 14052 net.cpp:122] Setting up fc_4
I0106 23:08:57.475201 14052 net.cpp:129] Top shape: 1 7 (7)
I0106 23:08:57.475205 14052 net.cpp:137] Memory required for data: 4853792
I0106 23:08:57.475214 14052 layer_factory.hpp:77] Creating layer prob
I0106 23:08:57.475227 14052 net.cpp:84] Creating Layer prob
I0106 23:08:57.475232 14052 net.cpp:406] prob <- fc_4
I0106 23:08:57.475244 14052 net.cpp:380] prob -> prob
I0106 23:08:57.475313 14052 net.cpp:122] Setting up prob
I0106 23:08:57.475320 14052 net.cpp:129] Top shape: 1 7 (7)
I0106 23:08:57.475324 14052 net.cpp:137] Memory required for data: 4853820
I0106 23:08:57.475328 14052 net.cpp:200] prob does not need backward computation.
I0106 23:08:57.475332 14052 net.cpp:200] fc_4 does not need backward computation.
I0106 23:08:57.475337 14052 net.cpp:200] drop5 does not need backward computation.
I0106 23:08:57.475340 14052 net.cpp:200] res5c_relu does not need backward computation.
…
